TadGAN/models/record0/critic_z.pt (torch, 1195 bytes, 1 tensors)

dense1.weight f4 [1, 20]
00000000: 303d d2be 1310 fdbe eee4 80be f5e3 e9be
00000010: eb84 02bf 8546 04bf 6c69 b1be e48a efbe
00000020: ac52 04bf 94f0 0ebf 0b16 01bf ae20 a5be
00000030: af5b 75be 9a7b 13bf 5a69 44be 41a3 12bf
00000040: 3544 59be 5bf8 f5be 73cf 84be 7159 a2be
-0.41062307 -0.49426326 -0.2517466 -0.4568173 -0.50984067 -0.51670104 -0.34650743 -0.46785653
-0.5168865 -0.55835843 -0.5042426 -0.32251495 -0.23960756 -0.57610476 -0.19180813 -0.57280356
-0.21217425 -0.48041043 -0.2593952 -0.31708863
