TadGAN/models/record0/critic_x.pt (torch, 9829 bytes, 3 tensors)

dense1.weight f4 [20, 100]
00000000: 6666 04bf b453 26bf 4ea9 d0be 621c 89be
00000010: dad9 1bbf 663b cebe dd65 1cbf fdec 28bf
00000020: b2bf ccbe 15e6 dcbe f5c2 c2be 8352 27bf
00000030: 962f bcbe 55f9 33bf 9cdc 17bf a964 c7be
00000040: 391b 22bf a385 c9be c319 d2be 1800 26bf
00000050: 6662 03bf 6396 20bf f2e2 a5be 2dcb eabe
00000060: 584d fabe c294 c4be e511 0bbf 321c 10bf
00000070: 3bb6 8fbe 25e5 18bf 0ea6 dbbe 7e28 10bf
00000080: 5403 cebe acb2 2dbf eb6f d3be b6a9 c4be
00000090: 02de dbbe ddf4 18bf 0ee4 d9be 6f7d f0be
000000a0: 9f47 2cbf 07d9 0ebf 24e1 f5be 361d 15bf
000000b0: 1222 16bf e7bf 9ebe 2d0c 0fbf df5d f6be
000000c0: 983a e5be 23f8 2bbf 7b0a acbe 1203 d6be
000000d0: 78ae 09bf 48ce b9be b33b 8dbe fa96 dfbe
000000e0: 005a 9cbe e6cc 0cbf 8b1d 9cbe f2c2 00bf
000000f0: 7357 33bf 66fd 03bf 51f7 d8be 0881 f5be
00000100: 19ab 0abf 5656 afbe d853 25bf ab09 bebe
00000110: be4d d9be 8e56 d1be 6ccb 14bf de30 ebbe
00000120: a114 eabe b208 ddbe a3bc 99be 8c2c 03bf
00000130: bbbb 9abe 7362 fdbe 1c0e 2ebf 6c6d 09bf
00000140: c8bc 02bf fdc2 c7be 8657 1abf 8db8 bebe
00000150: 0aa8 ebbe 3a0e a0be 28fc 2bbf 2083 f5be
00000160: 367e 35bf 2ecc d5be 2aae c7be f7ec 16bf
00000170: 40e1 f2be d884 d3be 4593 06bf aff2 f0be
00000180: f438 efbe ca45 82be ffff cebe c71a 28bf
00000190: dcd6 07bf f742 0cbf 6401 cabe 8a2f 88be
000001a0: 612c 09bf 2aef f1be 5f6c 0dbf a778 1dbf
000001b0: b23a ebbe 9c32 b6be 0f69 ffbe a894 1dbf
000001c0: dfed e1be adb9 0abf 28ad ffbe d798 e5be
000001d0: 6a41 15bf 027a 87be 81b5 62be 08ee 26bf
000001e0: bfcc dbbe aedf 13bf c8fc ebbe d7d2 cebe
000001f0: 9c85 ebbe 4640 d2be 77c7 21bf d7c9 1ebf
00000200: c9bc 8dbe 48cc 11bf 22ed cebe ddb6 1fbf
00000210: 0c63 b6be 5f14 1bbf f3f9 99be 7dfd c0be
00000220: 6590 d2be 0541 19bf 2fb6 c6be 86de 11bf
00000230: 12ba 11bf fa9f 25bf 1cdf b8be d0c2 cfbe
00000240: 8ac1 0cbf c83d c2be 00f0 02bf dc7a c7be
00000250: 846d 05bf 217b 07bf 3898 b2be df67 bfbe
00000260: fc9c c3be 9eaf c6be 9c53 d3be 2a49 09bf
00000270: d9a1 96be eb12 0cbf e0c4 a3be 30f3 e6be
00000280: dbdd 31bf 3346 00bf a463 e2be a626 d2be
00000290: a816 e3be 4e00 a7be a456 e0be 73fa 9cbe
000002a0: e283 b6be 541c e7be 7cec 28bf 9a6e 14bf
000002b0: 5ada 8fbe fbe8 bebe f558 bebe f46b 03bf
000002c0: 6681 cdbe d15c e0be b988 0dbf 51f2 29bf
000002d0: 5486 d7be 51e7 c7be c38c 07bf 172b c1be
000002e0: 78d3 f1be 1a5e b5be decd 2cbf 8da0 ecbe
000002f0: db2a 08bf d661 9fbe 89b6 bbbe 3ee4 0ebf
00000300: 6ec6 92be f092 bbbe acbf 00bf 692a edbe
00000310: 2124 00bf efc1 aebe 3034 aabe 3371 22bf
00000320: 0b5b 11bf b863 31bf 4b38 d3be 82b4 c6be
00000330: a66d e9be 1546 01bf 5dae 16bf 8cdf 2bbf
00000340: 5101 a7be d8c5 bfbe a818 07bf 65d7 0fbf
00000350: 04f7 c5be c7d0 0dbf fcbc 14bf 02a9 cbbe
00000360: 1115 06bf cefb aebe 1a8f c7be 3d0d 22bf
00000370: df7f e9be bfbe 15bf 0108 d7be a430 d6be
00000380: 52ab 28bf bf09 07bf bcaa 28bf bf5d 11bf
00000390: 43d8 8fbe 90ee 15bf 2203 abbe b70a 0dbf
000003a0: 06a1 f3be 278e 00bf a28b 8fbe 7be9 d8be
000003b0: 3480 aabe d20a 25bf 8ec6 bebe eeca 16bf
000003c0: 46de 09bf 0b52 1cbf 59d3 bfbe f0ce e3be
000003d0: 86cf e1be 002f 86be f633 0dbf b7b0 d8be
000003e0: 313a cbbe 46ca 15bf 0754 e6be f139 7ebe
000003f0: e05d 07bf a2f7 86be c81b dfbe be4c 13bf
-0.5171875 -0.6497147 -0.4075417 -0.26779467 -0.6087929 -0.40279692 -0.6109293 -0.65986615
-0.39990002 -0.4314429 -0.38039365 -0.6536028 -0.36755055 -0.70302325 -0.59321 -0.38943985
-0.6332279 -0.3935977 -0.4103528 -0.64843893 -0.5132202 -0.6272947 -0.32399708 -0.45858136
-0.48887134 -0.38394743 -0.5432418 -0.5629302 -0.28068718 -0.59724647 -0.42900127 -0.56311786
-0.40236914 -0.67850757 -0.41296324 -0.3841073 -0.42942816 -0.5974863 -0.42556804 -0.46970698
-0.67296785 -0.5579991 -0.4802333 -0.582477 -0.5864574 -0.31005785 -0.55877954 -0.48118493
-0.44771266 -0.671755 -0.33601746 -0.41799217 -0.53781843 -0.36290193 -0.2758461 -0.43669873
-0.30537415 -0.5500015 -0.3049129 -0.5029746 -0.7005531 -0.5155853 -0.42376187 -0.47950006
-0.54167324 -0.34245557 -0.6458106 -0.3711675 -0.42442125 -0.40886348 -0.581229 -0.4593572
-0.45718864 -0.43170696 -0.3002673 -0.5123985 -0.30221352 -0.49489173 -0.6799028 -0.5368259
-0.5106931 -0.39015952 -0.602898 -0.37250176 -0.4602664 -0.31260854 -0.67181635 -0.47951603
-0.7089571 -0.4175734 -0.39000064 -0.5895533 -0.47437477 -0.4131229 -0.52568465 -0.47060153
-0.4672314 -0.2544387 -0.40429685 -0.6566586 -0.53062224 -0.5478968 -0.39454186 -0.2659877
-0.5358334 -0.4725278 -0.55243486 -0.61512226 -0.45943218 -0.35585487 -0.4988484 -0.61554956
-0.44126794 -0.5418957 -0.49936795 -0.4484317 -0.5830294 -0.26460272 -0.22139551 -0.65206957
-0.42929646 -0.57763183 -0.46091294 -0.40395233 -0.46000373 -0.41064662 -0.63194984 -0.62026733
-0.27683094 -0.56952333 -0.40415293 -0.623884 -0.35622442 -0.6057796 -0.3007351 -0.37693396
-0.4112579 -0.59864837 -0.3881087 -0.5698017 -0.56924546 -0.6469723 -0.3610772 -0.40578318
-0.5498282 -0.3793776 -0.5114746 -0.38960922 -0.5212023 -0.52922255 -0.3488176 -0.37383935
-0.38205707 -0.3880586 -0.41274726 -0.53627264 -0.29420355 -0.54716367 -0.3198614 -0.45107412
-0.6947915 -0.50107116 -0.44216645 -0.4104511 -0.44353223 -0.3261742 -0.43816102 -0.30659828
-0.35647494 -0.451388 -0.65985847 -0.57981265 -0.28096277 -0.37287125 -0.37177244 -0.513366
-0.40137786 -0.43820813 -0.5528675 -0.6638537 -0.42094672 -0.39043668 -0.5294916 -0.37728187
-0.4723165 -0.35423356 -0.6750163 -0.4621624 -0.5319039 -0.3112933 -0.366627 -0.5581702
-0.28667015 -0.36635542 -0.5029247 -0.4632142 -0.5005513 -0.34132335 -0.3324294 -0.6345398
-0.56779546 -0.69292784 -0.41253886 -0.38809592 -0.45591468 -0.5049756 -0.5885981 -0.6713798
-0.32618192 -0.3745563 -0.52772 -0.5618804 -0.3866502 -0.55396694 -0.5810087 -0.3977738
-0.52375895 -0.34176487 -0.38976365 -0.6330145 -0.4560537 -0.5849418 -0.41998294 -0.41833985
-0.65886414 -0.52749246 -0.6588552 -0.5678367 -0.28094682 -0.5856714 -0.33400828 -0.55094475
-0.4758379 -0.5021691 -0.2803622 -0.4236563 -0.33300936 -0.64469635 -0.3726086 -0.58903396
-0.5385479 -0.6106269 -0.37465933 -0.44493818 -0.4410364 -0.26207733 -0.5515741 -0.42322323
-0.39692834 -0.5851177 -0.44985983 -0.2482679 -0.52877617 -0.26360804 -0.43575883 -0.57538974

dense1.bias f4 [20]
00000000: 5f12 17bf eb15 06bf 1a71 08bf 37ca 0cbf
00000010: bea8 233f 5ff3 0fbf 14a6 033f 196c 163f
00000020: 1049 f23e 80f6 153f c21c 01bf c252 2a3f
00000030: bd5c 033f 5726 1bbf 6290 153f 3f5b fdbe
00000040: f325 eebe a5d7 16bf 7e71 373f e0a6 1dbf
-0.5901241 -0.52377194 -0.5329758 -0.54996055 0.63929355 -0.5623073 0.5142529 0.58758694
0.47321367 0.58579254 -0.50434506 0.6653253 0.5131338 -0.60605377 0.58423436 -0.49483678
-0.46513328 -0.589228 0.7165755 -0.61582756

dense2.weight f4 [1, 20]
00000000: 045a 483f d8f7 5f3f 008b 563f 82e0 393f
00000010: 4ac5 54bf 3438 613f 5e23 55bf d921 41bf
00000020: 9478 52bf 803e 47bf 7971 483f 932d 43bf
00000030: bc0a 50bf 1008 333f 1f01 54bf 1df7 583f
00000040: 1e8e 633f f8ea 373f a035 2cbf 1722 633f
0.7826235 0.87487555 0.8380585 0.72608197 -0.8311354 0.87976384 -0.8325709 -0.7544227
-0.8221524 -0.7782974 0.78298146 -0.76241416 -0.8126638 0.6993418 -0.8281421 0.84752065
0.8888873 0.7184291 -0.67269325 0.8872389
