TadGAN/models/record0/decoder.pt (torch, 627619 bytes, 18 tensors)

lstm.weight_ih_l0 f4 [256, 20]
000000 0e 27 56 bd 38 36 68 3d de b0 47 bd 3c 38 2f 3d
       -0.05228334 0.056692332 -0.048752658 0.04277824
000010 9c 48 70 3c 2a 1d d6 3d 27 8a b1 bc 2c 57 a4 bc
       0.014665749 0.10454781 -0.021672321 -0.020061098
000020 c5 b3 e6 3d 14 36 33 3d 31 23 0d 3e aa 32 99 bc
       0.11264757 0.043752745 0.13782956 -0.018700916
000030 54 b2 ae bb 58 56 1a 3e ad 49 bc bd c2 03 f0 3d
       -0.005331317 0.15072 -0.0919374 0.11719467
000040 fe 65 0d be 7b 96 8f bd 96 a7 60 3c 2b f0 00 be
       -0.13808438 -0.07011124 0.013711831 -0.12591617
000050 8d f3 8b bd 5f b6 11 bc d6 0c c1 3d 62 ad cc bd
       -0.06833563 -0.008893578 0.094262764 -0.09994008
000060 62 6b 5d 3d 71 e1 43 bd 6b 04 a6 bd 68 d0 96 3d
       0.054057486 -0.04782242 -0.081063114 0.07363969
000070 2e 51 aa bc 8c 58 eb bd a5 ba 94 bd c7 f9 a1 bd
       -0.020790663 -0.11491498 -0.07262162 -0.07908969
000080 f5 d3 43 bd f4 9d 5a bd b9 4e 7d bd 9d 80 b2 3d
       -0.04780956 -0.053373292 -0.061842654 0.08715937
000090 36 c4 fa 3c 33 57 62 3d 92 9c 00 3e c1 bc fa 3c
       0.030611139 0.05525894 0.12559727 0.030607583
0000a0 b4 9b 77 3d 5a b1 7e 3c aa d1 d1 3c 06 9b ae bd
       0.060451224 0.015545214 0.02561267 -0.08525662
0000b0 49 19 02 be aa dd 03 bd 0a c3 aa bd ea fc d0 bd
       -0.12704958 -0.032193817 -0.08337982 -0.102044895
0000c0 76 dd 82 3d d8 02 07 3d 16 ad 34 bd fa 61 11 3c
       0.063898966 0.032961696 -0.04411038 0.008873457
0000d0 f1 cc c0 bc ca cb fc 3d 31 2a af 3d 6a 9c e2 bd
       -0.023535224 0.12343557 0.08552969 -0.1106499
0000e0 aa 8c e8 bd e0 ae b4 bd b9 fc a7 3d 9d 49 28 bd
       -0.113549545 -0.08822417 0.082025 -0.041085828
0000f0 32 2a 5b bd 3b fd a7 3d be 65 21 3d e6 92 87 bd
       -0.053507037 0.08202597 0.03940367 -0.066198155
000100 78 d9 44 bd 7c 44 4c bc 95 72 83 3d 94 59 ff 3d
       -0.048058957 -0.0124675 0.06418339 0.124682575
000110 eb 1f 65 bc f9 e7 bb 3b c7 10 48 bd cc 63 fa 3d
       -0.013984661 0.0057344404 -0.048844125 0.12226066
000120 38 58 09 bd 69 61 32 bc ee e9 e9 bc 04 e2 08 3e
       -0.033531398 -0.010887482 -0.02855393 0.13367468
000130 2c 46 97 bc 16 08 04 bd b4 5d 10 3e 7d 7f 16 be
       -0.018466078 -0.032234274 0.14098245 -0.1469707
000140 eb 5b 54 3d d3 3d d0 bd 2a 24 ca 3d 45 8f 56 bd
       0.051845472 -0.10168042 0.09870179 -0.052382726
000150 0f 81 d9 bd d6 49 2e 3c d2 3a c3 bd 7f b5 9f 3d
       -0.10620319 0.010637721 -0.095327035 0.077982895
000160 cc f3 28 3d df bc d8 3d 33 f0 a1 3d 08 65 27 3c
       0.041248128 0.10582899 0.079071425 0.010216959
000170 9f a9 bc bd 97 52 f1 3d 3d a4 9e bc 23 f5 e9 3d
       -0.0921204 0.11783331 -0.019365424 0.11423709
000180 b2 8d 00 be b9 7a 22 3d 49 bf ae 3d 08 e7 c4 bd
       -0.12554052 0.03966782 0.085325785 -0.09614378
000190 12 19 c9 3c 47 d5 c1 3d 38 59 9a bc 8e e8 72 3d
       0.024548087 0.094645076 -0.018841371 0.059303813
0001a0 f5 5e a8 3d 87 bf b2 3d 77 59 85 3d cf 7c 88 bd
       0.082212366 0.08727937 0.06511205 -0.0666443
0001b0 60 a3 39 3d c2 9b 9d bb 3a 20 bc bd 94 22 b0 3d
       0.045321822 -0.0048098275 -0.09185834 0.08600345
0001c0 f7 84 9c 3d 94 c5 5e bd 06 a1 89 bc ae dd 55 3d
       0.076425485 -0.054387644 -0.016800415 0.052213363
0001d0 90 cd 8d bd 6d ff 80 bd 42 74 48 3d bc 44 ef bd
       -0.069239736 -0.062987186 0.048938997 -0.11683032
0001e0 b8 34 cf bc 7f ff 88 3c 06 17 b3 bd b6 57 30 bd
       -0.025293693 0.016723393 -0.08744626 -0.043052398
0001f0 06 30 de bd f9 56 da 3d 39 37 9f bd 5f 40 f6 3d
       -0.108490035 0.1066112 -0.07774205 0.120239966
000200 87 c4 3f bd c6 dd 59 bd 15 b5 12 bd 13 b6 cc bc
       -0.046818282 -0.053190015 -0.035817225 -0.024989164
000210 e8 0a f8 3d cd 66 22 3d 8c 39 a2 3d 90 b2 d1 3d
       0.12111455 0.03964882 0.079211324 0.10239136
000220 8e 2a da bd 11 ea 87 3d 79 a3 0e 3e c1 ef 2a bd
       -0.10652648 0.066364415 0.13929547 -0.041732553
000230 41 59 69 bd 9b 0c e3 bd 50 fb bf bd 5d c8 d8 bd
       -0.056969885 -0.11086389 -0.09374106 -0.10585091
000240 58 6d c7 bd 44 74 74 bc 41 c8 ad bd a3 e2 ef 3c
       -0.097376525 -0.014920298 -0.08485461 0.029282873
000250 2b f6 c2 3d d8 7b a7 3d 68 70 af bd d7 92 ef 3d
       0.09519609 0.08177918 -0.08566362 0.11697929
000260 c9 6f c4 bd d3 2e a2 3d 95 3a c8 3b aa 7d 2c bd
       -0.09591634 0.07919087 0.006110499 -0.04211203
000270 08 bc cf 3c 72 d6 a4 bd c7 6f fc 3d c2 5b 18 bd
       0.025358215 -0.08048715 0.12326007 -0.037196882
000280 03 7a a3 3d 06 26 a9 bd fe 11 aa bd 43 f1 ec bc
       0.07982256 -0.082592055 -0.08304213 -0.028923636
000290 f4 b5 14 3d 0e 1b c3 3d ff 3b 48 bd c6 8e 09 3e
       0.036306337 0.09526645 -0.04888534 0.1343337
0002a0 c2 66 18 3e f4 13 00 3c 93 96 e2 3c ff 85 c3 bd
       0.14882949 0.007817257 0.02765969 -0.09547042
0002b0 2f 90 85 bd 89 18 cb bd 7d 87 4b 3d 85 77 a9 bd
       -0.065216415 -0.09916789 0.04968976 -0.0827475
0002c0 6c 92 90 3c 85 b9 22 bb f1 e0 ed 3d 83 7a e6 bd
       0.017647944 -0.0024829817 0.1161517 -0.11253836
0002d0 02 35 24 3d f5 3e 06 be 34 78 36 bd be 90 be bd
       0.040089615 -0.13109954 -0.04454823 -0.09304951
0002e0 7c e2 76 bc e6 c4 be bd f2 d3 03 3e da c4 e3 3c
       -0.0150686465 -0.09314899 0.1287382 0.027803827
0002f0 dd 54 b9 bd b8 c3 9c 3d 4f 68 be 3d 2f c6 25 bd
       -0.090493895 0.07654518 0.09297239 -0.040472206
000300 8a ee 1e 3d 9c f9 ac bd 94 65 46 3d ec 12 ab bd
       0.038801707 -0.08446047 0.048436716 -0.083532184
000310 50 f8 bd bd ce e1 83 3d 3f 62 8f bc cb 28 19 3d
       -0.092758775 0.06439553 -0.017502902 0.03739242
000320 71 b0 bb bd 04 9c 9b 3d 39 34 bd 3d ac 13 14 bd
       -0.09164513 0.07598117 0.09238476 -0.036151573
000330 15 c7 88 3d e4 da 15 3e 5a 76 de 3d 85 4e 15 3d
       0.06678597 0.14634281 0.108624175 0.036451835
000340 c0 64 28 bc 5e 8e c8 3d 07 d1 4f 3d 07 58 e7 bc
       -0.010277927 0.097927794 0.050736453 -0.028240217
000350 27 73 80 bd ca 36 a9 3c c2 e3 41 3c c8 0b ac bd
       -0.062719636 0.020656008 0.011834087 -0.084006846
000360 41 80 97 3d 68 7e 0d 3e 67 d3 b2 3d 0c 25 91 3d
       0.07397509 0.13817751 0.08731728 0.07087144
000370 4f f1 84 bd 39 f1 b0 3d 21 d9 94 3d a9 4e 86 bd
       -0.064913385 0.086397596 0.072679766 -0.06557972
000380 fe e7 fc bd bb b8 9b 3d 6a 51 f3 3d 7d e3 0d 3e
       -0.123489365 0.07603594 0.11880763 0.13856311
000390 af a8 92 3c 65 d6 85 3c 4c 58 7b 3d 4a cd 7a 3d
       0.0179027 0.016337583 0.061363503 0.061230935
0003a0 3b ce f0 3c b4 ba 45 bd 24 f7 f7 3c 82 e4 c0 bd
       0.029395213 -0.048273757 0.030269213 -0.094185844
0003b0 a1 94 5e bd 0d f2 18 3e d2 0d 22 bc 6e 6d 0b bd
       -0.054340962 0.14936085 -0.00989099 -0.034039907
0003c0 18 77 89 bd ff e8 8b bc 0d 3d bd bd b2 d6 5c bd
       -0.067121685 -0.017078875 -0.0924016 -0.053915687
0003d0 7e f4 e4 bd 0c ef 06 bd 97 33 09 3e 83 97 6f 3d
       -0.11179446 -0.032942817 0.13398586 0.058494102
0003e0 db d4 cf b9 db 98 82 bd 71 df eb 3d 9d 99 00 bd
       -0.00039640706 -0.06376811 0.115172274 -0.031396497
0003f0 90 f2 09 3e c0 68 e4 3d 16 c0 c5 bd 06 5a 30 3d
       0.13471437 0.11152792 -0.09655778 0.043054603

lstm.weight_hh_l0 f4 [256, 64]
000000 a0 6a e2 3c 4e 18 e5 bd 24 c4 cd 3d 76 c1 bf bd
       0.027638733 -0.111862764 0.100471765 -0.093630716
000010 c0 3c 12 3d e4 45 cd bd c0 0b 57 3c e8 fa 5a bd
       0.035702467 -0.10023096 0.01312536 -0.05346194
000020 e8 49 df 3d 88 b8 df 3c 4c 27 e3 bd e0 b6 dc bb
       0.109027684 0.027309671 -0.1109148 -0.0067356676
000030 04 b9 c1 3d 06 4d b3 3d e8 86 d2 3c 42 ab 8a bd
       0.09459117 0.087549254 0.025699094 -0.06770946
000040 d8 b6 e5 3d 68 57 ec 3c 08 f0 f2 3d a0 61 fe 3c
       0.11216515 0.028850272 0.118621886 0.03105241
000050 14 16 bc 3d ea 8e a5 bd 80 68 b8 bc 04 1e f5 bd
       0.091838986 -0.08083899 -0.022510767 -0.11968616
000060 10 af e8 bc 7e 78 a5 bd 54 14 6d 3d a0 97 a5 3d
       -0.028403789 -0.08079623 0.057880715 0.08085561
000070 d4 d5 cf bd 62 7e f0 bd 40 ac 52 3c 36 9b c1 bd
       -0.10148206 -0.117428556 0.01285845 -0.09453432
000080 c8 f0 84 bd 9a 3d ee bd 44 a8 f4 bd a0 29 45 3c
       -0.06491238 -0.11632843 -0.119461566 0.01203385
000090 f0 4b 42 bd f8 42 3a bd 60 f3 22 bd 28 84 c9 bd
       -0.0474357 -0.045474023 -0.03978288 -0.0983966
0000a0 00 84 4d bb fe dc f4 bd 9c df 5f bd 68 1a 42 bd
       -0.0031359196 -0.119562134 -0.05465661 -0.047388464
0000b0 ca d9 86 bd 0a 89 e1 3d 08 8a 3f bd 14 7c f0 bd
       -0.06584509 0.11012466 -0.046762496 -0.11742416
0000c0 d2 0a a6 3d 60 0f 63 3d 14 45 02 bd 60 38 a8 3b
       0.081075326 0.055434585 -0.03180416 0.0051336735
0000d0 ca a7 d5 3d 18 29 bb 3c 80 a0 97 3c 92 16 86 3d
       0.10432394 0.022846743 0.01850915 0.06547274
0000e0 b4 59 da 3d ec da 1a bd e4 17 ef 3d e0 3c 9e bc
       0.10661641 -0.037806436 0.11674479 -0.019316137
0000f0 80 7a ca 3d 06 4b da 3d f8 89 a6 bc 20 68 81 bb
       0.09886646 0.10658841 -0.02032946 -0.0039491802
000100 24 c2 19 bd 28 91 1a 3d 88 79 78 3d 00 f4 a3 3b
       -0.037538663 0.037736088 0.060662776 0.0050034523
000110 60 0e 3e bd 70 3f cc 3c 80 de 1a bc 7a 3c fc 3d
       -0.046400428 0.024932593 -0.009452462 0.123162225
000120 b8 86 98 3c cc 01 ad 3d 86 44 da 3d a0 27 92 bd
       0.018618926 0.08447608 0.10657601 -0.07136464
000130 cc af b0 bd c0 25 1b bc cc 83 b7 3d c0 fe a7 bd
       -0.086272806 -0.0094694495 0.08960685 -0.082028866
000140 f8 6d 4b bd a0 58 84 bc 58 2f 86 bc 00 82 c0 3b
       -0.04966542 -0.016155541 -0.016379997 0.005874872
000150 90 d3 75 bc 7c 14 3b 3d 48 12 a4 3c f8 95 dc 3d
       -0.015004054 0.045673832 0.020028248 0.10770792
000160 54 a4 b2 3d 30 ba 31 bd 00 cb 52 bb c2 4d f1 bd
       0.08722749 -0.043390453 -0.0032164454 -0.11782409
000170 1a f4 bf 3d 00 57 a6 ba 3e 86 80 3d 36 e8 ab bd
       0.093727306 -0.0012690723 0.06275605 -0.083939
000180 80 cb 98 3a 58 24 46 3d f4 56 b4 bd 54 cb 27 3d
       0.0011657327 0.048374504 -0.088056475 0.040965393
000190 18 31 ae bc f0 7b d1 3c 36 7b ba bd cc ba e3 bd
       -0.021263644 0.025571793 -0.09105532 -0.11119613
0001a0 86 8b b8 bd 60 aa 17 bd e0 21 db 3d f8 52 d4 bc
       -0.09010987 -0.037027717 0.106998205 -0.025918469
0001b0 c0 6e 46 bd 02 d5 f0 bd 7c e4 41 bd f6 15 aa 3d
       -0.048445463 -0.11759378 -0.04733704 0.0830497
0001c0 50 1e bb 3c d8 b6 c1 3d 30 0b 0f 3d ea a1 aa bd
       0.022841603 0.09458703 0.03492278 -0.08331664
0001d0 66 61 d4 bd 30 9a 65 bd a8 1b df bc 68 73 c3 3c
       -0.1037014 -0.056055248 -0.027234867 0.02385874
0001e0 1e 6e c5 3d a8 5c a6 bc 84 5b a0 bd 4e 3d 85 3d
       0.09640144 -0.020307854 -0.07829955 0.065058336
0001f0 78 ac 54 3d e4 90 c7 bd 90 01 61 3c 2e 3b ca 3d
       0.05192229 -0.097444326 0.013733283 0.09874569
000200 10 56 e8 3d 6c 75 ad 3d e6 dd a7 3d dc d0 1d bd
       0.1134454 0.08469662 0.08196621 -0.038529262
000210 f0 7e 28 bc 66 88 a3 3d 0c 43 d2 bd da 69 c3 3d
       -0.0102841705 0.07985 -0.102666944 0.09541674
000220 50 04 2c bc f8 7a 1b bd 70 67 bf 3c ec bb d0 3d
       -0.010499075 -0.03795907 0.023364753 0.10192093
000230 58 87 b5 bc 08 eb 93 3c 7e 54 bc 3d b6 f8 e5 bd
       -0.022159263 0.018056408 0.09195803 -0.112290785
000240 a0 8f a1 bb f8 d6 d8 bc d0 67 80 3d 0c 14 24 3d
       -0.0049304515 -0.026469693 0.06269801 0.04005818
000250 20 0c 6a bd 70 44 b5 3c ae 4a 83 bd e8 8f e4 bc
       -0.05714047 0.02212736 -0.064107284 -0.027900651
000260 0c 1a de 3d 40 0d 18 bb 4e ff 95 bd e8 60 1e 3d
       0.10844812 -0.0023201257 -0.07324086 0.038666636
000270 10 4b e3 bd 98 2a e7 bc 18 35 c5 3c d8 f4 cd bd
       -0.110983014 -0.028218552 0.024073169 -0.10056466
000280 20 cb bf 3b 1a c0 8b 3d 90 13 65 3c 98 f9 9e 3d
       0.005853072 0.0682375 0.013981715 0.0776245
000290 68 bf 4a 3d d8 7d c0 3d 80 d5 a4 bd 44 6a 75 3d
       0.049498945 0.09399003 -0.080485344 0.059915796
0002a0 ba 1f a2 3d 44 61 d5 3d 10 84 ad 3c 20 43 5b bc
       0.079162076 0.104189426 0.021181136 -0.013382703
0002b0 38 ec 95 bd dc d2 30 3d 00 cc 95 bd e0 0b f2 bd
       -0.07320446 0.04316984 -0.073143005 -0.11818671
0002c0 b4 64 c8 bd 6a dd 86 bd 5c 13 41 3d bc 18 71 3d
       -0.097848326 -0.065852 0.047137603 0.05886148
0002d0 48 48 1d bd 6c a2 fc 3d 72 2c e6 bd a0 0a db 3d
       -0.03839901 0.12335667 -0.11238946 0.10695386
0002e0 10 ed 4e bc 80 85 8b ba 06 e3 b0 bd 72 bc 8a bd
       -0.012629762 -0.0010644644 -0.08637051 -0.06774224
0002f0 a0 c1 a2 3b 90 a5 62 3c ee 07 fd 3d 10 6a 00 3d
       0.0049669296 0.0138334185 0.12355028 0.03135115
000300 8c e4 df 3d fe da ee bd 4c 21 01 bd 1c 7a e5 bd
       0.10932264 -0.11662863 -0.031525895 -0.11204931
000310 88 a2 c3 bd 30 e7 29 3c 7a 3d 87 bd 68 48 c6 bd
       -0.09552485 0.010370061 -0.066035226 -0.09681779
000320 d0 c7 fa 3d d6 1f 9b bd 2c 03 ec 3d 58 15 89 bd
       0.122451425 -0.075744316 0.115240425 -0.06693524
000330 fc 72 dd 3d 60 3d 44 3d b0 71 1b bd b6 58 b5 bd
       0.10812947 0.047910094 -0.037950218 -0.08854811
000340 60 58 90 bb 00 c5 7e 3a 90 33 33 3c 88 74 f5 bc
       -0.0044050664 0.00097186863 0.010937586 -0.029962793
000350 46 99 e0 bd 28 f8 f5 3d 50 c5 ca 3c 20 dc 19 bc
       -0.109667346 0.12010223 0.024752289 -0.009390861
000360 b2 93 b7 3d c0 06 73 3b c0 3f 30 3c 88 63 22 3d
       0.089637175 0.003708288 0.010757387 0.0396457
000370 e0 9f 6b 3c 0a aa 8a 3d 18 2b a2 bc a0 71 17 bc
       0.014381379 0.067707136 -0.01979594 -0.009243399
000380 bc 3f 11 bd 86 bf e3 3d d8 fb f8 bd 50 36 cc bd
       -0.035461172 0.111205146 -0.121574104 -0.09971297
000390 40 32 e0 bc 68 47 eb 3c f4 58 4e bd 10 48 0d 3d
       -0.027367711 0.028720573 -0.0503778 0.034492552
0003a0 50 39 83 bd b6 d8 a7 bd 14 e2 5a bd f4 5b 72 bd
       -0.06407416 -0.08195631 -0.05343826 -0.059169725
0003b0 ac be a9 bd 46 68 dd 3d ee 90 f1 3d 64 6d b9 bd
       -0.08288321 0.10810904 0.11795221 -0.09054068
0003c0 3c 48 a1 bd 40 3c 34 bc 00 05 8e 3d e6 27 fe 3d
       -0.07875106 -0.011000693 0.069345474 0.12409954
0003d0 70 e2 74 3d d2 00 e4 3d c8 d8 93 3c a0 32 b6 3d
       0.05978626 0.11132969 0.018047705 0.08896375
0003e0 80 01 87 bc 94 2d 9c bd 20 78 1e bd 7e b7 88 3d
       -0.016480207 -0.07625881 -0.03868878 0.06675623
0003f0 48 e9 bc bc 72 57 ca 3d ec cc a3 bd 44 10 f9 3d
       -0.023060456 0.0987996 -0.0799807 0.121613055

lstm.bias_ih_l0 f4 [256]
000000 0f 86 51 3c 0a 18 81 3d 73 ce 51 3d 21 f4 21 3d
       0.01278831 0.06303413 0.051222276 0.03953946
000010 c1 b0 83 3c 31 19 f1 bd c2 c8 8a 3d f0 b8 95 bd
       0.016075494 -0.11772383 0.06776573 -0.07310665
000020 d0 1e 63 bc 91 ae c9 3d 8c 98 04 3e 58 7a 7a bc
       -0.013862327 0.09847749 0.12948817 -0.015287958
000030 b4 0a ab bd aa 68 3c bd 70 ed 5c bd e4 a5 a9 bc
       -0.08351651 -0.045998253 -0.053937376 -0.020708986
000040 0b ed cf bb 1a 56 d3 3d 17 88 84 bc 47 2b c3 bc
       -0.0063453964 0.10319157 -0.016178174 -0.023824347
000050 01 b6 0f 3e 1a 91 7b bc b0 cd 8a bb 79 2b 62 3c
       0.14034273 -0.015354419 -0.0042359456 0.01380431
000060 4b 47 77 bd ea 3f 78 bd 3b af 2a bd 1a be b2 3d
       -0.060370725 -0.06060783 -0.04167102 0.08727665
000070 c4 36 cf bd e3 b9 8b 3c 6e 89 c2 bd 95 f4 98 bd
       -0.101178676 0.017056411 -0.09498869 -0.07468525
000080 61 58 35 bd 6e 2e a3 3d d2 ba fd 3d 7d cf b2 3d
       -0.044273738 0.0796784 0.12389149 0.087309815
000090 36 5a 94 3b 6f a9 88 3d b8 05 15 3c ca ba ba 3d
       0.0045273555 0.06672942 0.009095602 0.091176584
0000a0 d3 45 cd bd 58 69 4a bd 98 1b a0 bb 89 ab ff 3d
       -0.100230835 -0.04941687 -0.004886102 0.124838896
0000b0 78 3c 59 bd ca 5d 87 3d dc d5 67 3d 5f 39 3a bd
       -0.053036183 0.06609686 0.056600437 -0.04546487
0000c0 9a 7a 7f 3d 03 b0 2a 3c 5f 16 94 bb d2 85 ce 3d
       0.06237278 0.010417941 -0.0045192684 0.10084118
0000d0 a1 44 a6 3d 68 4e 99 3d 59 62 c6 3d 48 f0 a4 bc
       0.08118559 0.07485658 0.09686727 -0.020134106
0000e0 c2 4d 11 bd 95 78 ec 3d 59 a7 d6 3d ec 5b 9d 3d
       -0.035474546 0.11546437 0.10481138 0.07683548
0000f0 1d 85 29 bc ce b0 49 bd 23 6c a7 3c 05 c4 ba 3d
       -0.010346678 -0.04924088 0.020437306 0.09119419
000100 94 88 f9 3d 58 5d 1d bd e0 7b 6a bc f0 5c 03 bd
       0.12184253 -0.038419098 -0.014311761 -0.032071054
000110 34 05 31 3d 32 d0 f8 3d 08 34 cb 3d 70 00 b6 3c
       0.043217853 0.12149085 0.099220335 0.022217005
000120 70 31 40 bc 74 be b7 bd 14 13 13 3d c4 fc be bd
       -0.011730537 -0.08971873 0.035906866 -0.09325555
000130 86 55 e8 3d 16 c3 b8 3d bc f9 b5 3d 14 63 76 bd
       0.11344437 0.09021585 0.08885524 -0.060153082
000140 80 86 cb ba 90 20 28 3d 1c 5f 5a 3d 20 20 1b 3c
       -0.0015527755 0.04104668 0.05331336 0.009468108
000150 30 2a a4 3d 34 cb d9 3d 9a fd bd 3d a0 e1 d5 3d
       0.08015859 0.10634461 0.09276886 0.10443425
000160 40 23 9f bb 4e d0 90 3d 50 9d 70 3d a2 d3 e8 3d
       -0.004856497 0.07070981 0.058743775 0.11368491
000170 80 f1 bf 3a 64 8a f6 bd e8 de d7 3c 00 55 79 3d
       0.0014644116 -0.12038115 0.026351407 0.060872078
000180 20 1c 30 3c fa c7 96 3d 64 4a 67 3d 3c e7 be bd
       0.010748893 0.07362361 0.05646743 -0.09321448
000190 06 16 ff 3d 84 75 4a 3d 5c 84 5e bd f0 59 e3 bc
       0.124553725 0.049428478 -0.054325446 -0.027752846
0001a0 f4 3f b4 3d 1c df da 3d 60 73 9d 3d 5c 71 ca bd
       0.088012606 0.10687086 0.07688022 -0.09884903
0001b0 ea 56 91 3d e8 75 f4 3d 56 5a d8 3d 20 58 4e bd
       0.07096656 0.11936551 0.10564105 -0.05037701
0001c0 ac 4b 46 3d 7c e2 15 3d a0 6a 10 bd 88 89 25 3d
       0.04841201 0.036592945 -0.035257936 0.040414363
0001d0 0e 24 a5 bd d2 c8 c5 bd 6c 16 db 3d ac cd c5 3d
       -0.080635175 -0.09657444 0.10697636 0.096583694
0001e0 b8 a9 c5 3d 88 41 03 3d 80 54 fe bb c0 71 b8 bc
       0.09651512 0.032044917 -0.007761538 -0.022515178
0001f0 90 ec d4 bd a0 90 ff 3c 7a 1d e0 3d 2c e7 ce bd
       -0.10396683 0.031196892 0.10943122 -0.10102686
000200 82 2f 09 bd 55 06 ad 3d 09 5a e3 bc 0f c0 ab 3d
       -0.033492573 0.08448473 -0.027752893 0.08386242
000210 49 e9 d8 3d 4b ae 66 bd 1a 77 83 3c 67 69 84 bd
       0.105913706 -0.056318562 0.016048003 -0.064654164
000220 4d 06 89 3d c3 f7 42 bd ca 74 d3 bc 1a 2d da 3b
       0.06690655 -0.047599565 -0.025812525 0.0066582086
000230 36 53 08 be c9 a5 b6 3d 24 7a 43 bc 47 01 d6 bd
       -0.13312992 0.0891834 -0.011930976 -0.104494624
000240 77 03 96 3d 82 9c 13 3e f2 67 cd bd f6 af af bd
       0.073248796 0.14415172 -0.100295916 -0.08578484
000250 bc 4a 69 3d 77 27 17 bd 0e c1 c2 3d 05 ee dd 3d
       0.056956038 -0.03690287 0.095094785 0.10836414
000260 d1 4e ef bd 95 a1 91 bc 27 54 e6 3c 73 7d d3 3c
       -0.11684955 -0.017777244 0.028116299 0.025816655
000270 95 2c 07 be cb 7d 28 3d b4 ed 83 bd 7b 70 57 bd
       -0.132006 0.04113559 -0.06441823 -0.052597504
000280 56 7c 96 3d 13 ee eb bd 59 26 88 bd 70 48 a2 3d
       0.07347934 -0.115200184 -0.06647939 0.079239726
000290 37 b4 bf 3c 12 ed 51 bd e0 b3 08 3e 88 c0 cf bd
       0.023401363 -0.05125148 0.13349867 -0.10144144
0002a0 b2 5f 05 be 89 a4 0c be cb 4c 8e 3d 54 fb 94 bd
       -0.13024786 -0.1373464 0.06948241 -0.072744995
0002b0 fa 26 aa 3d 42 40 bf bd d3 e0 e1 bd b2 53 0d be
       0.083082154 -0.09338428 -0.1102921 -0.13801458
0002c0 c1 b2 5a 3d ea 34 7d 3d b7 b8 0a 3e a4 2f 87 3d
       0.05339313 0.06181804 0.13547026 0.066008836
0002d0 39 1f 0a 3e 70 7e 79 bc 56 75 04 be 91 d6 ad 3d
       0.13488473 -0.015227899 -0.12935385 0.08488191
0002e0 e9 cc e5 bd 9c bb 05 3e 32 9c 4d bc c3 5b 73 bd
       -0.11220724 0.13059849 -0.012549447 -0.059413683
0002f0 95 5f d6 bd 7a 2b a3 3c 3f 2f bf bd 79 88 7d 3d
       -0.104674496 0.019918192 -0.09335183 0.06189773
000300 24 41 b3 3d 1b 85 e2 3d 98 c9 ec 3d e8 b9 0e 3e
       0.08752659 0.11060544 0.115618885 0.13938105
000310 9a 0f 5a bd f1 9c e5 3d 7a 84 b9 3d b8 1f b8 bd
       -0.053237535 0.11211575 0.09058471 -0.08990425
000320 03 91 e4 3b 23 37 25 bd 36 c9 6a bd 4d 65 91 bd
       0.0069752946 -0.040335786 -0.057320796 -0.070994
000330 73 6c c1 bd b1 74 d3 3d 84 db f7 3d d2 d7 18 bd
       -0.09444513 0.103249915 0.12102416 -0.037315197
000340 7c ec b0 3d b6 90 c9 3d ac 90 ca bd b1 79 db bd
       0.08638856 0.098420545 -0.09890875 -0.1071657
000350 0b 6f b5 bd 42 35 00 3d 21 41 b9 bd 9d f4 6b bd
       -0.088590704 0.03130079 -0.090456255 -0.05760633
000360 e8 af d4 3d a5 ea e9 3d b6 c2 0d 3e b9 20 60 bd
       0.10385114 0.11421708 0.13843808 -0.054718707
000370 9a f5 2a bd 1f ad ba bb f4 14 88 3b de 01 bf bd
       -0.04173813 -0.005696907 0.0041528884 -0.09326528
000380 b2 98 81 39 bb c2 c2 3d c1 8b b4 3d 6a 79 a6 3d
       0.00024718564 0.09509798 0.088157184 0.08128627
000390 35 51 72 3d 2c 6e 01 bd 83 1d a4 bd 1e 3a 59 3d
       0.059159476 -0.03159921 -0.080134414 0.05303394
0003a0 e9 95 1e bd e2 47 44 3d 8a d8 d5 3d a7 1c 55 bd
       -0.038717184 0.047920115 0.10441692 -0.052029278
0003b0 80 9b f9 3d 2a 6f c5 bd be 3c de 3a 59 ab a7 3d
       0.121878624 -0.096403435 0.0016955358 0.08186979
0003c0 0b 02 bf 3c 56 b9 a3 bd 72 85 aa bd 10 b8 d1 3d
       0.023316404 -0.079943344 -0.08326234 0.10240185
0003d0 73 3c 0c 3e 71 46 d0 3d ea 78 99 bd 69 b8 ff 3d
       0.13694935 0.10169686 -0.07493766 0.12486345
0003e0 bd c4 29 3c 57 d2 8f 3d fe b0 8d bd 0b 22 3b bd
       0.0103618475 0.07022541 -0.06918524 -0.045686763
0003f0 61 91 03 3e 6e 45 b4 3d 50 61 37 bd a1 7f f4 3d
       0.12848426 0.08802305 -0.04477054 0.11938406

lstm.bias_hh_l0 f4 [256]
000000 0e 00 58 bb 46 7e 5e bc ae 48 ce bd 52 82 06 3e
       -0.0032959017 -0.013579911 -0.10072456 0.13135651
000010 3e 20 0f 3e 20 03 ff bd df 16 70 3d 40 8c d7 3d
       0.13977143 -0.12451768 0.05861556 0.105247974
000020 5e 96 b9 3d 41 f7 91 bd f2 2f 11 3e 9b b5 b9 3c
       0.090618834 -0.07127238 0.14178446 0.022669604
000030 40 48 d6 3d 0e 67 57 3d f7 0c d0 bd fb b6 86 bd
       0.10462999 0.052588515 -0.10158723 -0.065778695
000040 a6 99 e6 3d 51 49 8b 3d 30 c9 8d 3d d5 5e 2a bc
       0.11259775 0.06801093 0.06923139 -0.010398586
000050 62 5e 28 bd 4b e3 a0 bc c5 6a c9 3d 06 35 15 3d
       -0.041105635 -0.019639632 0.09834818 0.03642752
000060 77 da 4e bd 78 76 cf bd f5 89 80 3c f6 ca be bd
       -0.050501313 -0.10130018 0.015690783 -0.093160555
000070 de 84 82 3d a5 91 0f bd 1b c4 08 3e 65 13 8f 3c
       0.06372999 -0.035051007 0.13356058 0.017465303
000080 6b bd 6b 3b f7 38 c6 3c 2f cc 1b ba f2 b5 98 bc
       0.0035971056 0.024197085 -0.00059432065 -0.018641446
000090 50 82 0c 3c 18 67 7e 3c 40 f5 c4 3d f6 96 86 3c
       0.008575991 0.015527509 0.0961709 0.016429406
0000a0 5c e4 fc 3d 3e b8 98 bd a0 68 ce 3b 30 b6 97 bd
       0.123482436 -0.074570164 0.0062990934 -0.074077964
0000b0 80 2e 49 bd f6 43 b1 3b f9 ab b5 bd ad 53 c8 3d
       -0.04911661 0.005409713 -0.08870692 0.09781585
0000c0 7c 97 d3 3d da 2f 53 3d ea 15 d3 bc c8 15 ca 3d
       0.10331628 0.051559307 -0.025767285 0.09867436
0000d0 2b 4b a0 bd 84 f9 98 bd 58 12 44 3d 2b de 3f bd
       -0.07826837 -0.07469466 0.047869056 -0.046842735
0000e0 97 b3 44 3d c7 74 f2 3d 05 ab a2 bd 57 49 29 3d
       0.048022833 0.1183868 -0.07942776 0.041329708
0000f0 03 0e 57 bd af ff 2c bd b1 72 ec 3d 2f 28 a6 bd
       -0.052503597 -0.042236026 0.11545313 -0.08113133
000100 8c a2 9f 3d 5c 1c 1d 3d fc b3 6e bd 20 46 7e 3c
       0.07794675 0.038357124 -0.058277115 0.015519649
000110 10 fa da 3d 80 3d 62 bb 00 13 ba 3c d2 35 8e bd
       0.10692227 -0.003452152 0.022714138 -0.06943859
000120 a4 a8 f7 3d f4 5d 20 bd 74 d0 89 bd d4 a9 56 bd
       0.120927125 -0.0391521 -0.067292124 -0.052408054
000130 34 98 31 bd d2 c5 ef 3d b8 de 9a 3d 00 af f8 3a
       -0.043358043 0.11707653 0.075620115 0.0018973053
000140 0a 5a c8 bd 0c 39 00 3d 50 49 cd 3c 04 30 5a 3d
       -0.097827986 0.031304404 0.025059372 0.053268448
000150 f0 6a 08 bd b0 38 27 3d b0 61 7b 3d 8e 4a cb bd
       -0.03330511 0.040825546 0.06137246 -0.099263296
000160 a4 1e e7 3d 40 3f a1 3c 50 5d 5a bc 4c 65 6e bd
       0.11285141 0.01968348 -0.0133279115 -0.058202073
000170 d8 f8 3d bd c4 5e 8d 3d 1e 2d f2 3d 34 b7 f0 3d
       -0.046379894 0.06902841 0.11825012 0.11753693
000180 40 cf a7 3d e0 1b a5 3d 48 e5 d9 bc 7a 6e a8 3d
       0.08193827 0.08061957 -0.026598588 0.08224197
000190 cc aa d1 bd 30 d9 37 bc 78 ff 9e 3d 3a 1a f8 bd
       -0.10237655 -0.011221215 0.077635705 -0.12114377
0001a0 ec fb c7 bd c8 21 e3 3d 6c 1c 00 bd 96 29 eb 3d
       -0.09764847 0.11090428 -0.031277105 0.11482541
0001b0 2a ac 93 3d 7e 70 f9 3d e4 0e d8 3d 58 1b f8 3c
       0.07210572 0.12179659 0.10549715 0.030286476
0001c0 00 ad 12 3a c0 97 de bb 60 5d e9 bb a2 bc f4 bd
       0.0005595237 -0.0067929924 -0.007121727 -0.11950041
0001d0 b4 25 52 bd 18 46 c9 3d d0 f7 0c bc 14 10 42 bd
       -0.051305488 0.098278224 -0.008604005 -0.047378615
0001e0 50 e6 3c 3d 18 83 07 3d 00 2b 87 bd 4a 81 8c bd
       0.04611808 0.033084005 -0.065999985 -0.068605974
0001f0 70 99 84 3d e8 4a f0 3d 00 6e 39 bd 08 01 8c 3c
       0.064745784 0.11733037 -0.04527092 0.017090335
000200 da 96 24 3d 14 0b 3f 3d a8 63 83 3d f6 d3 6f bd
       0.040182926 0.046641424 0.06415492 -0.05855175
000210 18 d4 c9 bc e9 1c a1 ba 9d a9 e2 3d 3a fa 63 3d
       -0.024637267 -0.0012291941 0.110675074 0.055658557
000220 0d 30 2c 3c 9b 63 13 bd b9 ca 08 3e 3b d6 68 3d
       0.010509503 -0.035983663 0.13358583 0.05684493
000230 b0 4d af bd 94 1f de 3b 3e 78 fa 3d 8c b7 89 bd
       -0.085597396 0.0067786667 0.122299656 -0.06724462
000240 bd ac 9e 3d 6f f6 65 bd 66 ff c1 bd 14 35 29 bd
       0.07747791 -0.05614322 -0.094725415 -0.041310385
000250 2a 58 e0 3d 34 25 d5 bd f1 f5 68 bd 47 c5 a4 3d
       0.10954316 -0.104074866 -0.056875173 0.0804544
000260 d5 65 98 bd de 16 e6 bc 1b 5a 9d 3d 8f 7d 6d 3c
       -0.07441298 -0.028087076 0.07683202 0.0144952675
000270 35 6d 0f be 5b f8 db 3d 68 9c c8 3b 6b bc 07 bd
       -0.14006503 0.107407294 0.0061221607 -0.033138674
000280 e8 db 8b bd c7 cf c4 3d 6e 68 0d 3d c8 1f 99 bd
       -0.06829053 0.09609943 0.03452342 -0.07476765
000290 d5 e8 50 bb de 78 e5 bd d9 8e d2 3d af 90 85 bc
       -0.003187706 -0.11204694 0.10281152 -0.016304342
0002a0 43 76 ef bd 6a 7d 56 3c f0 66 b3 3d cf 40 d5 3d
       -0.116924785 0.0130914245 0.08759868 0.10412752
0002b0 36 67 04 3d c8 99 0a be 6b b3 e7 bc cd 6e 09 be
       0.032324992 -0.13535225 -0.028283795 -0.13421173
0002c0 a0 86 da 3d c4 40 24 3d a1 f4 ca 3d db d5 09 bd
       0.10670209 0.040100828 0.099099405 -0.033651214
0002d0 c8 7e c7 3d 8e 7e e3 3d 2f 40 4f bd 85 f1 41 3d
       0.097409785 0.11108123 -0.05059832 0.04734947
0002e0 ff f0 5d bb 97 e4 70 3c 4e 55 66 3d 71 f4 04 3b
       -0.0033865569 0.014702938 0.056233697 0.00202873
0002f0 50 dd 37 bd 3d 2e 4f 3d 01 fa ba bd 2d 37 ca bb
       -0.044888794 0.050581206 -0.09129716 -0.0061711282
000300 5e 25 b3 3d cb 75 cf 3d 50 aa f7 3d ba 7c 38 bd
       0.087473616 0.10129889 0.120930314 -0.045040824
000310 98 79 87 bd d6 70 6f bc 25 33 42 3a de 0a db bd
       -0.06614989 -0.0146143045 0.0007408134 -0.10695432
000320 d9 1a b9 3d e8 db 0a 3e 98 40 a6 bd 05 38 c8 bb
       0.09038324 0.1356045 -0.08117789 -0.0061101937
000330 1d bc ab 3d 6b 8c 68 bd 05 5e 8f 3d 42 e6 e8 3d
       0.08385489 -0.056774538 0.07000355 0.11372043
000340 d4 11 43 bd 00 94 db bb d7 fb 8c 3d 9d b2 bd bd
       -0.047624424 -0.0067009926 0.06883972 -0.092625834
000350 37 ea 17 bd 43 98 77 3d a4 f0 82 3d cc bb e4 bd
       -0.0370886 0.060447942 0.06393555 -0.11168632
000360 f4 e1 80 3d 0f 95 8e 3d f5 7a 7e 3d 83 7b ae bd
       0.06293097 0.069620244 0.06212898 -0.08519652
000370 0f 63 08 3e 6b 2c 99 bd ee 44 56 3d 0c 64 a2 bd
       0.13319038 -0.07479175 0.05231183 -0.07929239
000380 4b 79 de 3d c0 a8 57 3d 63 81 f6 3d 08 54 c4 3d
       0.108629785 0.052651167 0.12036397 0.0958634
000390 d3 51 55 bd 34 c7 e8 bc 64 8d 60 bc f7 88 c8 bd
       -0.052079987 -0.0284153 -0.013705585 -0.09791749
0003a0 ff 58 b2 bc e0 86 59 bd fa 04 2b bd a9 2d 92 bd
       -0.021770952 -0.053107142 -0.041752793 -0.07137615
0003b0 67 2e 80 3d 61 74 20 bd d4 4f d6 3c 27 20 01 3e
       0.062588505 -0.039173488 0.026161112 0.12609921
0003c0 fb 85 f5 3c e8 42 07 bc 08 85 9a 3d 26 fb ad bd
       0.029971113 -0.008255698 0.07544905 -0.084951684
0003d0 b4 04 ca 3c 07 ed d7 3d b2 a1 ea 3d 40 9c c4 bd
       0.024660446 0.10543256 0.11456622 -0.09600115
0003e0 7a 72 8a 3d 58 b8 96 3d 8e 1b 0d 3d 41 a9 e0 bc
       0.06760116 0.073593795 0.034450106 -0.027424457
0003f0 34 44 50 3d ef 0a 52 bd 25 1b 68 bd 86 58 6f bc
       0.050846294 -0.05127996 -0.056666512 -0.014608508

lstm.weight_ih_l0_reverse f4 [256, 20]
000000 3c 48 0f 3e 02 27 1c bc dd e4 b6 bc e3 02 8c 3d
       0.13992399 -0.009530785 -0.022325927 0.06836488
000010 83 1d 36 3d 26 8e 68 bd 03 dc a6 3d eb 1a e7 3d
       0.04446174 -0.05677619 0.08147433 0.11284431
000020 72 d3 af bc 18 27 d2 3d c7 bf c6 bb 0d 82 11 3e
       -0.02146313 0.10261363 -0.006065342 0.14209767
000030 7c 0e a8 3c d7 f8 d9 3d e6 e0 10 3e a6 81 2b 3d
       0.02051472 0.106431656 0.14148292 0.04187169
000040 52 6a a7 3d 35 fe 8b bd f9 b8 92 3d b4 7d 13 3d
       0.08174576 -0.068355955 0.07164187 0.03600855
000050 3c 3a 8a 3d 60 71 86 bd 3b 3b 31 3d d2 81 22 bd
       0.067493886 -0.06564593 0.043269377 -0.039674588
000060 3e 71 68 bd d4 ba 79 bd 77 92 23 3d 8b 4c d8 3d
       -0.05674862 -0.06096919 0.0399346 0.105614744
000070 a8 bf 98 bc f9 9d e7 bb e2 8f 0c 3d c8 38 bb 3d
       -0.018646076 -0.0070683924 0.034316905 0.091416895
000080 e0 bd 15 3d ae 65 1b bd 36 e1 fd bd a9 78 30 3d
       0.036558032 -0.037938766 -0.12396471 0.04308382
000090 7a 1c 8f 3d 9f e0 be 3d de cc d7 bd 69 50 cb 3d
       0.06987853 0.09320187 -0.10537122 0.099274464
0000a0 b3 2d b6 3d fd a1 6c 3d 1d 6f b3 bd 9f 73 58 3d
       0.08895435 0.05777167 -0.087614276 0.05284464
0000b0 e8 6d 19 3d 8e ef cd 3d 74 16 f4 3c 45 72 b9 bb
       0.03745833 0.10055457 0.029795863 -0.005659374
0000c0 ef 4f 76 bd ea ba 0a bd 5a a2 c5 bd 90 c8 b7 3d
       -0.060134824 -0.03386966 -0.09650107 0.08973801
0000d0 de b4 b1 bd dc 54 56 bd 20 44 55 3d 56 2e 17 3e
       -0.08677076 -0.052327022 0.052066922 0.1476377
0000e0 a8 a5 55 bb d7 20 a1 3d 8d e1 13 3d 2a b2 bc bd
       -0.003259996 0.07867592 0.036103774 -0.092136696
0000f0 8f a3 d0 3c f7 77 00 bd c2 0f 8a bd 45 7b bf bc
       0.025468616 -0.031364407 -0.06741287 -0.02337421
000100 5e 8d a9 bd 4f a6 01 3a ce 50 a8 3d 71 ef ba 3d
       -0.08278917 0.00049457414 0.08218537 0.09127701
000110 9f 07 a8 3c f1 70 fa 3b f6 41 aa bd 4c dc c1 ba
       0.020511447 0.007642858 -0.08313362 -0.0014790385
000120 41 7e 4f bd 14 7f 81 bd d8 a2 94 3d ed 8e c7 bd
       -0.050657514 -0.06323066 0.072576225 -0.09744058
000130 39 61 a1 3d bd 54 0a 3d 5f 84 b8 bb 17 d4 80 3c
       0.07879872 0.03377222 -0.0056310142 0.015726132
000140 2f d9 d3 3b e2 a9 ec 3c c0 c8 1c bd 26 68 54 3d
       0.0064650993 0.0288896 -0.038277388 0.051857136
000150 bb 3d 1a 3d 74 c2 e8 3d 96 97 15 3e 67 43 60 bd
       0.037656527 0.11365214 0.14608607 -0.05475178
000160 52 8f e3 3d 91 5c 01 3e e2 0f 68 bd 42 d5 f8 3c
       0.111113206 0.12632968 -0.056655772 0.030375127
000170 7a cb 34 3c a4 17 13 bd 68 c2 8c bd 9b 81 28 3d
       0.011034841 -0.035911217 -0.068730175 0.041139226
000180 7d 44 81 3d f5 73 c8 3d 59 2f be 3c f5 6c c1 bd
       0.06311891 0.09787742 0.023215936 -0.0944461
000190 50 32 87 bd 68 d3 7c bd 3c 57 e4 bc d6 fd 08 be
       -0.06601393 -0.06172505 -0.027873628 -0.1337808
0001a0 70 9a 12 3d 44 15 00 bd c1 9f 28 bd 3d ac 8b bd
       0.035791814 -0.03127028 -0.04116798 -0.06819961
0001b0 72 ae d4 3d ff 46 26 bd 75 20 52 3d 1e 6c a5 3d
       0.10384835 -0.04059505 0.051300485 0.08077262
0001c0 17 ea 91 bd 2d f2 86 bd ab bc 46 3d d6 32 ad bd
       -0.07124727 -0.0658916 0.04851977 -0.08456962
0001d0 d6 25 29 3b b4 9c 0e bd bb 26 90 bd b4 5d a5 bd
       0.0025809905 -0.034817412 -0.07038637 -0.08074513
0001e0 e6 1f 74 3d c5 40 81 bd b5 82 b8 bd 4b d4 07 be
       0.059600733 -0.06311182 -0.090093054 -0.13264577
0001f0 86 3b df bc 6d bd 50 3d 79 f1 03 3d 9c 73 22 3d
       -0.027250063 0.0509619 0.03221271 0.039661035
000200 fd 6c d0 3d 96 32 0c 3e 47 2d b1 bd 7c 8a 1b 3d
       0.10177038 0.13691172 -0.08651214 0.037973866
000210 27 05 ad 3c c4 14 00 3c 7e 5e 80 3d ea 38 a4 bd
       0.02112062 0.007817451 0.06268023 -0.08018668
000220 13 09 85 bd 15 ca 06 3e 0a 4e f9 bb f5 92 94 3d
       -0.064958714 0.13163026 -0.00760818 0.07254592
000230 c8 fe bf 3c 8e ad 28 3d 31 9a f8 3b cf 5d 87 bd
       0.023436919 0.04118114 0.0075867404 -0.066096894
000240 4e 77 ee bd bf 1b 10 3e c7 f2 14 3e d0 80 c8 bd
       -0.11643849 0.14073084 0.14545737 -0.09790194
000250 f4 39 45 bd 7b 72 93 3d 72 ba 10 3e a8 91 d9 3d
       -0.04815097 0.0719957 0.14133623 0.10623485
000260 46 33 b5 bd 4f 2d 04 3e 85 e9 e3 3d fc 91 ca 3d
       -0.0884767 0.12907909 0.11128525 0.098911256
000270 51 f9 a4 bd 01 c8 b2 3d cc 47 1f bc 5f 0a fb bd
       -0.08055366 0.08729554 -0.009721708 -0.122578375
000280 c0 64 9f 3d a5 3a 00 bd ac 72 c2 3d e2 0c 9b bd
       0.077828884 -0.031305928 0.09494528 -0.075708166
000290 96 75 03 bd 1b 21 68 3d 4e 1e 52 bd 5a 36 a1 3d
       -0.03209456 0.056672197 -0.051298432 0.07871695
0002a0 9b 71 2c 3d 27 f8 2a bd 48 00 91 bd 4d 7e bc 3d
       0.04210053 -0.041740563 -0.07080132 0.092037775
0002b0 a1 53 9f 3d eb 9a ee bc 97 23 09 3e 57 65 3e 3d
       0.07779623 -0.029126605 0.13392483 0.046483364
0002c0 ab 61 0f be fa ac a4 bc a8 0f 39 bd 06 f4 81 bd
       -0.14002101 -0.020102013 -0.045180947 -0.06345372
0002d0 4d ef 18 3e fd 5e 88 bd 87 97 f8 3c dc fa 80 3d
       0.14935036 -0.066587426 0.030345691 0.06297848
0002e0 e7 21 54 bd 12 3e ad 3c ef 53 14 3e de 96 7e 3d
       -0.051790144 0.021147761 0.14485143 0.062155597
0002f0 47 b6 15 3e df c5 bc 3d c5 5e 14 bc 85 23 15 3e
       0.14620315 0.092174284 -0.009055798 0.14564331
000300 3b 70 7f 3d 18 1a 3a 3d c6 e9 35 bc 63 09 b1 3d
       0.06236289 0.04543504 -0.011103099 0.086443685
000310 bd 7b 53 bd 5f 70 02 3e 37 a9 84 3c a2 d1 e3 3b
       -0.051631678 0.12738179 0.01619397 0.0069524804
000320 d0 5e 09 be c1 81 01 3e 35 1c e8 3d 4c fc 4d bc
       -0.13415074 0.12647153 0.11333505 -0.012572359
000330 a0 bd ed 3d 23 e2 11 bd 16 df ca bd 7e e6 2d bd
       0.11608434 -0.03561605 -0.099058315 -0.042456143
000340 f2 6d b0 3d 49 1d b6 bd b5 3a 17 3d 13 3f 6f bd
       0.086147204 -0.088923045 0.03692122 -0.05840976
000350 94 c7 24 3d 5a 27 8a bd 72 b2 ca 3d 7c cf 47 3d
       0.040229395 -0.06745787 0.09897317 0.048781857
000360 c6 24 24 3d 92 a4 8e bd 69 5c 5f 3c 68 03 07 3d
       0.040074132 -0.06964983 0.013632872 0.032962233
000370 e8 89 85 bd 2b 79 45 3d 1e 77 77 bc b9 05 1a be
       -0.06520444 0.048211258 -0.015104083 -0.15041246
000380 93 42 81 3c b7 00 0e 3e 2c fb 92 bd a6 5e 98 bd
       0.015778815 0.1386746 -0.071768135 -0.07439928
000390 6d a9 4a 3d 69 f8 eb 3d 5b e2 c9 3c 58 95 5b 3d
       0.049477983 0.1152199 0.024644068 0.053609222
0003a0 80 58 09 bd 4f f4 f7 bc 0f e1 0b 3d f8 60 0a 3e
       -0.033531666 -0.030267863 0.03415018 0.13513553
0003b0 c2 82 49 bd 15 70 1a 3d 9c 54 d2 3c 4a 46 bb 3d
       -0.049196966 0.037704546 0.02567511 0.09144266
0003c0 37 fa d1 3d 06 79 0c 3a 7b 72 a2 bb 1e 00 5b bd
       0.10252803 0.000535861 -0.004957495 -0.05346691
0003d0 c5 cd cd 3d 61 63 43 bd 8d e6 b2 bd 3d 1e 7e bc
       0.10049013 -0.047702197 -0.0873538 -0.015510139
0003e0 1f 51 c7 bd 61 d8 c6 bd 9b e5 84 bd 11 c2 06 be
       -0.097322695 -0.0970924 -0.06489106 -0.13159968
0003f0 7b 71 b0 bc 29 ec 7b bd 04 74 86 3d 83 3f e4 3d
       -0.021538487 -0.061504517 0.06565097 0.111449264

lstm.weight_hh_l0_reverse f4 [256, 64]
000000 1c 24 01 bd 60 07 a0 3d 40 84 21 3d 82 46 94 bd
       -0.031528577 0.07813907 0.039432764 -0.07240011
000010 18 99 9a 3d a8 0b e1 bc 52 37 bf bd 14 0b da 3d
       0.075487316 -0.027471378 -0.093367234 0.10646644
000020 62 49 87 bd b6 38 cf bd fe 8d c8 bd 66 e0 ef bd
       -0.066057935 -0.10118239 -0.09792708 -0.117127225
000030 da 0d 81 bd 30 02 b3 3d e8 3f 77 3d 82 78 ca bd
       -0.0630147 0.087406516 0.06036368 -0.09886266
000040 46 98 8e 3d 00 da bb bd 26 28 c3 bd d8 f8 ec 3d
       0.069626376 -0.091724396 -0.09529142 0.11570901
000050 a2 d8 bd bd a8 34 ad 3c ca 93 85 3d 18 1d 83 bc
       -0.09269835 0.021143273 0.06522329 -0.016005084
000060 e2 ce ca 3d e6 fc e5 bd 40 ba ff 3b fc 10 8b 3d
       0.09902741 -0.11229877 0.007804185 0.06790349
000070 1a 00 a7 3d 38 07 96 bd d0 dc 32 bc d6 fe f5 3d
       0.08154316 -0.073255956 -0.010916904 0.12011497
000080 d2 6c 9d 3d 9a 1a ab 3d ee 84 da 3d 52 e1 f0 bd
       0.076867715 0.08354683 0.106698856 -0.117617264
000090 be 61 d9 bd b8 b6 8d bd e0 6b 27 bc 4c 37 d1 3d
       -0.10614346 -0.069196165 -0.0102185905 0.10215625
0000a0 3e 08 83 3d 7c c4 3d 3d 5a 7c de bd 8e 58 b3 bd
       0.063980564 0.04632996 -0.10863562 -0.08757125
0000b0 e0 e1 94 bb 00 a7 e8 ba c0 89 49 3c ac fe 84 bd
       -0.004543528 -0.0017749965 0.012300909 -0.06493887
0000c0 7e 4e b0 bd 00 c4 0d 39 d0 f4 fe bc c0 f1 fb 3d
       -0.08608721 0.00013519824 -0.031122595 0.123019695
0000d0 78 2d e9 3d 00 00 14 3c 44 0a da 3d d6 4e a9 3d
       0.113856256 0.009033203 0.10646489 0.0826699
0000e0 6c 69 88 bd 88 14 a6 3c 76 6b aa bd dc 4d f0 3d
       -0.066607326 0.020273462 -0.08321278 0.117336005
0000f0 2a b7 de bd ac 5a a8 3d f8 54 fd 3d 90 88 3e bd
       -0.108747795 0.08220419 0.12369722 -0.046516955
000100 8c 79 62 3d f8 d5 a1 3c a6 4c c6 bd ce d0 cc 3d
       0.055291697 0.019755349 -0.09682588 0.10000764
000110 50 31 bb 3d e0 9c a9 3c e0 14 d3 3d 46 f1 a7 bd
       0.09140265 0.020704687 0.10306716 -0.08200316
000120 30 d4 b2 bd 94 9b 2a bd 80 ad 9a bb 80 78 c5 3c
       -0.08731878 -0.041652277 -0.00472039 0.02410531
000130 9a a4 81 3d c0 6e 27 bb 00 ce d6 bb d8 e5 d2 bc
       0.063302234 -0.002554819 -0.006555319 -0.025744364
000140 c8 26 84 bd cc fc 31 bd 00 66 3b bb a8 89 0b bd
       -0.064527094 -0.043453977 -0.0028594732 -0.034066826
000150 84 39 16 bd ec 4f f7 3d 80 52 16 bd 88 32 44 3d
       -0.036675945 0.12075791 -0.036699772 0.047899753
000160 e8 4d 4d 3d 06 2b b3 3d 06 a2 a2 bd 40 9a a5 3b
       0.050123125 0.087484404 -0.0794106 0.0050537884
000170 90 c8 ff 3c 26 bc 9f bd 4a dc c8 bd b0 6a 84 3c
       0.031223565 -0.07799558 -0.09807642 0.016164154
000180 94 eb b6 bd 20 88 cb bd 88 88 96 bd ec e2 3e bd
       -0.08931652 -0.09938073 -0.0735026 -0.04660313
000190 a8 a7 b8 bd 18 57 d9 bc 60 df 3a bd d8 47 ca bd
       -0.09016353 -0.026530787 -0.045623183 -0.09876984
0001a0 50 33 b9 3c 70 91 a8 bc 58 62 33 3d 58 d1 21 3d
       0.022607476 -0.020577163 0.04379496 0.039506286
0001b0 52 6a be 3d 5a fe f9 bd 62 79 ae bd 72 84 bb 3d
       0.09297623 -0.12206717 -0.08519246 0.09156121
0001c0 20 57 b6 bd 5c 3a 8e 3d 00 9e 7b bc 3e fa b9 bd
       -0.089033365 0.06944725 -0.015357494 -0.09080933
0001d0 ec 43 9c 3d 48 b4 d4 3c 22 ec cf bd 90 f4 5d bd
       0.076301426 0.025964871 -0.10152461 -0.05418831
0001e0 60 0b 84 bb b4 65 0e bd e6 0b 8f 3d 00 f4 46 3b
       -0.0040296763 -0.03476496 0.06984691 0.0030357838
0001f0 96 74 fc bd cc de 45 bd 12 40 f7 bd 00 00 bb 3c
       -0.123269245 -0.04830818 -0.12072767 0.022827148
000200 48 ad df bd 24 ed 1a bd 24 de 63 3d c4 23 b7 bd
       -0.10921723 -0.03782381 0.05563177 -0.089423686
000210 36 1f ce bd 24 4a fa bd fc 16 56 bd 90 8a 3a 3d
       -0.10064547 -0.122211725 -0.052268013 0.0455423
000220 04 2c 75 bd 80 75 da ba c2 36 8f bd 76 0f 80 3d
       -0.05985643 -0.0016667098 -0.06992866 0.06252949
000230 ba 65 b9 3d a0 dd 59 3c 78 51 c7 3c 74 37 5e 3d
       0.09052606 0.013297468 0.02433084 0.054252103
000240 d8 67 9e 3d f0 00 10 bc e6 74 b2 bd c0 7f 01 3b
       0.077346504 -0.008789286 -0.08713703 0.0019759983
000250 48 12 cd bd 58 f2 9c bc e8 37 bc 3c ea bc cb 3d
       -0.100132525 -0.019158527 0.022975877 0.09948142
000260 18 00 95 3c fc 76 aa bd 80 89 d9 3a d4 06 af 3d
       0.018188521 -0.08323476 0.0016596764 0.08546224
000270 00 27 85 3b 80 67 df 3b a6 24 91 3d 58 68 1c bd
       0.004063487 0.006817758 0.07087068 -0.038185447
000280 f4 89 8b 3d 5e 1b 96 bd 4a 6c e5 bd 68 13 1f 3d
       0.06813422 -0.073294386 -0.11202295 0.038836867
000290 c0 cf 43 3b 68 d9 25 3d c8 4b 64 bd e4 76 ec 3d
       0.0029878467 0.040490538 -0.055736333 0.11546114
0002a0 60 71 71 3c 3c 23 da bd bc 74 b2 3d c8 28 98 3d
       0.014736503 -0.10651252 0.087136716 0.074296534
0002b0 e4 e1 c6 3d 60 d5 ba bb 6c 9b 3a bd 80 64 fb ba
       0.09711054 -0.005701706 -0.045558378 -0.0019179732
0002c0 1c ea 9b bd ea b2 95 bd bc ba 6a bd 3c 1a 64 3d
       -0.07613012 -0.07309516 -0.05730699 0.05568908
0002d0 20 c6 ac bc 52 c2 b7 bd b8 6d ce 3d 90 75 40 3d
       -0.021090567 -0.089726105 0.10079521 0.046987116
0002e0 e0 29 dc bd 78 35 97 bc e0 eb 18 bc 02 d3 fc bd
       -0.107501745 -0.018458113 -0.009333581 -0.12344934
0002f0 dc 7e 9a 3d c8 30 89 bd 80 7d 41 3c 60 da e4 bb
       0.07543728 -0.066987574 0.011809707 -0.00698404
000300 40 24 98 bc 8c a0 a9 3d 3e 8c b3 bd bc 72 e4 3d
       -0.018571973 0.08282575 -0.087669834 0.11154696
000310 5a 48 f8 bd 4e 98 d0 3d 10 61 ae 3c 80 1e 62 3c
       -0.12123175 0.101853 0.021286517 0.013801217
000320 a6 60 f4 bd a0 27 6b bc 88 d7 2d bd 20 c4 94 3b
       -0.11932497 -0.014352709 -0.042441875 0.0045399815
000330 ae e5 8b 3d 82 d6 e4 3d 3c 7b b7 bd a8 d6 dc 3d
       0.06830917 0.111737266 -0.08959052 0.1078313
000340 0e 83 d9 bd c4 91 c9 bd 94 8a 6b bd 92 0d cc 3d
       -0.106207 -0.09842256 -0.057505205 0.09963526
000350 60 06 da 3d 10 7b 42 bd 8c 31 02 bd a0 2f ed bb
       0.10645747 -0.047480643 -0.031785533 -0.0072383434
000360 82 1f d8 bd 50 65 ec 3d 98 5d cd 3d 20 f1 b4 bb
       -0.10552885 0.11542761 0.10027617 -0.0055219084
000370 d8 32 10 3d 70 10 63 bc d2 8e f6 3d 54 a7 5a 3d
       0.03520474 -0.0138588995 0.120389596 0.053382233
000380 08 57 a8 3c 18 4a 8f 3d e2 26 dd 3d 12 3c b4 3d
       0.020549312 0.06996554 0.10798432 0.0880052
000390 a8 99 40 bd 40 66 4b bd e4 cc 65 bd 48 cc c7 3c
       -0.047021538 -0.04965806 -0.056103602 0.024389401
0003a0 68 af 17 bd 70 5f 0b 3d 7e 19 dd 3d 64 44 41 3d
       -0.037032515 0.034026563 0.10795878 0.047184363
0003b0 b6 92 a5 bd 9a 15 bd 3d 6c 3b d0 bd 6e 0b 96 3d
       -0.080846235 0.09232636 -0.10167584 0.07326399
0003c0 88 ad be 3c 4c 71 9b 3d 42 19 9f 3d 48 41 a2 3d
       0.023276106 0.07589969 0.077684894 0.07922608
0003d0 a0 24 06 bd 50 7c 2b 3c 90 0b 30 3d 60 a1 be 3b
       -0.032749772 0.01046665 0.042979777 0.0058175772
0003e0 b0 82 e3 bd d6 d5 ee bd 84 ef a3 bd 4a a6 f3 3d
       -0.11108911 -0.1166188 -0.08004668 0.118969515
0003f0 c8 47 9f 3d 6a db f7 3d 20 e6 dc 3c 38 c6 dd 3d
       0.07777363 0.12102397 0.0269652 0.10828823

lstm.bias_ih_l0_reverse f4 [256]
000000 39 7a 51 bc 98 6a 9c bd 95 24 f5 3d 6c f9 ba bd
       -0.012785488 -0.07637519 0.11969868 -0.09129605
000010 37 dc d9 39 f1 77 58 bd b7 75 20 bd d0 60 9b 3d
       0.00041553538 -0.05284876 -0.03917476 0.07586825
000020 ff 11 01 3e c0 21 aa bd 0a d8 76 3c 99 71 72 3d
       0.12604521 -0.083072186 0.015066156 0.059190366
000030 64 15 f5 bd f3 15 d7 bc 50 26 d5 bc 72 b0 37 ba
       -0.119669706 -0.026255583 -0.026019245 -0.00070071884
000040 ce 74 de 3c ac 3e ab 3d cf 9c 71 bd b7 53 99 3d
       0.027155306 0.08361563 -0.058987435 0.074866705
000050 f5 23 d1 3d 8d 13 35 3d 99 ae b6 3c ac e6 b1 3d
       0.102119364 0.0442081 0.022300052 0.08686575
000060 37 8e 2d 3d 3b f4 7b bd 55 d3 be b7 de 21 0b 3e
       0.042371955 -0.061512213 -2.2748174e-05 0.13587138
000070 5a 90 80 3c c5 bc c1 3d 62 2e b3 bd 6d c4 77 3c
       0.015693832 0.09459833 -0.08749081 0.015122515
000080 8c 0d b2 3d fa 1c ba 3c 5a 51 4c bc 7b 00 40 bc
       0.0869399 0.022718895 -0.012470568 -0.011718865
000090 6b 15 ee 3d 3c 0f 10 3e 95 4f b3 bd 85 71 de 3b
       0.11625179 0.14068311 -0.087554134 0.006788435
0000a0 74 7d 14 3e 37 3f 98 3d 9b d9 25 3d d6 c3 02 3e
       0.14500982 0.07433932 0.040490728 0.12770018
0000b0 10 91 c3 3c ee 10 c9 bd 4a 92 52 bd 99 20 98 bd
       0.023872882 -0.09817682 -0.051409043 -0.074280925
0000c0 e3 cd b8 bb fb d6 36 bc a0 d9 f7 3c 25 f1 47 3d
       -0.005639778 -0.011159654 0.030255139 0.048813958
0000d0 00 82 aa bd a6 74 be 3d f9 fa 7a bd 0a ff db 3d
       -0.08325577 0.09299593 -0.061274502 0.10742004
0000e0 aa 01 ce bd fa 05 c7 3d 16 33 bd 3d 04 5c 90 3d
       -0.10058911 0.09717937 0.092382595 0.070488006
0000f0 5b 1e ab bd ac c1 1b bd ef ae c3 3c c6 f9 cb 3d
       -0.08355399 -0.038026497 0.023887126 0.0995975
000100 40 e9 fa 3b 10 ca 9a 3c 04 3e f5 3d e0 2d 3f bd
       0.0076572 0.018895179 0.11974719 -0.04667461
000110 4e 2b 83 3d 10 2c 51 3d 20 0b 07 3c c0 02 d0 3d
       0.06404744 0.051067412 0.0082423985 0.101567745
000120 98 b0 6d 3d 84 8a dc bd 00 63 35 bb 4c 5c 3a 3d
       0.05802974 -0.10768607 -0.0027677417 0.045498177
000130 98 f5 5f bd 60 72 f7 3d 88 51 ab 3c e4 1d 33 bd
       -0.054677576 0.12082362 0.0209129 -0.043729678
000140 ba 67 e3 3d 92 46 a9 3d 96 92 f1 bd bc 19 e3 3d
       0.11103769 0.08265413 -0.11795537 0.11088893
000150 20 28 0c bd 2c 38 b1 3d 3c 38 5d bd 00 53 7a 3d
       -0.034217954 0.08653292 -0.054008707 0.06111431
000160 ac 4e 40 3d 40 a6 5d bb 20 63 81 bd b8 32 32 bd
       0.046950027 -0.0033821017 -0.06317735 -0.0435054
000170 d8 6c 85 bc f8 37 93 bc 48 94 4a bd da bd 8a 3d
       -0.016287252 -0.017971024 -0.04945782 0.067744926
000180 50 e7 ad 3d e0 49 b9 3d 40 83 00 3d 00 9f 05 ba
       0.08491385 0.09047294 0.03137517 -0.000509724
000190 ea 75 80 bd 8e 5e f9 3d 1e 63 b0 3d bc 99 e5 bd
       -0.0627249 0.12176238 0.08612655 -0.11210963
0001a0 e6 e0 8f bd 20 92 bd 3b 80 cf 6a bd 44 80 ef 3d
       -0.07025318 0.0057852417 -0.057326794 0.116943866
0001b0 d8 25 d1 bd d0 18 c2 3c 34 6f b1 bd ac a0 7b bd
       -0.10212296 0.023693472 -0.086637884 -0.061432526
0001c0 d0 43 8b bc f0 34 3a 3d 8e cb d9 3d d0 6b d9 3d
       -0.017000109 0.04546064 0.10634528 0.10616267
0001d0 8c d1 1d 3d 4c b8 60 3d 20 cf ce 3d 34 7b bb 3d
       0.038529918 0.05486326 0.100981 0.091543585
0001e0 c6 ce bf 3d c4 38 18 bd 8c c6 6f 3d 0a ae 80 bd
       0.09365611 -0.03716351 0.05853896 -0.06283195
0001f0 be 82 f6 bd 50 fc 8d 3c 56 a9 de bd 94 82 b0 3d
       -0.12036656 0.017332226 -0.10872142 0.08618656
000200 f4 2f 18 3d c3 90 ea bc d6 66 a7 3d c8 71 df 3b
       0.037155107 -0.02863348 0.08173911 0.0068189837
000210 88 99 ba bc f6 7d 0d be ff 0f 80 3d 62 b1 39 3d
       -0.022778288 -0.13817582 0.06253051 0.04533518
000220 44 68 c6 3d a0 83 e7 bd ff 09 49 bd 82 88 89 bd
       0.09687856 -0.11304402 -0.0490818 -0.0671549
000230 95 0d db bd 9b ef 30 3d 9a 01 e2 bd e0 6d 8e bd
       -0.1069595 0.043197256 -0.11035462 -0.06954551
000240 f6 af 92 3d ed b5 81 bd cc 6a a7 3c ec 92 c2 bd
       0.07162468 -0.06333528 0.020436667 -0.095006794
000250 48 af fd 3d 05 e0 dc bd 13 57 8e 3d b9 a3 af bd
       0.12386948 -0.10784916 0.06950202 -0.085761495
000260 d5 ba cd bd 96 0c a2 bd fd 61 82 bd 2a 54 ce bd
       -0.10045401 -0.07912557 -0.06366346 -0.10074647
000270 ac a1 45 bd 6c 3a 00 3e 85 00 b2 3c b3 c4 9e 3c
       -0.048249885 0.12522286 0.021728763 0.019380903
000280 37 64 32 bd 21 82 7b 3d 04 8a ba bc 67 ac cc 3c
       -0.043552604 0.061403397 -0.02277089 0.024984552
000290 6e 28 05 3e 06 96 b2 bd 1c 9e 5f bc e5 29 4a 3d
       0.13003704 -0.08720021 -0.013648536 0.04935636
0002a0 9a 4f 10 be 59 b3 40 3a 75 55 33 bc 09 98 00 bd
       -0.14092866 0.00073509436 -0.0109456675 -0.031394992
0002b0 8b 83 83 3d 0a b1 0e be b0 f6 41 bc ba b6 a5 bd
       0.06421574 -0.13934723 -0.0118386 -0.08091493
0002c0 d1 b9 34 3c 1e 2a e4 bd 43 c9 ac 3d 4f 57 2d bc
       0.01103063 -0.11140846 0.08436825 -0.010579898
0002d0 b8 7b 49 bd dc 6d 5a 3c e5 5a 07 3e 05 f6 89 3d
       -0.049190253 0.013331857 0.13218267 0.067363776
0002e0 7a d6 71 bc 41 92 79 3d b9 33 29 3d af 60 a2 bd
       -0.014760608 0.060930494 0.041309092 -0.07928597
0002f0 05 2f 5a bd 1c 19 e8 3c 71 30 52 bd 6d 88 c0 3c
       -0.053267498 0.028332286 -0.05131573 0.023502553
000300 b9 7a b3 bc ba 9b 80 bb 84 80 43 3d 2a d4 95 bc
       -0.021909105 -0.003924814 0.047729984 -0.018289644
000310 b8 78 ef 3d e2 5b 29 3d 5a 33 ba 3c a6 37 e8 3d
       0.11692947 0.041347392 0.022729564 0.11338739
000320 80 6c 67 3d 40 e1 40 bd 45 99 9e 3c 38 52 6f bd
       0.056499958 -0.047089815 0.019360194 -0.05842802
000330 5e a7 98 bd 34 57 4a bd 6b 58 a8 bc 1b b4 9b bd
       -0.07453798 -0.04939957 -0.020549973 -0.07602712
000340 47 27 dc bd 0a c0 13 3e 70 d8 68 bd 33 14 1a 3d
       -0.10749679 0.14428726 -0.056847036 0.03761692
000350 79 cc a3 3d 9f d2 6d bd 03 62 b0 3c ea c9 c0 bd
       0.079979844 -0.058062192 0.02153111 -0.09413512
000360 46 d9 6d bd 70 00 83 3c 93 e5 c8 bd df 96 66 3d
       -0.058068536 0.01599142 -0.09809413 0.056296226
000370 a9 6e d4 bd 82 9f 32 bc a0 5c 59 bd e1 dd a5 3d
       -0.10372669 -0.010902287 -0.05306685 0.08098961
000380 62 20 fb bb aa d8 96 bc bc 1e 88 bd bc 06 c8 3d
       -0.0076637724 -0.01841386 -0.06646487 0.097669095
000390 01 50 87 bd c3 be b9 3d 02 8c ac bd 0e ef ad bc
       -0.066070564 0.09069588 -0.08425142 -0.021232154
0003a0 bd 5b e8 3d 01 73 3a 3c f9 46 6a bd db 30 1a bd
       0.11345623 0.011379958 -0.05719659 -0.03764425
0003b0 ac 77 91 3d 7d 04 79 3d d0 73 8f 3d 40 9a 23 3d
       0.07102904 0.060795296 0.07004511 0.039942026
0003c0 f5 6e 98 bd fb d0 98 3d be 90 d4 bc 31 e0 99 bd
       -0.074430384 0.07461735 -0.025947925 -0.07513464
0003d0 fa f0 93 3d 1b f5 a0 bd fb d2 df 3d 50 b4 d3 3c
       0.07223697 -0.0785925 0.10928913 0.025842816
0003e0 32 3c b4 bd 6d ec 4f 3d b7 fc 3a bb 84 17 a7 bd
       -0.08800544 0.050762583 -0.0028531977 -0.08158782
0003f0 fe 19 c2 bd 14 a0 12 3e 07 59 95 3b cb e3 1b bd
       -0.09477614 0.14318877 0.004557732 -0.038059037
