TadGAN/models/record0/encoder.pt (torch, 83235 bytes, 10 tensors)

lstm.weight_ih_l0 f4 [80, 100]
000000 d0 19 2b 3e 22 cb e7 3d 3d 81 38 be 08 6e 84 bb
       0.16709065 0.113180414 -0.1801805 -0.004041437
000010 9f b4 20 bc 69 b5 35 3c cf c6 0a 3e c4 3d 1c be
       -0.009808688 0.011090615 0.13552402 -0.15257937
000020 05 62 00 3e 58 9e 7b bc 8a f4 14 3e da e5 d8 bd
       0.12537391 -0.015357576 0.14546409 -0.10590716
000030 40 f2 3c 3e 01 63 7c 3e 80 05 96 bc 50 d4 20 be
       0.18451786 0.24647142 -0.01831317 -0.15705991
000040 76 40 0e bd 90 2f 4a 3e e8 f7 03 3e 43 10 80 3e
       -0.034729443 0.19744706 0.12887537 0.25012407
000050 df 72 7f 3e f8 2a 50 3e cf c1 61 3e d5 7f 38 3e
       0.24946164 0.20328891 0.22046588 0.18017514
000060 34 65 d3 bd 0e 2a b5 3d e2 08 03 3e 16 a2 1e 3e
       -0.10322037 0.08845912 0.12796357 0.15491518
000070 6b f0 fb 3d 10 3b b4 3d 62 cb 1b be 0f ba ce bc
       0.123017155 0.08800328 -0.15214303 -0.025235204
000080 84 b7 7f 3d b8 2f 84 bc b5 2a 42 3e 27 07 2f 3c
       0.062430874 -0.016136035 0.18961604 0.010682858
000090 5c 36 00 3e 09 98 28 3e c8 bc 85 3d e1 05 23 3d
       0.12520736 0.16464247 0.06530148 0.03980053
0000a0 37 09 4c 3d bc 39 8e 3d 41 99 82 3d 66 a6 20 be
       0.049813475 0.06944606 0.06376887 -0.15688476
0000b0 3a 67 40 be fb 21 79 3e bd 5b 10 3e 41 e7 18 be
       -0.18789378 0.24329369 0.14097495 -0.14931966
0000c0 1b e1 b7 3d a9 1c 16 be b0 ff 95 3d 2f b6 b8 3d
       0.08978482 -0.1465937 0.07324159 0.09019124
0000d0 57 67 9f bd 7c e5 15 3e 01 69 07 be e2 84 2f 3e
       -0.077833824 0.14638323 -0.1322365 0.17140535
0000e0 4a 4c e3 3c 58 92 3f 3c a3 31 6f 3e 7e a1 3c be
       0.027746338 0.011692606 0.23358779 -0.1842098
0000f0 a3 aa c0 3d 03 06 ae 3d 17 99 0e 3e 3f 83 f5 3d
       0.09407546 0.084972404 0.13925587 0.11987924
000100 aa e7 29 be ae c5 2b 3e 81 43 20 be 56 4b 39 bc
       -0.16592279 0.16774628 -0.1565075 -0.011309465
000110 9b e9 51 bd f2 0c 80 3e 0f 9c 5c 3e 6d e8 7b 3e
       -0.051248174 0.25009876 0.21543907 0.24600382
000120 43 60 33 be a7 d9 14 bd cb 1f 59 3e 39 77 08 be
       -0.1751719 -0.036340382 0.21203534 -0.1332673
000130 5b 26 0f 3e d9 e6 81 bd 6e bd be bd 26 df 7d 3e
       0.13979475 -0.06342859 -0.093134746 0.24792156
000140 95 bb 54 3e 77 77 a2 3b ba bc e5 ba 69 2a 21 3e
       0.20774682 0.004958089 -0.0017527558 0.15738834
000150 b5 75 be 3d 9f 02 0b 3e 57 8c 1f 3e b5 c3 be 3d
       0.092997946 0.13575219 0.15580879 0.09314672
000160 ad ce 2c 3e 8a ce f3 3c 76 06 cc bd a9 ec 72 3e
       0.16875716 0.029761571 -0.0996217 0.23723091
000170 1e 7a f3 bd 59 4c bc 3d 9b 13 10 3e 94 7c cc 3c
       -0.118885264 0.0919425 0.14069979 0.024961747
000180 4f 65 5a 3e 37 d7 ed bd 52 57 11 3e 70 b2 02 be
       0.21327709 -0.116133146 0.14193466 -0.12763381
000190 3c 92 1b 3e e9 ee ed 3c 18 9c af 3d 8e 58 14 3e
       0.15192503 0.029044585 0.085746944 0.14486906
0001a0 1d b6 e0 3d 1a b9 14 bd b8 5c 38 3e c7 51 99 3d
       0.10972235 -0.03630934 0.1800412 0.07486301
0001b0 6b 27 1e 3c 29 16 f9 3c 3b e6 37 be 8d c1 49 3e
       0.009652953 0.030406075 -0.1795892 0.1970274
0001c0 8d 4e d8 3d 68 7d 08 3e 29 92 56 3d 96 8a 26 3e
       0.10561857 0.13329089 0.052385483 0.16263804
0001d0 cd 58 67 3e e2 92 32 bd 0b 0c da bc c1 0b 50 3e
       0.22592469 -0.04359711 -0.02661707 0.20316984
0001e0 b1 57 c2 3d 21 5d b8 3d 13 39 1c 3e 61 b2 35 3e
       0.09489382 0.09002138 0.15256147 0.17743827
0001f0 82 4f 35 3e 05 4f 0e 3e 01 57 47 3e 2c 26 4c bc
       0.17706111 0.13897331 0.19466783 -0.012460273
000200 cb 9d 61 3c 9b 93 c1 bd 73 72 47 3e 8d 7b cc 3d
       0.013770531 -0.09451982 0.19477253 0.09984503
000210 2f d4 5d bd 89 c6 75 3e f8 79 64 3e 6c 16 ad bc
       -0.054157432 0.24001516 0.22312152 -0.021128856
000220 e3 0f c0 bc 56 20 ed 3d 7b e5 1d bd 03 56 52 3d
       -0.023445075 0.11578433 -0.038548928 0.05135156
000230 45 8f fe 3d 83 5c 7c 3d 9f 34 64 3e 2c d2 40 bc
       0.1242967 0.061611664 0.22285698 -0.011768859
000240 83 3b 40 3e d0 98 07 bd df 47 32 3e de a2 45 3e
       0.18772702 -0.033104718 0.17410229 0.1930041
000250 1b a4 76 3e 74 d4 c1 bd 3e 25 f1 bd 06 9d 39 3e
       0.24086039 -0.0946435 -0.117746815 0.18126306
000260 9b 62 1c be 9d b7 72 3d 30 73 0a bd f6 2e 9c 38
       -0.1527199 0.05925714 -0.033801258 7.447407e-05
000270 2f 22 59 3e 3f 32 64 3d 1e 09 4f bd eb b5 f5 3d
       0.21204446 0.05571198 -0.050545804 0.11997589
000280 e8 c0 1c bd 15 12 f8 bc 5d 3b 3b be 10 6e eb 3c
       -0.038269907 -0.03028206 -0.18284364 0.028739005
000290 f9 61 c5 3d 82 c5 69 3e a4 1d fa 3d 76 3b 0e be
       0.096378274 0.2282925 0.12212685 -0.1388987
0002a0 16 2d 3b be f0 ed 48 3c c3 f1 0f 3e 09 b6 6f bd
       -0.18278918 0.01226376 0.14057069 -0.05852321
0002b0 03 65 32 3e a5 27 60 3e 8c e3 46 3d a9 69 7d 3e
       0.17421345 0.21890123 0.04855685 0.24747337
0002c0 b8 5a 27 3e 0a 72 68 bd fd 55 3f be d8 ed 46 be
       0.163432 -0.05674938 -0.18685146 -0.19426668
0002d0 0e 50 02 be 38 5c 85 bd bc 57 75 3e 28 3d 69 bc
       -0.12725851 -0.0651173 0.2395925 -0.014235772
0002e0 60 20 16 be 02 3a 01 be 54 d6 20 be 15 3d c2 bc
       -0.14660788 -0.12619784 -0.1570676 -0.023710767
0002f0 de 82 34 3e d7 71 77 3e 73 05 53 3e 21 6d cb 3c
       0.17628047 0.2416452 0.20607547 0.02483231
000300 c4 3e 9f 3a 61 36 80 bc bf 36 5b 3e 15 b9 5d bc
       0.0012149443 -0.01565093 0.21407603 -0.0135328965
000310 a2 41 b5 bd 2d c4 74 3d 2a 00 24 3e 38 97 cc bd
       -0.08850409 0.0597574 0.16015688 -0.0998978
000320 7b 5f e6 3d 33 cd 38 bd 8c f8 d6 3d 8e 81 1c 3e
       0.1124868 -0.04511757 0.10496625 0.15283796
000330 2f c0 8e 3d ab 3d 3b be d7 af 8d 3d a7 c0 2e bc
       0.0697025 -0.18285243 0.069183044 -0.010666049
000340 19 c4 fe 3b 20 a1 f8 bd bc cf 92 3d 34 76 db bc
       0.0077748415 -0.12140107 0.071685284 -0.026789762
000350 54 97 69 3e 28 09 86 3d 01 d0 29 3e 7f 8f 2c 3d
       0.22811633 0.06544715 0.16583253 0.042129036
000360 03 2c 98 3d 79 95 d4 3c fc f9 1e bd 78 1a 24 3e
       0.074302696 0.02595018 -0.038812622 0.16025722
000370 58 04 2d be d7 ac 04 3e bf 3a 23 be c2 01 15 be
       -0.16896188 0.12956558 -0.15940379 -0.14551452
000380 89 db bd bd f1 6c 63 3e 31 d3 ff bd c2 24 8a 3d
       -0.09270389 0.22209527 -0.124914534 0.06745292
000390 b6 fd 8f bd 5f 46 a9 bd 3e 71 33 be 01 f0 f4 bd
       -0.070308134 -0.08265375 -0.17523667 -0.119598396
0003a0 63 8f 51 3e 41 bc 20 3e 11 75 7b 3e 3a 5f 0d be
       0.20464854 0.15696813 0.24556376 -0.13805857
0003b0 5a 0c 7c 3e 99 fd e3 3c 3c c7 f9 bd 69 31 fe 3c
       0.24614087 0.027830886 -0.12196204 0.03102942
0003c0 02 2a 3d be 0a a1 ea 3d 62 55 42 3d c6 60 36 be
       -0.18473056 0.11456497 0.04744471 -0.17810354
0003d0 e9 ee 38 3d 29 bc 0d be fe b4 da bd bd f3 14 be
       0.045149717 -0.13841309 -0.10679053 -0.14546104
0003e0 57 64 19 be 84 fc 58 3d 4a 0d 75 bc 0c f3 5c 3e
       -0.14979683 0.052975193 -0.014956782 0.2157709
0003f0 ef 2a c9 3d b7 54 15 3e f9 44 b1 3d d8 a5 0e be
       0.09822642 0.14583097 0.086557336 -0.13930452

lstm.weight_hh_l0 f4 [80, 20]
000000 a8 52 6e 3d 7a 21 3f 3e 64 37 4b be e4 32 4f 3e
       0.058184296 0.18665114 -0.19845349 0.20234257
000010 50 8c 08 3e d0 f7 46 be bc 23 ff 3d 00 2d 15 bc
       0.13334775 -0.1943047 0.12457988 -0.009104967
000020 28 b9 f6 3d 80 fd 97 3d 98 ba c4 3d 44 b4 39 bd
       0.120470345 0.07421398 0.096059024 -0.04533793
000030 dc 6b 5a 3e de 9f 29 be 98 36 59 3d ec ec a2 3d
       0.21330208 -0.1656489 0.05303058 0.079553455
000040 0c 62 c2 bd 03 c9 44 be f4 b2 00 be 34 3a 9e bd
       -0.09491357 -0.19217305 -0.12568265 -0.07725945
000050 3a b0 33 3e 66 14 3b 3e 44 a5 11 be e0 1e ef 3c
       0.17547694 0.182695 -0.142232 0.029189527
000060 32 38 62 3e 70 fd a5 bc 30 3d 63 be 02 34 32 be
       0.2209175 -0.02026245 -0.2219131 -0.17402652
000070 d2 0d b8 bd 2c 98 3d bd 26 b2 c7 bd b6 4e 4e be
       -0.08987011 -0.0462877 -0.09750776 -0.20147213
000080 0e ec 0c be 08 71 8a bd d4 71 07 be fe 71 3b be
       -0.13761923 -0.0675984 -0.13227016 -0.18305203
000090 ac c3 00 3e 40 9d 60 3d 8c 34 1d be de e0 13 3e
       0.12574643 0.054837465 -0.15352076 0.14441249
0000a0 ad fd ca bd 41 93 62 be 12 f6 3a be a8 ca 42 3d
       -0.09911666 -0.22126485 -0.18257931 0.04755655
0000b0 38 01 4d 3e 45 7a ec bd 88 be 95 3d 00 55 d7 bc
       0.20019996 -0.115467586 0.073117316 -0.026285648
0000c0 84 43 ed bd f8 c5 02 3d 84 54 4c 3e 90 8b 6e 3d
       -0.11585143 0.03192708 0.19954115 0.058238566
0000d0 b8 20 f5 bc e8 08 54 be fc 02 ee 3d 80 4f e6 ba
       -0.029922828 -0.20706522 0.11621663 -0.00175713
0000e0 70 a5 f8 3c c0 30 31 be 3b 50 cd bd ec a1 ac 3d
       0.030352324 -0.17303753 -0.10025068 0.08429322
0000f0 7c 76 73 bd 48 62 05 3d 52 1e 0f 3e 46 ba 28 3e
       -0.059439167 0.03256443 0.1397641 0.16477308
000100 18 d0 0e be 02 0d 63 3e bc ac dd bd f0 ba dd 3c
       -0.13946569 0.22172931 -0.10823962 0.027066678
000110 64 1c b0 3d d4 7c c4 3d f2 50 4b 3e 8c a7 67 bd
       0.08599165 0.095941216 0.19855097 -0.05655627
000120 bf 6d 08 be e0 f6 52 3d a4 62 5f be 28 a3 b4 3d
       -0.13323115 0.05150497 -0.21814972 0.08820182
000130 9b 07 32 be 92 f7 16 be fe 19 eb bd 20 64 c0 3c
       -0.17385714 -0.14742878 -0.11479567 0.023485243
000140 b8 c0 1b 3d 96 06 51 be fc c9 d4 bd 04 0f 12 3e
       0.038025588 -0.20412669 -0.10390088 0.1426354
000150 80 7d a5 ba 20 5a ad bd de 24 1e 3e cc 8c 56 be
       -0.0012625903 -0.084644556 0.15443751 -0.20952147
000160 64 2f 01 bd 70 74 9d bd 40 5b 13 be 54 a1 2e 3e
       -0.031539336 -0.07688224 -0.14390278 0.1705373
000170 f2 5f 4c 3e f8 5e 77 3d 57 f1 3e be 26 04 50 be
       0.19958475 0.060393304 -0.18646751 -0.20314083
000180 7a 1b 5f be f8 d9 11 bd 20 aa 3e 3c 28 3b 3b bd
       -0.21787825 -0.03560826 0.011637241 -0.045710713
000190 40 dd d6 3b 90 7c 0e be b4 e0 aa bd 44 33 9b bd
       0.006557137 -0.13914704 -0.0834364 -0.075781375
0001a0 33 02 49 be 18 eb 68 3d 8c 23 56 be 9c 42 a7 3d
       -0.19629745 0.056864828 -0.20911998 0.081670016
0001b0 ce 7c 04 be 0a d5 16 be fc 14 87 3d fc 95 05 3e
       -0.12938234 -0.14729705 0.06595799 0.13045496
0001c0 80 cf 29 be 78 9d 0a be 58 05 ee 3d 12 a6 23 3e
       -0.16583061 -0.13536632 0.11622113 0.1598132
0001d0 58 58 3f be a8 88 b2 3d b8 68 e1 3d 58 17 19 bd
       -0.18686044 0.08717471 0.11006302 -0.037375778
0001e0 f0 9e c3 bd ce f8 02 be b0 a5 34 be 94 81 b8 bd
       -0.09551799 -0.12790224 -0.1764133 -0.0900909
0001f0 08 cc 26 3d ba 2e 1b be 96 ef 22 3e 51 1f 64 be
       0.040721923 -0.15154544 0.15911707 -0.22277571
000200 84 a1 e2 3d 38 2d 94 bc b6 30 11 3e dc 26 b1 3d
       0.11065963 -0.018087968 0.14178738 0.0864999
000210 74 32 8c bd bc 1b 31 be 2b 2f fc bd 5f e4 18 be
       -0.06845561 -0.17295736 -0.12313684 -0.14930867
000220 45 91 f1 bd 35 89 26 be 10 5f 57 bc 37 cd ec bd
       -0.11795286 -0.16263278 -0.013145223 -0.11562579
000230 47 29 02 be 14 cb b7 bd d9 af db bd ab 66 17 be
       -0.12711059 -0.08974281 -0.107269 -0.14785258
000240 64 9a 12 be 26 0f 4d 3e a0 2e a7 bb 78 96 13 be
       -0.14316708 0.2002531 -0.0051019937 -0.14412868
000250 1e 96 20 3e d0 3a 66 3c 8a 5c 39 3e 8e 05 04 3e
       0.15682265 0.014052108 0.18101707 0.12892744
000260 8c f3 b6 3d e4 70 f6 3d 23 38 54 be 9a b1 f6 bd
       0.08933172 0.12033251 -0.2072454 -0.120455936
000270 e8 de 5d 3d 6b 4c 5a be 7f b3 d3 bd fc 00 3e be
       0.054167658 -0.21318214 -0.103369705 -0.18555063
000280 c0 2a 79 3d 98 ac 05 be 40 f5 13 be 6e f5 5d 3e
       0.060831785 -0.1305412 -0.14449024 0.21675655
000290 e0 37 c7 bd f0 ba d1 3d 58 a2 81 3d be 75 06 be
       -0.09727454 0.102407336 0.06329793 -0.13130853
0002a0 20 4a e0 3c 60 f4 ea 3d 84 db 6b bd b2 ab a6 bd
       0.027379096 0.11472392 -0.057582393 -0.08138217
0002b0 34 79 3c 3e e0 fd 34 bd 34 dc 92 3d 92 4d 39 3e
       0.1840561 -0.044187427 0.07170907 0.18095997
0002c0 24 a1 19 3e ac f0 f3 3d f0 e2 41 be 58 7b ae bc
       0.15002877 0.11911139 -0.18934226 -0.02129905
0002d0 7f 6e 27 be 4c 4b 4b 3e 18 da 76 3d b4 bd 45 bd
       -0.16350745 0.19852942 0.060266584 -0.048276618
0002e0 7e e2 17 3e 58 89 2d 3e 94 64 32 3e 4a 7d b8 bd
       0.14832494 0.16946924 0.1742118 -0.09008272
0002f0 28 67 a4 3c 10 3b e9 3c 70 d7 a5 3c 96 f1 07 be
       0.02006872 0.028470546 0.02024433 -0.13275751
000300 9e 5b 32 3e fc 9d ac bd a4 9e 6f bd ec 44 b0 3d
       0.17417762 -0.08428571 -0.0585009 0.08606896
000310 34 db d9 3d 80 21 d3 3d 92 cb 62 3e 28 7c 21 3e
       0.10637513 0.10309124 0.22147968 0.15770018
000320 75 df 23 be f9 70 3d be d4 00 c9 3d 3c e7 eb bd
       -0.16003211 -0.18500127 0.09814611 -0.11518714
000330 80 5b d2 3d 48 cb d7 3d 2d b3 22 be 71 36 f9 bd
       0.102713585 0.1053682 -0.15888663 -0.12168587
000340 1c 64 be 3d 42 53 1d be c0 be f6 bc ba 95 50 3e
       0.09296438 -0.15363792 -0.030120254 0.20369616
000350 2c a1 a1 3d 40 26 2c be 8c f9 2d bd 68 20 2c bd
       0.07892069 -0.16811466 -0.042474315 -0.042023093
000360 82 55 a5 bd 26 9b 05 3e 00 e8 28 3d b0 c8 b9 bd
       -0.0807295 0.13047466 0.041236877 -0.09071481
000370 08 4d 53 3e c8 d8 24 3d f6 90 45 3e a8 c4 28 bd
       0.20634854 0.0402458 0.1929358 -0.04120317
000380 98 2c b8 3d 70 b3 7f 3c 36 6d 85 bd 42 54 39 3e
       0.089928806 0.015606746 -0.06514971 0.18098548
000390 80 5a ef bb ce b8 1e be 28 18 42 3d 70 a8 46 bc
       -0.0073044896 -0.15500185 0.04738632 -0.01212512
0003a0 ca 0a 2c 3e b6 d6 84 bd fc 21 bd bd 38 35 30 3d
       0.1680099 -0.06486265 -0.09234998 0.043019503
0003b0 dc fa 2f be f8 2e 64 3d 34 88 97 3d cc 17 be 3d
       -0.17185539 0.055708855 0.073990256 0.09281883
0003c0 6e 36 18 3e 60 48 1c bd 48 67 50 3d 70 2d 5d 3e
       0.14864513 -0.03815496 0.050879747 0.21599364
0003d0 50 41 98 3d c0 a2 bb bc 50 7d 24 3e 1e 3a 51 3e
       0.07434332 -0.022904754 0.16063428 0.20432326
0003e0 8a 09 ac bd 8c b3 51 3e a8 3f 4a bd fc d4 22 3e
       -0.08400257 0.20478648 -0.049377114 0.1590156
0003f0 50 58 33 bc 5c 0f 3d bd 30 dd 69 3d 00 cc ce b9
       -0.010946348 -0.046157226 0.057095706 -0.00039443374

lstm.bias_ih_l0 f4 [80]
000000 ea d5 94 3b 08 48 6c 3c 8b 47 64 bd 60 9c 80 bc
       0.004542102 0.01442147 -0.05573229 -0.015699565
000010 64 2e 18 bd f8 cf 29 3e a0 57 19 3e c3 a5 27 bd
       -0.037153617 0.1658324 0.14974833 -0.040929567
000020 18 2d d2 bd 27 27 88 3d e7 c0 8e bd a8 ba 47 3e
       -0.10262507 0.06648093 -0.06970387 0.19504797
000030 18 20 26 3e 95 e6 f8 3a 30 d8 d2 3d b8 0e 82 3d
       0.1622318 0.0018989617 0.10295141 0.06350464
000040 ae eb 01 be e3 76 13 be ad be 1c 3e b5 b5 ee bc
       -0.12687561 -0.1440082 0.15307112 -0.029139379
000050 f8 54 b6 bc 30 f7 f0 bc 80 a0 6b bd 34 da 16 be
       -0.022257313 -0.029414743 -0.05752611 -0.14731675
000060 cf 7d 44 be d8 a4 8b bd 42 f4 0d 3e e6 30 10 be
       -0.19188617 -0.06818551 0.13862708 -0.14081153
000070 ee cd 57 be 20 7d f9 3d 08 bf 14 bd a6 18 0d 3e
       -0.2107465 0.12182069 -0.036314994 0.13778934
000080 e6 fb 27 3e 8c b2 57 be b8 7f 8a 3c 92 1c 5d be
       0.16404685 -0.21064204 0.016906604 -0.2159293
000090 9b f9 ff bd fa c2 95 bd 00 3a b5 bb b8 06 e7 3d
       -0.1249878 -0.073125795 -0.005530596 0.112805784
0000a0 65 34 3b 3e 7d 57 e4 3d b3 20 8c bd 59 57 89 39
       0.18281706 0.111494996 -0.068421744 0.00026195755
0000b0 55 95 32 3e 8e 6e e3 bd 72 63 16 be d9 35 da ba
       0.17439778 -0.11105071 -0.14686373 -0.0016648128
0000c0 21 e1 9f 3d 62 bc 34 3e 43 bf a6 bd 71 80 35 be
       0.07806612 0.17649987 -0.08141949 -0.17724778
0000d0 e1 7c e9 3d a1 b4 4b 3e e1 48 3e 3e e4 05 bc 3c
       0.11400772 0.19893123 0.18582489 0.022952028
0000e0 ac 16 9c bd 15 b0 38 bd d6 4a 35 be da 1e 1c be
       -0.07621512 -0.0450898 -0.17704329 -0.15246144
0000f0 38 b0 36 be e4 26 06 3e e5 24 ac bd aa 48 fe bd
       -0.1784066 0.13100773 -0.084054746 -0.12416203
000100 6e 32 04 be 25 1c 17 be d7 82 c5 bd 14 c1 0d be
       -0.12909862 -0.1475683 -0.09644096 -0.13843185
000110 a5 4a c0 bc 4d d1 6e 3e 94 26 0e 3e 2b 2d 07 3e
       -0.023473093 0.2332203 0.13881904 0.13200824
000120 99 54 1f 3d 78 8f b6 3d 93 67 66 3e 6b 86 ed bc
       0.038899038 0.08914083 0.22500448 -0.02899476
000130 58 ef f5 bc 4b 41 f7 3d eb ac 2f 3e 37 32 ca bc
       -0.030021355 0.120730005 0.17155807 -0.024682147

lstm.bias_hh_l0 f4 [80]
000000 20 5c 53 3c f4 f3 52 3e a7 d3 ae 3c 63 2a d3 3b
       0.012900382 0.20600873 0.021341158 0.006444262
000010 63 e1 5d 3d f3 17 49 be 2a e8 0a 3e d5 25 f6 bc
       0.054170024 -0.19638042 0.13565126 -0.030047337
000020 c9 e3 ab 3d f6 1d c4 bd b9 d9 3d be e1 3b 80 bd
       0.08393056 -0.09576027 -0.18540086 -0.06261421
000030 31 4c a7 bd ed 39 b4 bd 8c 4e ba 3d f9 a7 fd 3d
       -0.08168829 -0.08800111 0.09097013 0.12385554
000040 16 65 96 bd a5 7d 6b 3d b4 a1 50 be 45 e8 bb bd
       -0.07343499 0.05749287 -0.20374185 -0.09175161
000050 ba 9c 10 be c8 82 a6 bc de 90 04 3e 60 85 fb 3d
       -0.14122286 -0.020326033 0.12945887 0.12281299
000060 f8 3d d7 bc 00 d2 a6 3b 52 0e 4f be 24 e2 86 3d
       -0.026274666 0.005090952 -0.20220307 0.06586102
000070 18 d1 35 be a2 aa 94 bd 60 f5 58 bc 10 2e 13 3c
       -0.17755544 -0.07259108 -0.013242096 0.00898315
000080 04 30 f9 bd 28 80 b3 3c 25 8e 2c be c4 e5 4c be
       -0.121673614 0.021911696 -0.16851099 -0.20009524
000090 2a ca fa bd 6c 84 8c 3d b7 c8 5a be 98 2f 7c bd
       -0.12245591 0.06861195 -0.21365629 -0.061568826
0000a0 cf d0 36 be 82 8a 3f be f1 ef c4 bd 1a b7 04 be
       -0.17853092 -0.1870518 -0.09616078 -0.12960473
0000b0 cb 68 58 3e 12 ec 4c be ca a4 aa bd dd 73 0b 3e
       0.21133725 -0.20011929 -0.08332212 0.13618417
0000c0 c6 52 13 be dd d7 c7 bb 41 f6 a5 bd 1d 62 4e be
       -0.14387044 -0.006098731 -0.0810361 -0.20154615
0000d0 df ce bf bd da 3c 8d 3c 4e f9 54 be 54 2d 4c be
       -0.093656294 0.01724093 -0.20798227 -0.19939166
0000e0 ac ac 48 be 79 3f ad bd ad 0d ac bd fa 22 38 be
       -0.19597119 -0.08459372 -0.08401046 -0.17982092
0000f0 aa 1c 20 3e c4 b5 34 be 72 87 b8 bd 77 c4 70 3d
       0.15635934 -0.17647463 -0.09010209 0.058781113
000100 d8 f5 f6 3c 93 d0 7c bc b1 af 56 3e b6 81 22 bd
       0.030146524 -0.015430587 0.20965458 -0.039674483
000110 1c 2b 0c 3e f9 6d 35 3e b2 63 d2 3d 70 c1 6e 3e
       0.1368832 0.17717732 0.102729216 0.23315978
000120 9e 67 9d bd 6a 72 55 be 2b c8 28 3d d0 ed 2e be
       -0.07685779 -0.20844427 0.04120652 -0.17082906
000130 ee ca e5 bc 15 7b 4d be a7 87 0f 3e 09 1b 7f bd
       -0.028050866 -0.20066483 0.14016591 -0.062281642

lstm.weight_ih_l0_reverse f4 [80, 100]
000000 30 bc 12 3e 1e c4 1b 3d 4d d6 00 3e af 6b be bd
       0.143296 0.03802883 0.1258175 -0.09297883
000010 9f b1 33 be 12 b6 0b 3e 07 e5 ad bc 75 35 b9 bd
       -0.17548226 0.13643673 -0.021227373 -0.09043399
000020 84 b3 d4 3c d4 f1 51 bd c9 c9 18 be bd 0f 9f bd
       0.025964506 -0.051256016 -0.14920725 -0.07766674
000030 41 bd 2c be 93 33 a2 bd 16 05 27 be d4 8a 46 3d
       -0.1686907 -0.07919993 -0.16310534 0.04847224
000040 96 e6 7b bd 3c 13 c0 bd 3d d1 1b be 0d ce 82 bd
       -0.0614992 -0.09378669 -0.15216537 -0.06386957
000050 63 55 e4 bc 8b 01 91 3c 55 52 e4 3d 6e f9 6b 3e
       -0.027872747 0.017700931 0.11148516 0.23044369
000060 20 d5 a5 3d 78 35 54 3e f9 fc 0a be ee 6b 6c 3e
       0.08097291 0.20723522 -0.13573064 0.23088047
000070 0a e1 9a bd 15 a7 11 3e 17 77 52 3e b2 bf 96 3d
       -0.07562454 0.14223893 0.20553242 0.07360782
000080 cc 74 fa bd 45 c9 24 be 39 ec 99 bd e6 95 72 3d
       -0.122293085 -0.16092403 -0.07515759 0.059224986
000090 34 5d 14 3c 77 70 1c be fa b8 3e 3d b3 d7 01 3b
       0.0090554245 -0.15277277 0.046563126 0.0019812405
0000a0 2b a6 32 3e 77 84 8c bb 2d 1b 97 3d 40 12 56 3e
       0.174462 -0.004288252 0.0737823 0.209054
0000b0 3c 08 65 3c f1 e9 69 3e 89 f8 d2 bd c0 95 0a 3e
       0.013979014 0.22843148 -0.103013106 0.13533688
0000c0 c2 bf b2 3d 94 1b 8c 3d 6e ec f4 3d d2 7d 22 bb
       0.08727981 0.068411976 0.11959158 -0.0024794233
0000d0 88 6d 67 3e a0 88 2b be c4 38 0a 3e 49 7d 29 3e
       0.22600377 -0.16751337 0.13498217 0.16551699
0000e0 cb 08 4f 3e 38 49 1e bd 70 eb c8 bd 19 74 ce bd
       0.20218198 -0.038644046 -0.09810531 -0.100807376
0000f0 76 7d 16 bd 2e d6 1e bb c9 81 68 3e 7c 41 2a be
       -0.036740743 -0.0024236548 0.22705759 -0.16626543
000100 54 0a ba bd 56 21 39 3e d9 7d 80 3e 8e 8a c8 bc
       -0.09084001 0.18079123 0.25096014 -0.02448013
000110 05 c0 47 3e 35 47 70 3e a3 6e 2f be 8f 4d 0a be
       0.19506843 0.23464663 -0.17132048 -0.13506149
000120 18 07 fb bd 52 a8 c0 bd ae 7b 61 bd fb 1f 31 be
       -0.122572124 -0.094071046 -0.05504959 -0.17297356
000130 f5 f0 3d 3e 5e db 24 be 63 a1 6d 3e c6 0c 21 be
       0.18548949 -0.16099307 0.23206095 -0.15727529
000140 c2 eb 2f 3e 0d 6b 6a 3e 63 e8 48 3d 87 61 22 3a
       0.17179778 0.22892399 0.049049746 0.0006194342
000150 a6 fc cd 3c c7 ca 31 3e 1a bc 1c be 8e 8e 3f bd
       0.025144886 0.1736251 -0.1530613 -0.04676681
000160 0c 57 5c 3e e8 bd 11 3e 01 09 35 3e f0 fd 05 3e
       0.21517581 0.142326 0.17679216 0.1308515
000170 83 f2 11 be 13 c7 0b 3e 23 77 8e 3d 96 fb 68 3e
       -0.14252667 0.1365016 0.06956317 0.22752222
000180 4a 04 2a be 18 f2 ce bc 6a ea 2c be d1 8e 2f be
       -0.16603199 -0.025261924 -0.16886297 -0.17144324
000190 e1 2e f2 bd a8 6a 2f be 74 37 4f 3e 51 80 6f 3e
       -0.11825348 -0.1713053 0.20235997 0.23388793
0001a0 5d 72 30 3e eb 99 4d 3e dc 53 32 bd dc a2 f2 bc
       0.17231126 0.20078246 -0.043537006 -0.029618673
0001b0 12 55 e6 bb 0d 11 17 be 29 a6 23 3c 3f 1e 1c be
       -0.007029184 -0.14752598 0.009988346 -0.15245913
0001c0 0f e9 b9 bd fc b3 c6 3d 4f aa 43 3e 68 40 47 3d
       -0.090776555 0.09702298 0.19107936 0.048645407
0001d0 0c 27 3c be aa 9f dc 3d 5d c9 d3 3d 3f 67 09 be
       -0.1837427 0.10772641 0.103411414 -0.13418292
0001e0 3d 67 96 3d 24 8c 59 3e 2d b9 a6 3c e8 d0 3d be
       0.0734391 0.21244866 0.02035197 -0.18536723
0001f0 35 e3 2a 3e 7c f2 94 bc 9d 84 33 bd 22 84 34 be
       0.16688235 -0.018182032 -0.04382764 -0.1762853
000200 92 6c 51 3e 13 f0 58 3e 6e ab 08 3d 28 c2 6e 3e
       0.20451573 0.21185331 0.033366613 0.23316252
000210 22 9b 01 3e 5a b8 97 bc 7d ea c8 bd 55 d6 9d 3d
       0.12656835 -0.018520523 -0.0981035 0.07706896
000220 17 8d ac bd 2d f9 18 3e fb be d6 bd e6 b6 45 be
       -0.08425348 0.14938803 -0.104856454 -0.19308051
000230 ca 5d cc 3c 36 58 ac 3d 40 9d 66 3e 3f 09 69 3d
       0.024947066 0.084152624 0.22520924 0.056893583
000240 d9 4c 35 be f1 ee f5 bd 68 b7 72 3c 24 6f 03 3d
       -0.17705096 -0.12008465 0.014814235 0.032088414
000250 df f7 57 3e b8 73 0f bd 37 03 d7 3d 20 95 cf 3d
       0.21090649 -0.035022467 0.1049866 0.10135865
000260 d5 09 75 3c 02 6e 2a 3e fa a8 97 3d 47 6e b5 bd
       0.014955957 0.16643527 0.074052766 -0.08858924
000270 6c 6b 1a 3e 78 8d 80 bd 67 4d 32 be c0 a8 1b 3e
       0.1508004 -0.06276983 -0.17412339 0.15201092
000280 2c b3 3c 3e 0d e7 5d 3e 62 82 e0 bc 81 5a cf bc
       0.18427724 0.2167017 -0.027405921 -0.02531171
000290 34 80 49 3e 1b ef 71 bc 9d e5 52 bc 7a 94 64 3d
       0.19677812 -0.01476648 -0.012872127 0.05580566
0002a0 28 71 21 be e4 27 bd 3d 01 17 f6 bd 36 86 58 3e
       -0.15765822 0.09236124 -0.120161064 0.21144947
0002b0 dc c1 e5 3d 88 78 76 3e ca de 1f bd a9 b8 08 3e
       0.11218616 0.24069417 -0.039030828 0.13351692
0002c0 5f 5f 55 3e 17 d2 2c be bd 61 4a be 60 4d 7a 3e
       0.20837162 -0.16877018 -0.19763847 0.24443579
0002d0 4e 37 76 3e ef 00 66 3e 06 3d aa bd ff 15 f6 3c
       0.24044535 0.22461294 -0.083124205 0.030039785
0002e0 69 7a 2c 3e 95 49 6b bd 3b 21 38 3e 5f 18 57 3e
       0.16843571 -0.05744322 0.17981426 0.2100539
0002f0 2e 02 d0 bd 76 af 4b be 3f ec 78 3d 4e ef 0f 3e
       -0.10156666 -0.19891152 0.060772177 0.14056131
000300 9d b2 0b be c9 14 80 bd 5e 28 05 be 4f 27 ba 3d
       -0.13642354 -0.062539645 -0.1300368 0.09089529
000310 99 08 92 bd de 97 56 3e 9e f0 dc bd 88 a6 4c be
       -0.07130546 0.2095637 -0.107880816 -0.19985402
000320 90 42 e1 3d e3 5a 0d 3c 73 c2 24 3e fa 0e 23 be
       0.10999024 0.008627626 0.16089801 -0.15923682
000330 1f c6 6b 3e bc a6 00 be 6f a3 c8 bd c6 a0 01 3e
       0.23024796 -0.12563604 -0.097967975 0.12658986
000340 bd 54 38 bb 6f 36 90 3c d5 9f 64 3d 64 44 6e bd
       -0.002812668 0.017604081 0.05581649 -0.05817069
000350 f0 b0 3a be c7 40 62 3c 91 64 20 bd c5 80 6c 3e
       -0.18231559 0.013809389 -0.039158408 0.23095997
000360 f1 52 02 bd 34 c5 0d 3e c2 a2 28 bc 8b 7a 9c bd
       -0.03181738 0.13844758 -0.010292711 -0.07640561
000370 ff c3 40 be 4d 7e cc 3c 9b 0d 3c be 66 0d ab 3d
       -0.18824767 0.024962569 -0.18364565 0.08352165
000380 c4 18 2d be 64 cb 51 3d 5e 59 58 bc a9 06 61 3e
       -0.16903979 0.05121936 -0.013204901 0.21975197
000390 45 79 0e bd e8 17 59 3d 06 20 2f 3e 38 a5 f9 3d
       -0.03478362 0.053001314 0.1710206 0.12189716
0003a0 5b d8 1f 3e 3c 64 78 3e cd 15 f5 3d b1 91 1e be
       0.15609877 0.24256986 0.11967049 -0.15485264
0003b0 0f 35 f2 bd e2 71 9b bd 70 64 5f 3e 05 23 0e be
       -0.118265264 -0.07590081 0.21815658 -0.13880546
0003c0 fa 97 28 3e 20 c2 55 bd 36 0e 48 bd bd 74 87 3d
       0.16464224 -0.052187085 -0.048841678 0.06614063
0003d0 53 89 db 3d 5a ab d5 bd 79 c6 c9 3d 22 1e 01 3e
       0.10719552 -0.10433073 0.09852309 0.12609151
0003e0 9a 21 2c 3e 61 79 09 be 6f 32 b6 3d 53 26 33 3e
       0.16809693 -0.13425209 0.08896338 0.17495088
0003f0 76 f9 33 bc ea 34 0b 3e 05 00 4e 3d 59 b7 cd 3d
       -0.010984769 0.13594404 0.050292987 0.100447364

lstm.weight_hh_l0_reverse f4 [80, 20]
000000 19 1a 0c be 18 1b f1 bd 2c e8 0f bd 87 83 1b be
       -0.1368183 -0.11772746 -0.035133526 -0.15186892
000010 1b 77 3b be 64 24 e6 3d 98 07 e5 bc 68 77 11 3d
       -0.18307154 0.1123741 -0.027957723 0.035514265
000020 79 fe 5e be 68 dd 1b bd 76 ba 3f be dc d4 da 3d
       -0.21776761 -0.038052946 -0.18723473 0.10685131
000030 c4 62 4c 3e 9e 5e 11 3e 54 75 aa bd 9a 26 59 3e
       0.19959551 0.1419625 -0.0832316 0.21206132
000040 86 89 3e be a6 ad 4c be d0 04 e1 3d 28 95 58 bd
       -0.18607149 -0.19988117 0.10987246 -0.05287662
000050 3a d0 3c be 94 dd be bd 30 3f 52 bd 68 a8 18 3e
       -0.18438807 -0.093196064 -0.05132979 0.14907992
000060 30 6b f0 3c 4a 66 4a 3e dc 4f fd 3d 70 fe 02 3e
       0.029347986 0.19765583 0.123687476 0.12792373
000070 9c 65 8e bd 76 43 60 3e 28 b8 4c bd c4 54 ba bd
       -0.06952974 0.21900734 -0.049980313 -0.09098199
000080 98 5e 58 3e 0f 0b 04 be e8 0c 38 be 74 9a fb 3d
       0.21129835 -0.12894844 -0.17973673 0.12285319
000090 08 18 8c 3d e8 56 8c bc 1c 3c 07 3e 80 15 03 3e
       0.06840521 -0.017131284 0.13206524 0.1280117
0000a0 bf 86 22 be f0 d1 48 3e 54 0a b9 3d be 1b 3f be
       -0.15871714 0.19611335 0.09035173 -0.18662927
0000b0 b4 d6 ff 3d 5e da e6 bd b0 3c 2c bd f4 50 bb 3d
       0.12492123 -0.11272119 -0.042050064 0.091463
0000c0 e8 16 03 be 64 20 2a 3e 94 0f 51 3e a8 78 8d 3d
       -0.12801707 0.16613919 0.20416099 0.06907779
0000d0 cb 49 3c be 63 f5 05 be 86 dd c8 bd 75 c9 1a be
       -0.18387525 -0.13081889 -0.09807877 -0.15115912
0000e0 90 8d eb bc 80 34 e9 3d 60 43 3a be 6c 08 d6 3d
       -0.028754026 0.11386967 -0.18189764 0.10450825
0000f0 51 be 01 be e0 fa d9 bc 60 e7 17 be 00 88 d5 bb
       -0.12670256 -0.026608884 -0.14834356 -0.0065164566
000100 1b ae 52 be e8 26 20 be e8 44 39 3d 3c bf 59 3e
       -0.20574228 -0.15639842 0.04523173 0.21264356
000110 64 97 c4 3d f4 e9 19 3e 40 42 3b 3e 08 13 00 3d
       0.09599188 0.15030652 0.18286991 0.03126815
000120 a5 d5 fe bd 3b f5 d8 bd c0 b1 5a bc 22 a2 5b 3e
       -0.12443093 -0.10593649 -0.013348043 0.21448568
000130 48 e5 81 3c c0 1c 72 bd c4 48 c0 3d 00 34 64 3d
       0.0158564 -0.05910945 0.09388879 0.055713654
000140 e0 2a 0a be c8 ef 18 bd c0 18 85 bc f0 0a a6 3c
       -0.13492918 -0.03733805 -0.016247153 0.020268887
000150 d8 07 5a 3d 62 12 43 3e c0 cd 9a 3d 2c 2d 18 3e
       0.053230137 0.19049981 0.07558775 0.14860982
000160 78 95 37 3d e0 43 55 3e c8 0f 10 bd f0 17 6d 3c
       0.04482028 0.20826674 -0.0351713 0.014471039
000170 08 eb 52 be 00 7a ae 3d d8 38 3d 3e e0 4b 90 3b
       -0.2059747 0.085193634 0.18478715 0.0044035763
000180 58 29 b1 bd 60 bf 02 be 60 5e 1e bd 0f 18 1d be
       -0.08650464 -0.12768316 -0.03866422 -0.15341209
000190 be c6 11 be 20 25 0e bd ce 9f 00 3e c3 14 ea bd
       -0.1423597 -0.034703374 0.1256096 -0.11429741
0001a0 08 ab 47 3e 4e 53 1c 3e f3 31 31 be 00 7f f0 3b
       0.19498837 0.15266153 -0.1730421 0.0073393583
0001b0 04 2a ad bd 6c 24 3b 3e 30 96 12 3e 74 c0 51 be
       -0.084552795 0.18275613 0.14315104 -0.20483571
0001c0 f2 77 24 be ac 10 6e bd 13 26 61 be e8 c0 20 be
       -0.1606138 -0.05812137 -0.2198718 -0.15698588
0001d0 70 66 aa 3d 62 a3 29 3e 26 0b 08 be 90 91 33 bd
       0.0832032 0.16566232 -0.13285503 -0.04383999
0001e0 74 fa b3 3d fe 6b 9a bd c2 1d 3b 3e ba 3d 4c be
       0.087880045 -0.07540129 0.1827307 -0.19945422
0001f0 be 80 29 be 41 6e fe bd e8 5c 32 3d e0 a7 4c 3c
       -0.16553017 -0.12423373 0.043545634 0.012491196
000200 26 b2 0c 3e f8 6d d4 bd 78 50 99 bd 48 bf ea 3d
       0.13739833 -0.103725374 -0.07486051 0.11462265
000210 c8 69 37 3d 60 bf f9 bc 68 7a cd 3d d0 7a 0b be
       0.044778615 -0.030486763 0.10033113 -0.13621068
000220 08 b7 13 3d 6e 57 14 3e 0e c2 40 3e 5e a2 44 3e
       0.036063224 0.14486477 0.18824026 0.19202563
000230 b0 ed bd bc b0 3c 85 bc 58 dd 20 3e 88 78 57 3e
       -0.023184627 -0.01626429 0.15709436 0.21042073
000240 28 a0 1d be 45 c0 d3 bd 30 eb 4f 3e ee 8f 32 be
       -0.15393126 -0.10339407 0.2030456 -0.17437717
000250 9c 0a 90 3d a2 5b 4d 3e ae 8f 05 3e 08 15 dd bd
       0.070332736 0.20054486 0.1304309 -0.10795027
000260 e4 27 cd 3d c0 86 2a 3b 58 79 5c bd e8 b4 95 3c
       0.10017374 0.0026020259 -0.05382666 0.01827474
000270 68 8d 17 3d 46 0a 1d 3e 35 00 dc bd fb 0a 31 be
       0.03700009 0.1533595 -0.10742227 -0.17289345
000280 6d 46 13 be 8d 80 18 be 10 f7 9b bd 24 76 d3 3d
       -0.14382334 -0.14892788 -0.07615483 0.10325268
000290 f8 28 db bc d8 f2 3b 3e 88 66 01 be bc 12 c4 3d
       -0.026752934 0.18354356 -0.12636769 0.09573886
0002a0 4c 5d 1e be 90 21 4c 3d 9f d5 28 be 4e 66 b9 bd
       -0.15465277 0.049836695 -0.1648774 -0.09052716
0002b0 78 a6 29 3d a0 90 05 be de 01 5f be 20 63 ed 3c
       0.041418523 -0.13043451 -0.21778056 0.02897793
0002c0 f0 cc f5 3c 76 82 52 3e 30 7e 1d bc 90 2e 1e 3d
       0.030004948 0.2055758 -0.009612605 0.038618624
0002d0 a0 8a 64 3c d5 07 d9 bd d0 fd de 3d b6 72 ee bd
       0.013949066 -0.10597197 0.10888255 -0.11642973
0002e0 08 00 60 3d d4 33 b0 3d 28 8e 5c be c3 38 ca bd
       0.05468753 0.086036354 -0.21538603 -0.09874108
0002f0 50 5a a3 3d d0 8a fa 3c 50 ab db 3c 30 f9 5c be
       0.0797621 0.03058377 0.026815087 -0.21579432
000300 54 d1 3a 3e 24 c0 00 be 00 71 10 3e f8 81 63 3d
       0.18243915 -0.12573296 0.14105606 0.05554387
000310 96 a4 07 be 1e 83 92 bd ea 84 2a 3e 6e 3d 3c be
       -0.13246378 -0.07153915 0.16652265 -0.18382809
000320 3a 24 03 be e8 06 20 3d 64 c2 32 be 80 77 b8 3d
       -0.12806788 0.039069086 -0.17456967 0.09007168
000330 ec 27 3c be 84 c6 36 3e d0 3f 60 3e 5e 24 44 3e
       -0.18374604 0.17849165 0.21899343 0.19154498
000340 dc ca da 3d f6 95 3b be a0 68 aa bd 72 48 1e be
       0.106832236 -0.18318924 -0.08320737 -0.15457323
000350 cd b3 24 be 12 20 2a 3e a8 23 1a 3e 98 8e c7 3d
       -0.16084214 0.16613796 0.15052664 0.097439945
000360 44 c5 5c 3e 3a 1e 08 be 9c 9d 02 be 0e 78 d9 bd
       0.21559626 -0.1329278 -0.12755436 -0.10618602
000370 a6 c4 22 be e4 33 63 3e f9 7b 36 be 88 60 d9 bc
       -0.15895328 0.22187763 -0.1782073 -0.026535287
000380 8c 77 97 3d 58 bb 04 3e 2e 13 40 3e 98 9a 15 3d
       0.07395849 0.12962091 0.18757316 0.036524385
000390 b1 88 5d be e4 c2 98 3d c8 7f 17 be fc 0f 39 3e
       -0.21634175 0.074590474 -0.14794838 0.18072504
0003a0 08 67 0c 3e 98 6c 36 be 30 0e a3 bd 18 47 db 3d
       0.13711178 -0.17814863 -0.079616904 0.107069194
0003b0 96 0f b0 bd 4c db 02 3e b8 33 3a bd 4c 70 b5 3d
       -0.08596723 0.12778968 -0.04545948 0.088593096
0003c0 68 23 33 bd 5c db 4e 3e a0 a3 3e 3c 56 d7 c7 bd
       -0.043734938 0.20200866 0.011635691 -0.09757869
0003d0 c8 55 f6 3d da 24 1b 3e 60 ca 36 3d fc 31 38 bd
       0.1202808 0.15150777 0.044626594 -0.044969544
0003e0 0e 8e 05 be 38 bb c0 3d d8 66 3d 3e 73 6e 56 be
       -0.13042471 0.09410709 0.18496263 -0.2094057
0003f0 04 0b 91 bd 20 e7 a7 bd 28 1d 09 bd 54 60 6b bd
       -0.07082179 -0.081983805 -0.03347507 -0.057464913

lstm.bias_ih_l0_reverse f4 [80]
000000 b8 3f fb 3d a4 22 77 3d 5c ea 8c 3c ce 01 f9 bd
       0.12268013 0.06033577 0.017201595 -0.12158547
000010 09 80 a6 bc 7d 26 68 be bb c8 6f 3e 4b cf 30 bc
       -0.020324724 -0.22670932 0.23416416 -0.01079161
000020 24 04 27 3e 1c 9e 03 3e 4a 97 17 be 17 55 64 bd
       0.16310173 0.12853283 -0.14803806 -0.05574521
000030 13 a6 41 3e b5 38 19 bd 18 1a 2d bc a2 c2 eb 3d
       0.18911009 -0.037407596 -0.010565303 0.11511733
000040 6d c2 0e be 02 25 00 3e 44 54 f9 3d 90 72 15 bd
       -0.13941355 0.12514117 0.121742755 -0.03648621
000050 a0 24 8f 3d a0 ef 98 3d 00 da 7d 3d 88 78 f0 bd
       0.069894075 0.0746758 0.06197548 -0.117417395
000060 80 59 4d bc ec e2 13 be 68 55 11 bd a4 67 26 bd
       -0.0125335455 -0.14442033 -0.03548184 -0.040626183
000070 22 06 17 3e 08 27 68 bd 80 ee 95 ba ba 77 bd bd
       0.14748433 -0.056677848 -0.0011438876 -0.09251352
000080 60 c7 c4 3d 14 9d be bd 72 3b 62 be 50 b3 29 3c
       0.0960834 -0.09307304 -0.22092989 0.010357693
000090 6a 6b b0 bd e7 df fd bd 3a a1 59 be 78 08 34 3e
       -0.086142376 -0.123962216 -0.2125291 0.17581356
0000a0 f2 4d 69 3e 1a 92 9f bd 97 8d f1 3d ae 3f 4a 3e
       0.2278364 -0.077915385 0.11794584 0.19750854
0000b0 fd 74 69 be 6c dc c7 3d 3a 40 2c 3c ea bf da bd
       -0.22798534 0.09758839 0.01051336 -0.10681136
0000c0 20 e8 ea bd 98 10 18 be 6f ac ac 3d 7c e5 4b 3e
       -0.114700556 -0.1485008 0.084313266 0.1991176
0000d0 07 9e cd 3d 9a 4f 57 be a8 af ff 3c 5b c9 d6 bd
       0.10039907 -0.2102646 0.03121169 -0.10487624
0000e0 97 f2 3a be c7 6d 1d be 58 84 56 3e 59 c3 2d bd
       -0.18256603 -0.15373908 0.20948923 -0.042422626
0000f0 c7 b4 ca 3c fa 99 42 be f9 93 7c 3e 62 19 23 3e
       0.024744404 -0.1900405 0.24665822 0.15927652
000100 29 18 7e bd 0d d4 32 3e a9 90 c8 3d 6c f9 0b be
       -0.06203476 0.17463703 0.09793217 -0.13669366
000110 8c 5c e3 3d ea 0f 7b bd 43 b6 2d be 55 53 b4 3d
       0.11101636 -0.061294474 -0.16964059 0.08804957
000120 1f d8 69 3d aa ee 14 be 85 cb 50 be 76 01 0a be
       0.057090875 -0.14544168 -0.20390137 -0.1347712
000130 8d b5 4e 3e 3a c2 9b bd 44 01 49 bd bb 12 74 3c
       0.20186444 -0.07605405 -0.049073473 0.014897044

lstm.bias_hh_l0_reverse f4 [80]
000000 56 d7 5c bc ac bb 1c 3e 84 38 fd 3d 66 57 12 be
       -0.013479074 0.15305966 0.12364295 -0.14291152
000010 b3 f4 5b 3b 50 67 9f 3c 48 90 06 3e 85 51 73 3d
       0.00335626 0.019458443 0.13140976 0.059403915
000020 fa 98 71 3e 05 b2 2f be dd 8c ff 3d d8 12 36 be
       0.23593512 -0.17157753 0.124780394 -0.17780626
000030 49 7c 3e be b9 4e e7 3b e4 65 c9 3d 4a 13 b4 3d
       -0.18602099 0.007058945 0.09833887 0.087927416
000040 8a 77 79 bd 41 73 78 3e d8 d9 e6 3d a6 7a 7a 3e
       -0.060905017 0.24262716 0.11272019 0.24460849
000050 bf b9 45 be 39 9f d7 bd 5c e4 55 3e 38 b9 6a bd
       -0.19309138 -0.10528416 0.20887893 -0.057305545
000060 8c af ad 3d 1c 5b 1a be 2a 7d 4e 3e 2a b4 09 be
       0.084807485 -0.15073818 0.20164934 -0.13447633
000070 5a e2 64 be 48 c4 4c 3e 09 f7 58 be 8a 27 93 bd
       -0.22351971 0.1999675 -0.21187986 -0.07185276
000080 3c 68 3f 3e f0 f1 60 bd d5 03 63 be d4 5d e7 3d
       0.18692106 -0.05491823 -0.2216943 0.11297193
000090 60 d1 04 be 0d 75 4e be 9e 87 55 3e c8 ca d3 3c
       -0.12970495 -0.20161839 0.20852515 0.02585353
0000a0 ed 84 ee 3d 43 8d 68 be 46 1b 45 be 98 9c a7 bb
       0.11646447 -0.22710137 -0.19248685 -0.005115103
0000b0 96 48 b0 bd 61 c4 3a 3e 52 a6 83 bd 9d 50 8e ba
       -0.08607595 0.18238975 -0.064282075 -0.0010857765
0000c0 df 30 75 3e 26 40 d1 bb 9a bd 02 be e6 74 25 be
       0.23944424 -0.006385821 -0.1276764 -0.16157874
0000d0 d1 6c 04 3d a2 79 35 be b5 3b 4c 3e 5a 59 6c bd
       0.032330338 -0.1772218 0.19944651 -0.0577024
0000e0 7e c4 20 3e b4 33 0b 3d 2c 09 3e 3e 28 9f 3d be
       0.15699956 0.033984855 0.18558186 -0.18517745
0000f0 e4 9e 1e be dd 06 20 bc e2 21 17 3e 8c 2f 3f 3e
       -0.154903 -0.009767261 0.14759019 0.18670481
000100 3f 1c 69 3e 8b 82 80 bb 85 1f 27 bd 56 e1 61 3e
       0.22764681 -0.003921812 -0.040801544 0.22058615
000110 6a 29 4d 3e 7b bc d4 3d 2b 58 cd bd 38 b5 37 bd
       0.2003533 0.10387512 -0.10026582 -0.044850558
000120 55 79 a6 bd 9a cb e2 bd 8a db 56 be 3b 13 3a 3d
       -0.08128611 -0.1107399 -0.20982185 0.045428496
000130 5f c9 d9 bc 1b d9 0e be 50 88 6b 3e 33 0e 2d 3e
       -0.026585279 -0.13950007 0.23001218 0.16899948

dense.weight f4 [20, 40]
000000 e4 28 f6 3d 26 f1 c0 bd 5f a8 91 3c dc 10 84 bd
       0.12019518 -0.094209954 0.01778048 -0.06448528
000010 67 73 25 bd b2 58 ea bd 23 e3 b8 bd 8a 2b 18 3c
       -0.04039326 -0.114426985 -0.09027698 0.009287724
000020 07 df 2b be 3f 45 eb 3d 95 68 67 bd 86 49 10 be
       -0.16784297 0.11487817 -0.05649622 -0.14090547
000030 07 d3 cd 3a 4b fd d1 bd 4a 2a 0a be 97 fc 8c 3d
       0.001570315 -0.1025339 -0.13492694 0.06884115
000040 c5 81 34 3d 0b dc c9 3d 33 6c 96 3d 07 61 1b be
       0.04406907 0.09856423 0.07344856 -0.15173732
000050 53 68 c0 3c 3b 8c 25 be 54 52 84 bd f6 30 e0 bd
       0.023487246 -0.16166775 -0.06461015 -0.109468386
000060 c1 e1 e0 bd e5 10 c4 bd 67 82 f3 3d 52 05 61 3d
       -0.10980559 -0.09573535 0.11890107 0.054936714
000070 41 44 00 3e c1 7e bf 3d cf d0 b4 bd f2 8a 82 bd
       0.12526037 0.09350348 -0.088288896 -0.06374158
000080 af f8 c6 3d ef aa ef 3d 65 34 12 be 09 98 a3 bd
       0.097154014 0.11702525 -0.142778 -0.07987983
000090 b5 47 9c bd eb b1 38 bd ca 8f e6 3c 8e 08 3c be
       -0.076308645 -0.04509155 0.028144736 -0.18362638
0000a0 a2 6c c2 3d b5 ea b1 bd 3e 3a cf ba 7d ea ca ba
       0.09493376 -0.08687345 -0.0015810204 -0.001548126
0000b0 16 76 b1 bc 77 42 b8 3a 02 ca 0c be 62 56 13 3e
       -0.021662753 0.0014057894 -0.13748935 0.14388421
0000c0 a1 b3 83 3d 2b 5e 6a 3d ab 24 26 bd fc a9 8f bd
       0.06430746 0.05721871 -0.040562313 -0.07014844
0000d0 b3 39 d8 3d bf 59 98 3d be c2 7e bd c3 d4 23 3d
       0.1055788 0.07438993 -0.06219744 0.039997827
0000e0 21 fd cb bb 6a e2 f4 bd e2 3f a9 3c 10 b5 07 be
       -0.0062252437 -0.119572476 0.020660345 -0.13252664
0000f0 96 a4 af 3c 60 ff 3b bc d1 ee 26 bd a5 00 24 3e
       0.021440785 -0.01147446 -0.040755097 0.16015871
000100 ae 1a 72 bd 60 48 f1 3c b8 df dd 3d f4 cd 0b 3e
       -0.059107475 0.029453456 0.108336866 0.13652784
000110 0a 41 31 3d 60 5c f7 3c 98 b6 53 bc 1d 22 bd 3d
       0.043274917 0.030195415 -0.012921952 0.09235022
000120 41 ce 9d 3b 65 52 8a bd 99 29 17 be 3e 16 9e 3d
       0.004815847 -0.06753997 -0.14761962 0.07719086
000130 12 70 35 be c7 e8 53 3c d3 1e bc 3a d5 f5 7f bd
       -0.17718533 0.012933916 0.0014352448 -0.062490303
000140 78 c5 46 bd bb dd 7f 3c 95 34 fb ba 10 76 38 be
       -0.048528165 0.0156168295 -0.0019165451 -0.18013787
000150 5a ca 34 be c3 1a 55 3c d4 d4 02 3c f1 b3 c7 bd
       -0.17655316 0.013006869 0.0079853125 -0.09751118
000160 81 d5 07 3e 5b 67 b9 3d 50 17 7b bc 27 5e c8 3d
       0.13265039 0.090529166 -0.015325382 0.09783583
000170 c5 c3 15 3e 5f a3 44 3b cc cb 18 3e a3 e2 0d be
       0.14625461 0.0030004603 0.14921492 -0.13855986
000180 a8 81 8c 3d 1d f9 5f 3c 9a 07 8c 3c f3 e8 02 bd
       0.068606675 0.013670233 0.017093468 -0.03196044
000190 ae ae f1 bc 54 43 cd bd f5 02 1e 3e f5 44 1b 3e
       -0.02950224 -0.100226074 0.15430816 0.15163024
0001a0 50 39 09 be 66 54 26 3d fb 19 db bd 80 6b e1 bd
       -0.13400769 0.040607832 -0.10698315 -0.11006832
0001b0 fe 6c bc bd b8 c4 00 be ea e5 40 3c 91 6e 3c 3e
       -0.09200476 -0.12575042 0.011773566 0.18401553
0001c0 19 1c 17 be 4c 50 05 3e 19 10 e1 3c 60 c9 ef bc
       -0.14756812 0.13018912 0.027473496 -0.029270828
0001d0 de 08 04 3e b2 37 de 3d 9b 52 e8 bd 3d 92 8f 3c
       0.12894008 0.10850467 -0.11343881 0.017525787
0001e0 ec 05 47 3d f8 c4 5c 3d de 6d 1d 3e f1 6b d2 bd
       0.048589632 0.05389878 0.15373942 -0.102744944
0001f0 b4 df c4 3c 1f 79 a4 3d 1d be c0 bb 10 ed 12 3e
       0.024032451 0.080309145 -0.0058820383 0.14348245
000200 75 95 51 3d 1b 76 36 be c4 b6 d2 3d 34 92 fa 3d
       0.051167924 -0.17818491 0.10288766 0.12234917
000210 16 13 f4 3d ca 3f ef 3c aa aa f3 3d a8 e2 b9 3d
       0.11917703 0.029205222 0.11897786 0.090764344
000220 17 8b c0 bd 58 98 2d 3e bd 76 f7 bc 73 6e 1c bd
       -0.09401529 0.16952646 -0.030207986 -0.03819127
000230 3b 10 25 be 8d 22 b1 3d 73 66 2c bd 72 a5 ea 3c
       -0.16119473 0.08649168 -0.04208989 0.028643344
000240 fd f3 cb bd 22 87 5e bd 90 d1 ee 3d d8 90 29 3e
       -0.099586464 -0.05432809 0.116610646 0.1655916
000250 ff 75 2a bc 5e b7 04 3d 75 04 10 3e 26 c6 54 bd
       -0.010404109 0.032401435 0.140642 -0.05194678
000260 32 45 41 bd 51 47 9b bd e0 6a b9 3b 18 f2 06 3e
       -0.04718513 -0.07581962 0.0056584924 0.13178289
000270 ca 10 c7 3d 66 9c 03 3e 45 23 31 bd f7 b6 c5 3d
       0.09719999 0.1285263 -0.043246526 0.096540384
000280 0e ef 98 3d e8 88 f1 3d cc 70 06 3e 32 90 c2 3d
       0.07467471 0.11793691 0.13128966 0.09500159
000290 69 ee 9c 3d 59 a8 e0 3c de 95 f6 bd de 69 cb bd
       0.07662661 0.027424024 -0.12040304 -0.09932302
0002a0 43 79 92 bc f1 ba da bd c5 3a d3 bd 67 09 c6 3d
       -0.017880088 -0.106801875 -0.10313944 0.09669762
0002b0 fe ae f6 3d 70 59 aa bc 30 14 11 3e 1c 62 09 3e
       0.12045096 -0.0207946 0.14167857 0.13416332
0002c0 0c 81 19 be e6 53 60 3d 4a 20 31 bd 6c 63 8d 3d
       -0.14990634 0.05476751 -0.043243684 0.06903729
0002d0 79 6a 8d 3d 12 02 c0 3d d3 69 b1 bd 6d 31 39 3e
       0.06905074 0.09375395 -0.086627625 0.1808526
0002e0 92 b2 0d 3e 92 63 38 bd e6 d7 36 3e 71 49 1f 3e
       0.1383765 -0.045016833 0.17855796 0.1555536
0002f0 23 99 e1 bd 93 ae 1e be 98 dd d5 3d ab 99 9b 3d
       -0.11015537 -0.15496282 0.10442656 0.07597669
000300 dd c7 fc bd 9a 3b 3a 3c 52 d0 07 be 65 96 bd 3d
       -0.123428084 0.011366749 -0.13263062 0.09257201
000310 03 2d 19 be 70 32 d5 bd 3a 33 01 be a3 19 1b 3e
       -0.14958577 -0.10410011 -0.12617198 0.15146498
000320 08 55 9a bb 94 f8 72 bb af 93 3a bd 08 3b 36 3e
       -0.0047098435 -0.0037074434 -0.045551 0.17795956
000330 78 b7 de bd 49 af 7f bd 3e f3 70 3d ce 2c 79 bd
       -0.10874838 -0.062423024 0.058825724 -0.060833745
000340 a1 66 0e be 51 0d 0d 3e 8f 67 d1 bd 94 a1 96 bd
       -0.13906337 0.13774611 -0.1022483 -0.07355037
000350 ef 3a f8 bd 29 dc c7 bd 5d 37 20 be a0 87 af 3d
       -0.12120616 -0.09758789 -0.1564612 0.0857079
000360 db c4 f5 3d 38 e5 43 3c 98 b6 e1 bd 69 5b d7 3d
       0.12000438 0.0119565055 -0.11021155 0.10515482
000370 49 60 01 3e 3a 5f 8b 3c 85 fb 79 bd c6 6b fa bd
       0.12634386 0.017013181 -0.061030883 -0.122275874
000380 7d 85 fc 3d 1d 14 d0 3d f6 44 cd bd 31 a9 20 be
       0.12330148 0.10160086 -0.10022919 -0.15689541
000390 89 6b cc bd 1a 42 07 3e e4 88 ac bc 7f 0e ab 3c
       -0.09981448 0.1320881 -0.021061368 0.020880936
0003a0 76 1a 97 bd 4f f2 29 be 35 da 91 3c b4 5e d9 bc
       -0.07378094 -0.1659634 0.017804245 -0.026534416
0003b0 7e 3b ec 3c 18 66 a3 bc c4 19 be bd dc 28 0b be
       0.028836962 -0.019946143 -0.09282258 -0.13589805
0003c0 b2 ba 89 bd 42 41 8b bd 37 38 05 be 46 4f fc 3d
       -0.067250624 -0.06799556 -0.13009726 0.12319808
0003d0 ab 69 e9 3b 2e 88 3b 3d 79 a6 1e 3e 8f 35 11 3d
       0.0071231923 0.045784168 0.15493192 0.035451468
0003e0 18 df 69 bd 2e 83 2d 3e 88 87 bc bd 48 91 bf 3d
       -0.057097524 0.16944572 -0.09205538 0.09353882
0003f0 ed 94 07 be 16 6b 06 3d c2 47 fa 3c f3 ea 81 3d
       -0.13240404 0.03281697 0.030551795 0.06343641

dense.bias f4 [20]
000000 70 c0 21 3e 39 08 0c be 87 f4 11 be e3 b5 b6 bd
       0.15796065 -0.13675012 -0.14253436 -0.08921411
000010 b3 4e 2b be 82 e5 83 3d f4 9e fe 3d 9f 02 92 3d
       -0.1672924 0.064402595 0.12432662 0.07129406
000020 cd cc 26 3e 9c 3e df 3c c3 16 0f 3e 9a f9 c3 3d
       0.16289063 0.027251534 0.13973527 0.09569092
000030 4a b3 ed 3d 5a 54 ec 3d 2d e3 ff 3d 69 67 29 3e
       0.11606462 0.11539526 0.12494502 0.16543354
000040 0e 81 19 bd 85 b5 89 3d 29 67 c8 3d dc c1 a5 bc
       -0.03747659 0.06724075 0.09785301 -0.02023404
