TadGAN/models/critic_x.pt (torch, 9829 bytes, 3 tensors)

dense1.weight f4 [20, 100]
0	0xbff0acb4	-1.8802705
1	0x3ff96be1	1.9486047
2	0x3ff1afdb	1.8881792
3	0xbffb674d	-1.96409
4	0x3ffb0e3f	1.9613723
5	0x3ff0a677	1.8800801
6	0x3ff74560	1.9318047
7	0xbfe75059	-1.8071395
8	0x3feaa990	1.8332996
9	0xbff76a05	-1.932923
10	0x3ffa6dae	1.9564722
11	0x3fef010a	1.8672192
12	0xbff0ebe0	-1.8821983
13	0xbff10a7c	-1.8831325
14	0x3ff64a66	1.9241455
15	0x3ff37881	1.902115
16	0x3ff736f8	1.931365
17	0x3ff449d0	1.9085026
18	0x3ff25611	1.8932515
19	0x3fceafb8	1.6147375
20	0xbff2189a	-1.8913758
21	0xbff64b7f	-1.924179
22	0x3fea72b3	1.8316253
23	0x3feca3d1	1.8487493
24	0xbfe39069	-1.7778445
25	0xbfe4655e	-1.7843435
26	0xbfec04aa	-1.8438923
27	0x3fe8d4cb	1.8189939
28	0xbffdfe86	-1.9843299
29	0x3fe681fd	1.8008419
30	0x3fe87a52	1.8162329
31	0x3ffc7c39	1.972541
32	0x3ff25b2c	1.8934073
33	0x3ff5e599	1.9210693
34	0x3ff93f4e	1.9472444
35	0x3ff78b4a	1.9339383
36	0x3fe65b3a	1.799659
37	0x3ff7f7d9	1.9372512
38	0x3fe6378a	1.7985699
39	0x3ff9045c	1.9454455
40	0x3ff2b3cf	1.8961123
41	0x3ffbb6a9	1.9665118
42	0x3ff64325	1.9239241
43	0x3fe914ab	1.8209432
44	0x3ff3b532	1.9039671
45	0xbfe5fe34	-1.7968202
46	0xbfe568a7	-1.7922562
47	0x3ff12665	1.8839842
48	0x3fe6c950	1.8030186
49	0xbfe317ea	-1.7741673
50	0xbfd1549a	-1.6353943
51	0x3fe6ebf0	1.8040752
52	0x3f197e06	0.5995792
53	0xbfee622c	-1.862371
54	0xbffc2311	-1.9698201
55	0x3fed5e4d	1.8544403
56	0xbfee556c	-1.8619819
57	0x3ff2763a	1.894233
58	0xbfea2730	-1.8293209
59	0x3ffa391e	1.9548681
60	0x3fe8bac5	1.8181998
61	0xbfe9c954	-1.8264565
62	0xbff80409	-1.9376231
63	0x3fe8cea9	1.8188068
64	0x3fe5dade	1.7957418
65	0xbff0cb39	-1.8812019
66	0x3ff2ec6e	1.8978403
67	0xbfebd0a3	-1.8423046
68	0x3fee9843	1.8640217
69	0xbfe00b29	-1.7503406
70	0x3fecadee	1.8490579
71	0x3fe58d05	1.7933661
72	0x3fe73b33	1.8064941
73	0x3fe6f880	1.8044586
74	0x3fe65b3f	1.7996596
75	0xbfe1dc74	-1.7645402
76	0x3ff0a4bd	1.8800274
77	0xbfeeba37	-1.8650578
78	0x3ff4a580	1.9113007
79	0x3ffc2f08	1.9701853
80	0x3fe40a8e	1.7815721
81	0xbff3b166	-1.9038513
82	0x3ff919f6	1.9461048
83	0x3ff2b920	1.8962746
84	0xbffa510a	-1.9555981
85	0x3fedaec2	1.8568957
86	0x3ff7fe26	1.9374435
87	0x3fe41268	1.7818117
88	0xbff13b58	-1.8846235
89	0x3fe841c3	1.8145069
90	0x3fee9993	1.8640617
91	0x3ffc4901	1.9709779
92	0x3ff9a237	1.9502629
93	0x3fed05e0	1.8517418
94	0xbfdc151c	-1.7193942
95	0xbfee53fd	-1.8619381
96	0x3fefbbbf	1.872917
97	0xbfe7213b	-1.8057016
98	0xbff0780d	-1.8786637
99	0x3fe81c5b	1.8133653
100	0xbfe4b29a	-1.7867005
101	0x3fecfa29	1.8513843
102	0x3ff2cfcc	1.8969665
103	0xbfed6cd3	-1.8548836
104	0x3fdd6f9d	1.7299687
105	0x3fe10429	1.7579395
106	0x3fe1c856	1.7639263
107	0xbfcdbed5	-1.6073862
108	0x3fefd3e4	1.8736539
109	0xbff11756	-1.8835247
110	0x3fe1ce40	1.7641068
111	0x3fea9165	1.8325621
112	0xbfd54569	-1.6661807
113	0xbfe35a4c	-1.7761931
114	0x3fed54f6	1.8541553
115	0x3feb5cdd	1.8387715
116	0x3fe79171	1.809126
117	0x3fe41297	1.7818173
118	0x3fe48a9a	1.7854798
119	0x3fb9ee5b	1.4525865
120	0xbff56379	-1.9170982
121	0xbfef27b3	-1.868399
122	0x3fe46ca2	1.7845652
123	0x3fe16b7e	1.7610929
124	0xbfe65c07	-1.7996835
125	0xbfeef2ab	-1.8667806
126	0xbfe9ddb6	-1.8270786
127	0x3ff065b0	1.8781033
128	0xbfe51be9	-1.7899143
129	0x3fe00f29	1.7504627
130	0x3fecdcc6	1.8504875
131	0x3fe057c2	1.7526782
132	0x3fdedd9d	1.7411381
133	0x3fdbcb21	1.7171365
134	0x3fdfc8fb	1.7483209
135	0x3fe1ac68	1.7630739
136	0x3feac83e	1.8342359
137	0x3fe4a5b7	1.7863072
138	0x3fea4a3c	1.8303905
139	0x3fdf3b07	1.7439889
140	0x3fe8b125	1.817906
141	0x3fe05fc4	1.7529225
142	0x3fe8e8d2	1.8196051
143	0x3ff4d5ae	1.912771
144	0x3fe7166f	1.8053721
145	0xbfed1ff6	-1.8525379
146	0xbfdf3c51	-1.7440282
147	0x3fe7cdb0	1.8109646
148	0x3fe30ce5	1.773831
149	0xbfde43b9	-1.7364417
150	0xbfe17081	-1.7612458
151	0x3fed6ce7	1.8548859
152	0x3f1a3fff	0.602539
153	0xbfe7cae2	-1.810879
154	0xbff133b4	-1.8843904
155	0x3fe6e68d	1.8039109
156	0xbfdac290	-1.7090626
157	0x3fe887b0	1.8166409
158	0xbff43f4c	-1.9081817
159	0x3fe71653	1.8053688
160	0x3fefb0a6	1.8725784
161	0xbfee5105	-1.8618475
162	0xbfe24541	-1.7677385
163	0x3fe75415	1.8072535
164	0x3fe1c105	1.763703
165	0xbfe9072f	-1.8205317
166	0x3fe58572	1.7931349
167	0xbfdd7cd6	-1.7303722
168	0x3fe49309	1.7857372
169	0xbfdafbba	-1.7108071
170	0x3feb4f11	1.8383504
171	0x3fe1df0a	1.7646191
172	0x3feaa525	1.8331648
173	0x3ff4b1aa	1.9116719
174	0x3fdea3ae	1.7393701
175	0xbfc74a59	-1.5569564
176	0x3fe020f7	1.751006
177	0xbfea66d9	-1.8312637
178	0x3ff37230	1.9019222
179	0x3fdf2ee9	1.7436191
180	0x3fd9b283	1.7007602
181	0xbff17d3f	-1.8866347
182	0x3feefb6e	1.867048
183	0x3ff145a3	1.8849376
184	0xbfe0d3de	-1.7564657
185	0x3ff58983	1.918259
186	0x3ff6456e	1.9239938
187	0x3fedd127	1.8579453
188	0xbfe47583	-1.7848362
189	0x3fdb4f11	1.7133504
190	0x3fe20579	1.765792
191	0x3ff521e4	1.9150968
192	0x3fe6fa42	1.8045123
193	0x3fe01209	1.7505504
194	0xbfbd80e0	-1.4804955
195	0xbff05525	-1.8775984
196	0x3fedf6e1	1.8590966
197	0xbfe897a3	-1.8171276
198	0xbfef6abe	-1.870445
199	0x3fef5e08	1.8700571
200	0x3fe715fc	1.8053584
201	0xbfdcea30	-1.7258968
202	0xbfd1ca78	-1.6389914
203	0x3fd0e005	1.6318365
204	0xbfd96571	-1.6984082
205	0xbfdcf1d2	-1.7261298
206	0xbfd8beba	-1.6933205
207	0x3fceddf4	1.6161485
208	0xbfde349e	-1.7359807
209	0x3fe3c947	1.77958
210	0xbfdea93f	-1.73954
211	0xbfe162e7	-1.7608308
212	0x3fde6193	1.7373527
213	0x3fcfbff5	1.6230456
214	0xbfe787c3	-1.8088306
215	0xbfe4ec4e	-1.7884614
216	0xbfe04c17	-1.7523221
217	0xbfdbb184	-1.7163548
218	0xbfd58df9	-1.6683952
219	0xbfb75724	-1.4323468
220	0x3fe5ac49	1.7943202
221	0x3fe41eda	1.7821915
222	0xbfdb28b2	-1.7121794
223	0xbfd258e3	-1.6433376
224	0x3fd66e46	1.6752403
225	0x3fdb87f7	1.7150868
226	0x3fdbc456	1.7169292
227	0xbfd6775c	-1.6755176
228	0x3fd90b44	1.6956563
229	0xbfd808a8	-1.6877642
230	0xbfe553ac	-1.791616
231	0xbfdb80cf	-1.7148684
232	0xbfd79c5a	-1.684459
233	0xbfd183f2	-1.6368392
234	0xbfe7982a	-1.8093312
235	0xbfe8a634	-1.8175721
236	0xbfe897d4	-1.8171334
237	0xbfd5db42	-1.6707537
238	0xbfe5baf7	-1.7947682
239	0xbfe08b84	-1.7542577
240	0xbfe5b1b6	-1.7944858
241	0xbfe8a257	-1.8174542
242	0xbfe274cf	-1.7691897
243	0xbfe79687	-1.8092812
244	0xbfdbb864	-1.7165647
245	0x3fe56852	1.7922461
246	0x3fe161f8	1.7608023
247	0xbfd39265	-1.6529051
248	0xbfe6bf3a	-1.8027108
249	0x3fe382c4	1.7774282
250	0x3fc4caeb	1.5374426
251	0xbfe3be42	-1.7792437
252	0xbf196734	-0.599231
253	0x3fd08fa4	1.6293836
254	0x3fe72dd0	1.8060856
255	0xbfdb8701	-1.7150575

dense1.bias f4 [20]
0	0xbffa4008	-1.9550791
1	0xbfe32f38	-1.7748785
2	0x3fde9769	1.7389957
3	0xbfea7557	-1.8317059
4	0x3ff7b4d3	1.9352058
5	0xbfe79b6e	-1.8094308
6	0xbfed6280	-1.8545685
7	0x3fe9ee51	1.8275853
8	0x3fdc0e9f	1.7191962
9	0xbfef733b	-1.870704
10	0x3fdd63c8	1.7296076
11	0xbfef81e7	-1.8711518
12	0x3fec08b5	1.8440157
13	0x3fe834e9	1.8141147
14	0xbfde987e	-1.7390287
15	0xbfe980ec	-1.8242469
16	0xbfee60dc	-1.8623309
17	0xbfe6a852	-1.8020117
18	0xbff1796a	-1.8865178
19	0x3fe6475e	1.799053

dense2.weight f4 [1, 20]
0	0x3ff716a2	1.9303782
1	0x4001689b	2.0220096
2	0xc00985f8	-2.1488018
3	0x400494a9	2.0715735
4	0xbffb3872	-1.9626601
5	0x4000ba0a	2.011355
6	0x3fffa352	1.9971716
7	0xc001dca8	-2.0290928
8	0xc0067ced	-2.1013749
9	0x40003f0d	2.0038483
10	0xc0038c33	-2.055432
11	0x3ffe83bc	1.9883952
12	0xbffe257d	-1.985519
13	0xc00121b8	-2.017683
14	0x400a2d0a	2.158999
15	0x4006915f	2.1026227
16	0x3ff83306	1.9390571
17	0x40093c0f	2.1442907
18	0x40033978	2.0503826
19	0xc0061223	-2.094857
