TadGAN/models/critic_z.pt (torch, 1195 bytes, 1 tensors)

dense1.weight f4 [1, 20]
0	0xbf9f8688	-1.2462931
1	0xbfa4f1a5	-1.2886244
2	0xbfbbd050	-1.4672947
3	0xbf882987	-1.0637673
4	0xbf87a227	-1.059636
5	0xbf9743b3	-1.1817535
6	0xbf8fcabc	-1.1233745
7	0xbf8a71b0	-1.0815945
8	0xbf8a8e01	-1.0824586
9	0xbfbc94c1	-1.4732896
10	0xbf971549	-1.1803371
11	0xbfbec18f	-1.4902819
12	0xbf96ae7f	-1.1772002
13	0xbf91e7cb	-1.1398863
14	0xbf8724b3	-1.0558075
15	0xbfa55e83	-1.2919468
16	0xbfa1077a	-1.2580407
17	0xbf96abbb	-1.1771158
18	0xbfa88356	-1.316508
19	0xbfae2018	-1.3603544
