TadGAN/models/critic_x.pt (torch, 9765 bytes, 3 tensors)

dense1.weight f4 [20, 100]
0	0xbde50ff4	-0.111846834
1	0xbdba2379	-0.09088797
2	0x3d41c167	0.047303583
3	0xbdc1123c	-0.09427306
4	0x3bca46d2	0.006172993
5	0x3de617cf	0.1123501
6	0x3d41ce85	0.047316093
7	0x3be2cfac	0.006921729
8	0x3ca49a17	0.020093007
9	0x3d8a5e08	0.06756216
10	0x3d145658	0.036215156
11	0x3d148771	0.03626198
12	0x3d567156	0.05235418
13	0x3e09dea6	0.1346384
14	0x3dd1e9f0	0.10249698
15	0xbc7ea2ea	-0.015541771
16	0x3c05b83e	0.008161603
17	0xbd270171	-0.04077286
18	0xbdde733a	-0.108618215
19	0xbd6baf38	-0.05754015
20	0xbcb6ac21	-0.022298874
21	0x3d28bcaa	0.04119555
22	0x3e0a90fa	0.13531867
23	0xbdb51646	-0.08842139
24	0xbbcec90d	-0.006310588
25	0x3dc31907	0.09526258
26	0xbca571f8	-0.020195946
27	0xbd8c3441	-0.06845904
28	0xbd3ba558	-0.04581198
29	0xbd1ef0d1	-0.03880388
30	0xbd7b5798	-0.061362833
31	0x3de9852f	0.11402356
32	0x3db83fa6	0.08996515
33	0x3c173bbd	0.009230551
34	0xbe01b632	-0.12667158
35	0xbb1462a2	-0.0022641798
36	0x3d397ec3	0.045286905
37	0x3d50f295	0.051012594
38	0x3d37ed36	0.044903956
39	0x3daa9baa	0.08330472
40	0xbd05b4ff	-0.032643314
41	0xbcf68429	-0.030092316
42	0x3dd9ef87	0.10641389
43	0x3d0d8c42	0.03455759
44	0x3dc4b62d	0.0960506
45	0x3c936c01	0.017995836
46	0xbd5e3eb4	-0.054259017
47	0xbdaab453	-0.08335175
48	0x3d439055	0.047745068
49	0xbd291a47	-0.041284826
50	0xbda69379	-0.08133597
51	0x3e04c882	0.12967113
52	0x3d93d590	0.07218468
53	0xbd85a2c8	-0.06525189
54	0xbd58d789	-0.052939925
55	0xbe0daa2d	-0.13834448
56	0xbc9dc72c	-0.019260012
57	0x3c39978a	0.011327634
58	0xbd58ca98	-0.052927583
59	0x3e018148	0.12646973
60	0x3cba53aa	0.022744972
61	0xbce44ec0	-0.027869582
62	0xbd22a3e1	-0.03970707
63	0x3dc415d6	0.095744774
64	0xbde5f8ae	-0.112290725
65	0x3cd7b9f1	0.026333781
66	0xbc2f32b3	-0.01069324
67	0xbdd44fe8	-0.103668034
68	0x3e00f89f	0.12594841
69	0xbd49b736	-0.04924699
70	0xbc83eca2	-0.016104046
71	0x3d979039	0.07400555
72	0x3dec11ff	0.1152687
73	0x3d00b351	0.03142101
74	0x3cf52a20	0.029927313
75	0xbd8aa421	-0.06769586
76	0x3c6ddeef	0.014518484
77	0x3d929cc0	0.07158804
78	0xbd9ad956	-0.07560985
79	0x3dd35b99	0.10320205
80	0x3dd43a13	0.10362639
81	0xbc86b572	-0.016443942
82	0xbcaea4d4	-0.02131883
83	0xbcab914f	-0.020943312
84	0x3da57d62	0.080805555
85	0xbc378890	-0.011201993
86	0xbc9e593f	-0.019329665
87	0xbdf77c1a	-0.12084217
88	0x3d5055a5	0.050862927
89	0x3dedec0d	0.11617289
90	0xbd775fa6	-0.06039395
91	0xbdad491e	-0.084612116
92	0x3d6932ca	0.0569332
93	0xbc3807e7	-0.011232353
94	0xbd28e88d	-0.041237403
95	0xbd9d2c89	-0.0767451
96	0x3c3b4c52	0.01143177
97	0x3d672fd0	0.056442082
98	0xbe066c94	-0.13127357
99	0xbd67210a	-0.056427993
100	0xbd1c7bc0	-0.038203955
101	0xbdecdc64	-0.11565474
102	0xbd67ff1f	-0.056639787
103	0xbb09b6ed	-0.0021013573
104	0x3c83a702	0.016070846
105	0xbd6c5db7	-0.05770656
106	0x3dfad4f9	0.122476526
107	0x3dd6008a	0.104493216
108	0xbd4c6935	-0.04990502
109	0xbda8d8aa	-0.082444504
110	0xbd646603	-0.05576135
111	0x3dde22c1	0.108464725
112	0x3e0be6ef	0.13662313
113	0xbcefa053	-0.029251253
114	0xbc5b0e89	-0.013370165
115	0xbd48f6b9	-0.049063418
116	0xbce30aa7	-0.02771504
117	0xbe0d9676	-0.13826928
118	0xbdf5a7ea	-0.11994918
119	0x3e0c0c5f	0.13676594
120	0xbcf2916a	-0.029610354
121	0xbd82c5cb	-0.06385382
122	0x3dafad32	0.08577956
123	0xbdba36ae	-0.090924606
124	0x3da86708	0.08222777
125	0x3db064e9	0.08612997
126	0x3e02d48e	0.12776396
127	0x3ca6cd0a	0.020361442
128	0xbd0f497c	-0.03498219
129	0x3c852748	0.016254082
130	0xbc771d3e	-0.0150826555
131	0x3b99f770	0.0046986863
132	0x3dc8c11d	0.098024584
133	0x3d9f14b5	0.077676214
134	0xbd82cd46	-0.06386809
135	0x3e04b39c	0.1295914
136	0x3d4d1798	0.05007133
137	0x3ddbc4fc	0.10730931
138	0xbddfa9df	-0.10921072
139	0xbd312990	-0.043252528
140	0xbc9317e4	-0.017955728
141	0xbd6f20e7	-0.058380987
142	0x3d2622b5	0.040560443
143	0xbd9ea24e	-0.07745801
144	0x3dda628a	0.10663326
145	0x3df9bed3	0.121946
146	0xbd6a8bf6	-0.057262383
147	0xbdf39ee4	-0.1189554
148	0xbd23ccb4	-0.039990142
149	0xbdcb639f	-0.099311106
150	0x3d1c96a7	0.03822961
151	0xbd013fe2	-0.031555064
152	0x3c46f6b5	0.0121437805
153	0xbde75663	-0.11295774
154	0xbced1d2c	-0.028944574
155	0x3d0087a2	0.03137935
156	0x3bad682d	0.0052919597
157	0x3d2fa399	0.04288063
158	0xbd7f0f31	-0.062270347
159	0x3e0c0bf6	0.13676438
160	0xbdba57c7	-0.090987734
161	0x3dbdb90f	0.09263813
162	0x3dd1ae55	0.10238329
163	0xbd10636d	-0.03525107
164	0x3d373fcb	0.044738572
165	0xbd0e3ba5	-0.03472485
166	0xbde39c41	-0.111137874
167	0xbda0bb97	-0.0784828
168	0x3e015a18	0.12632024
169	0x3e0c9d88	0.13731968
170	0xbdd83af6	-0.10558121
171	0xbbfe7af6	-0.007766123
172	0xbd3498fe	-0.044091217
173	0x3d43bb47	0.047786023
174	0x3dab8243	0.08374455
175	0x3c5fee9b	0.013667728
176	0xbd0aa705	-0.03385069
177	0x3c8461cc	0.016159914
178	0xbdb07e83	-0.0861788
179	0x3e0872ec	0.13325089
180	0xbd01a97b	-0.03165577
181	0xbd1af7e1	-0.037834052
182	0xbd0939f5	-0.033502538
183	0x3d18616d	0.037202287
184	0x3dcc49bf	0.099750035
185	0xbe0d7a07	-0.13816081
186	0x3da3ad93	0.07992091
187	0xbcc8f646	-0.024531495
188	0xbbeaa644	-0.0071609337
189	0xba97e371	-0.0011588169
190	0x3e0106e0	0.12600279
191	0x3d680aec	0.05665104
192	0x3d8530f5	0.065034784
193	0x3d208749	0.039191518
194	0xbd83d4cc	-0.06437072
195	0x3d2bee3c	0.041975245
196	0xbd3eec0b	-0.046611827
197	0xbb714c7d	-0.0036819272
198	0x3ca0ba9e	0.019620236
199	0xbd0cc991	-0.034371916
200	0xbd5d7c34	-0.054073527
201	0xbb66094b	-0.0035100754
202	0x3d4c7e0d	0.0499249
203	0xbcaefd0f	-0.021360902
204	0x3b12b7ff	0.0022387502
205	0x3d864629	0.06556351
206	0xbae62a89	-0.0017560284
207	0xbbd8ca65	-0.006615924
208	0xbbed9126	-0.007249969
209	0x3d1863fd	0.03720473
210	0xbd310492	-0.04321725
211	0x3d039875	0.032127816
212	0x3da31ba3	0.07964256
213	0x3d90033f	0.07031869
214	0x3d945aa7	0.07243853
215	0x3ced9e6c	0.029006205
216	0xbe0ab152	-0.13544205
217	0x3d0150d1	0.031571213
218	0xbdf95f76	-0.12176411
219	0x3d1cc6fc	0.038275704
220	0x3d3594b2	0.04433126
221	0xbd51974e	-0.051169686
222	0x3d0dbc2b	0.03460328
223	0x3d1e3dae	0.03863304
224	0x3e04d9e3	0.12973742
225	0x3d865f0a	0.06561096
226	0x3dc01996	0.0937988
227	0xbd4b7d80	-0.049680233
228	0x3dca3c9a	0.0987484
229	0x3b8d57c5	0.0043134415
230	0x3d9807e4	0.0742338
231	0xbca3922b	-0.01996716
232	0x3dade082	0.08490087
233	0x3a41bd3e	0.0007390565
234	0xbe0d49cd	-0.13797684
235	0x3dc13920	0.09434724
236	0xbccf07d8	-0.025272295
237	0x3de6c492	0.112679616
238	0xbdfe8798	-0.12428206
239	0x3d527213	0.05137832
240	0xbcff6da4	-0.03118021
241	0x3e029125	0.1275068
242	0x3dde2e55	0.10848681
243	0xbdfd8cf7	-0.123804025
244	0x3c9a66e8	0.018847898
245	0x3dd82c3b	0.10555311
246	0xbdae8e19	-0.08523197
247	0xbd651e3d	-0.05593704
248	0x3d320437	0.04346105
249	0xbcce225c	-0.025162868
250	0xbde5f55c	-0.11228439
251	0x3e06dd15	0.13170274
252	0x3df59313	0.11990943
253	0x3c8ac829	0.016941147
254	0x3d3676af	0.04454678
255	0xbe0d2124	-0.13782173

dense1.bias f4 [20]
0	0x3d2a79a4	0.04161991
1	0xbd7a697a	-0.061135747
2	0x3d62452e	0.055241756
3	0xbe0d9e25	-0.13829859
4	0xbe0200d9	-0.12695636
5	0xbd4e45c4	-0.050359502
6	0x3b139eff	0.002252519
7	0x3dc0478d	0.09388647
8	0xbdc852cd	-0.09781418
9	0xbb7f5c28	-0.0038964842
10	0x3e0a8563	0.13527445
11	0x3df5326e	0.11972509
12	0xbde93016	-0.11386125
13	0xbc4bf7cb	-0.012449215
14	0xbdd38c2d	-0.10329471
15	0xbba9b8ee	-0.005179516
16	0xbd71b566	-0.059010886
17	0x3d5b82f8	0.0535917
18	0xbb4bce15	-0.0031098176
19	0xbd98bccb	-0.074578844

dense2.weight f4 [1, 20]
0	0x3e65c8dc	0.22439903
1	0x3e2087c2	0.15676787
2	0x3e4fb92a	0.20285478
3	0x3e418fe4	0.18902546
4	0x3e040a98	0.12894666
5	0xbd255111	-0.040360514
6	0x3ddaedac	0.106898636
7	0xbe14b0b5	-0.14520533
8	0x3db0da24	0.08635357
9	0x3deaa628	0.11457473
10	0xbe6a79bf	-0.22898005
11	0xbe4773f2	-0.19477823
12	0x3e529754	0.2056554
13	0x3e7fceed	0.2498128
14	0x3e28fa4a	0.16501728
15	0x3e24432d	0.1604125
16	0x3e05f4c3	0.1308165
17	0x3e38e433	0.18055801
18	0x3e676c78	0.22599971
19	0x3e4063be	0.18788049
