TadGAN/models/critic_z.pt (torch, 1195 bytes, 1 tensors)

dense1.weight f4 [1, 20]
00000000: f65f 1dbe f350 e53c c5a1 4fbe f3f5 06be
00000010: f652 df3d b2c7 263e ab04 0c3e 04df 82be
00000020: af87 76bd 3570 67be f3e3 0cbe f48a 33be
00000030: 0f59 f9bd 9089 d5bc 273a 54be e170 56bd
00000040: ac9f 0a3e c89f 1ebe ad20 5dbd 685a 43be
-0.15368637 0.027992701 -0.20276554 -0.1317976 0.109044954 0.16287115 0.13673656 -0.25560772
-0.06018799 -0.22601397 -0.1375883 -0.17533475 -0.1217519 -0.026066571 -0.20725308 -0.052353743
0.13537472 -0.15490639 -0.05398624 -0.19077456
