TadGAN/models/decoder.pt (torch, 629935 bytes, 18 tensors)

lstm.weight_ih_l0 f4 [256, 20]
0.0933974 0.0803295 0.0068590543 0.068524495 0.0017458317 -0.06914058 0.024327336 -0.108191006
0.047610648 0.0064308 0.08388975 -0.027827963 0.032809634 -0.04371816 -0.10688976 -0.0061692833
0.08043106 0.06250924 0.0068620834 0.0468404 -0.007871816 -0.07417038 0.11067002 0.11055071
0.069542736 0.05973628 -0.03961703 -0.00911625 -0.10787509 0.08792049 -0.09071113 -0.09536568
0.08404034 -0.10956133 0.031615626 0.09328216 0.027383972 0.0057773124 0.10490906 0.082606584
-0.03024709 0.09612383 -0.07836423 -0.05627906 0.11452764 0.0058559566 -0.080568366 -0.03261905
-0.09720498 0.039795525 0.06232666 -0.053202335 0.012870713 -0.032184284 0.12990038 -0.10138532
0.085421026 -0.11235643 -0.0028202266 -0.104965486 -0.059360538 -0.09111961 -0.07242307 -0.085389875
-0.024691993 -0.062472668 -0.010346257 -0.01145251 0.109133765 -0.027210398 -0.022568442 0.009486587
0.08337073 -0.1298574 0.118933834 0.12119836 0.06043464 0.067638904 -0.10471471 -0.024909366
-0.07191078 -0.011683003 -0.010776729 -0.014288717 0.08925304 -0.043700606 -0.04847963 0.02505651
0.021144658 0.0040070927 -0.05079818 0.031026566 0.07310782 -0.10240751 -0.03445527 0.06316206
-0.08275363 0.13222861 -0.12367365 -0.10779167 -0.08534833 0.10398398 0.10134446 0.10289134
0.034033988 0.066052854 -0.08382548 -0.10527781 0.005418467 0.023707332 -0.10671648 -0.043918032
0.07659767 -0.115291305 0.03875018 0.055357434 0.10586039 -0.009376057 -0.020790624 0.100271046
-0.059791196 0.10730362 0.018981094 -0.076620065 -0.038728535 0.09375224 0.07041569 0.023860464
0.05529371 -0.06307261 0.058029417 0.0330455 0.044862337 0.018923948 0.0053127357 0.06667084
-0.0819796 -0.004163165 0.055982158 -0.11610815 0.124949776 0.086704396 -0.010574841 0.03844526
-0.04461416 0.09100465 -0.070066504 0.056216072 -0.11289421 -0.07351599 0.029407633 0.09956442
0.057175472 0.01208732 0.091870286 0.009993233 0.088750154 0.08203079 -0.09355196 -0.018936252
0.13030504 0.08832588 0.0895525 0.0068899193 0.0647499 0.0944827 -0.059867438 -0.016520966
-0.09365332 0.108750954 0.05811186 -0.009935307 0.09756878 0.01389991 0.006269362 0.1262555
-0.012121805 0.062248357 -0.047719117 0.1261392 -0.038222816 0.00012262462 0.11755215 0.07576835
-0.007983885 0.010133324 -0.089121446 -0.025550893 0.07984933 -0.0067105973 0.09748087 0.10144147
-0.01942917 0.090430155 -0.05777239 0.057847608 0.10356239 0.037567202 -0.079678245 0.12476418
-0.090738215 -0.10976306 -0.080616616 0.013260058 -0.12321453 0.100989744 0.124214664 -0.10928388
0.106370024 -0.03701013 0.025768707 -0.030298961 0.019563913 -0.017238557 -0.07350713 -0.122971795
-0.05653271 -0.11313706 -0.121655054 0.08521634 0.0039997837 -0.027480416 -0.054856382 0.081080765
0.13165519 0.08857966 -0.088990256 -0.008753038 -0.065411426 -0.0885771 0.0048633157 0.032708414
0.10575532 -0.082328156 -0.08246971 0.062993884 0.0820696 0.09514956 -0.048487432 -0.0923097
0.08640586 0.039204318 -0.09437918 -0.12587605 0.087779924 -0.068345286 -0.07667223 -0.0139759695
0.014770452 -0.08562275 0.07744903 0.09867811 0.10674907 0.06845652 -0.108310245 0.06237057
00000000: 2347 bf3d cb83 a43d ebc1 e03b 9256 8c3d
00000010: 64d4 e43a 9499 8dbd 1f4a c73c 3f93 ddbd
00000020: 6203 433d 76b9 d23b 64ce ab3d 78f7 e3bc
00000030: 6563 063d d011 33bd 05e9 dabd b327 cabb
00000040: 0ab9 a43d d804 803d 54db e03b b8db 3f3d
00000050: caf8 00bc a4e6 97bd f7a6 e23d 6968 e23d
00000060: 6c6c 8e3d 08ae 743d 7845 22bd 535c 15bc
00000070: 9ded dcbd a80f b43d c2c6 b9bd 154f c3bd
00000080: 571d ac3d b161 e0bd 637f 013d b80a bf3d
00000090: 5a54 e03c 9c4f bd3b 90da d63d a42d a93d
000000a0: bfc8 f7bc 92dc c43d 6d7d a0bd df84 66bd
000000b0: 788d ea3d 53e3 bf3b 0701 a5bd 8e9b 05bd
000000c0: 6813 c7bd a200 233d 3d4a 7f3d b1ea 59bd
000000d0: afdf 523c abd3 03bd 9b04 053e 1ba3 cfbd
000000e0: 38f1 ae3d 211b e6bd 8dd3 38bb 25f8 d6bd
000000f0: 0924 73bd eb9c babd 8c52 94bd e3e0 aebd
00000100: dd46 cabc 57e3 7fbd 5983 29bc 4fa3 3bbc
00000110: 8681 df3d 57e8 debc 74e1 b8bc a16d 1b3c
00000120: 46be aa3d 57f9 04be 9593 f33d d936 f83d
00000130: 508a 773d 4486 8a3d aa74 d6bd ba0e ccbc
00000140: f645 93bd 116a 3fbc e190 30bc 391b 6abc
00000150: 4cca b63d 68ff 32bd 9492 46bd 4f43 cd3c
00000160: 9037 ad3c ee4d 833b c111 50bd 6d2b fe3c
00000170: 8db9 953d 07bb d1bd f820 0dbd 1c5b 813d
00000180: bc7a a9bd f066 073e 9c48 fdbd e1c1 dcbd
00000190: 1bcb aebd 8ef5 d43d af8d cf3d b2b8 d23d
000001a0: 3967 0b3d b846 873d b1ac abbd e49b d7bd
000001b0: 658d b13b e135 c23c 2b8e dabd 65e3 33bd
000001c0: 3ddf 9c3d d91d ecbd 82b8 1e3d 7abe 623d
000001d0: 55cd d83d 099e 19bc 1951 aabc e85a cd3d
000001e0: 9de7 74bd 00c2 db3d 3d7e 9b3c fbea 9cbd
000001f0: d0a1 1ebd 2d01 c03d 1a36 903d 0577 c33c
00000200: a87b 623d 362c 81bd 41b0 6d3d b85a 073d
00000210: 92c1 373d 6506 9b3c 7516 ae3b b98a 883d
00000220: ece4 a7bd 296b 88bb 8c4d 653d 1cca edbd
00000230: abe5 ff3d 1392 b13d 1942 2dbc c778 1d3d
00000240: 56bd 36bd a560 ba3d 077f 8fbd d342 663d
00000250: 1435 e7bd 8d8f 96bd 47e8 f03c 6ee8 cb3d
00000260: d430 6a3d e509 463c 7d26 bc3d a8ba 233c
00000270: a4c2 b53d c2ff a73d 2c98 bfbd 3320 9bbc
00000280: af6e 053e 33e4 b43d 4d67 b73d d5c4 e13b
00000290: 989b 843d 2580 c13d 8f37 75bd fa56 87bc
000002a0: 50cd bfbd d2b8 de3d b406 6e3d b3c7 22bc
000002b0: 24d2 c73d 73bc 633c 386f cd3b 1f49 013e
000002c0: 899a 46bc 22f8 7e3d 1f75 43bd a22a 013e
000002d0: 878f 1cbd cc94 0039 2ebf f03d 702c 9b3d
000002e0: d7ce 02bc 3e06 263c 4e85 b6bd 1b50 d1bc
000002f0: 0c88 a33d 92e4 dbbb 0da4 c73d 8cc0 cf3d
00000300: ec29 9fbc 7233 b93d bea2 6cbd 9df1 6c3d
00000310: 8518 d43d 11e0 193d 592e a3bd 5d84 ff3d
00000320: f5d4 b9bd 75cb e0bd 531a a5bd b740 593c
00000330: e657 fcbd b6d3 ce3d 4264 fe3d 3ad0 dfbd
00000340: 87d8 d93d ef97 17bd e518 d33c 8735 f8bc
00000350: 8044 a03c e037 8dbc e88a 96bd a3d8 fbbd
00000360: d88e 67bd 67b4 e7bd 4926 f9bd e885 ae3d
00000370: 9e10 833b 9c1e e1bc 16b1 60bd ac0d a63d
00000380: 9ed0 063e 4169 b53d 8640 b6bd e768 0fbc
00000390: 6df6 85bd e967 b5bd 735c 9f3b 42f9 053d
000003a0: 3f96 d83d aa9b a8bd e1e5 a8bd f002 813d
000003b0: 1b14 a83d c6dd c23d c29a 46bd de0c bdbd
000003c0: 8ef5 b03d b594 203d df49 c1bd a7e5 00be
000003d0: f6c5 b33d 9df8 8bbd 5506 9dbd 77fb 64bc
000003e0: c4ff 713c fb5a afbd 999d 9e3d c017 ca3d
000003f0: 429f da3d ef32 8c3d c3d1 ddbd 4878 7f3d

lstm.weight_hh_l0 f4 [256, 64]
0.06860252 -0.016970307 0.03139998 -0.11147703 -0.097102 0.027706534 0.12486665 -0.1067667
-0.12234418 0.018428788 0.12443748 0.11805108 -0.10571681 0.12475932 -0.053651467 -0.11404443
-0.010364518 0.04803431 0.01261653 -0.015740395 -0.025238797 -0.055863827 0.089995 0.023050785
-0.053983554 -0.10795547 0.111340076 0.054201365 0.051790252 0.05905412 -0.037433624 0.11131263
0.056141466 -0.12358561 -0.112600595 -0.099252924 -0.099297196 -0.11666924 0.11834043 0.11407639
-0.0048113763 -0.01833734 0.12300621 0.03896062 0.090458766 -0.11363454 0.0024263263 0.005107969
-0.021407261 -0.083189756 -0.100691065 -0.059895113 0.07596038 -0.09896819 -0.021160185 -0.032212168
-0.047501028 -0.095761135 0.124065876 0.023492709 -0.018951133 -0.002765134 -0.03008017 0.016988203
-0.10239644 -0.10888274 -0.11414459 -0.10579397 -0.05106488 0.017183945 0.042070195 0.04388261
0.10364507 0.04283078 0.10888657 0.0690597 0.12354115 0.048763737 0.08653502 0.105129406
0.07551527 0.06721118 -0.11104904 -0.036250353 -0.09851645 0.044265106 -0.07003781 -0.048362434
0.11285296 -0.119453475 -0.03671865 -0.08575401 0.0089888275 0.058480352 -0.057867557 -0.00032502413
0.00991334 -0.026353955 -0.01138401 -0.04403104 -0.09793848 0.015077293 0.10929544 0.08952215
-0.1070489 -0.10234134 0.109917164 0.010573193 0.118876904 -0.047401533 0.022391692 0.018328145
0.11640833 -0.052409872 -0.069215745 -0.00860405 -0.095725924 0.019991964 -0.11070387 -0.122566104
-0.045911193 -0.06509879 0.026246876 -0.12480886 -0.07612336 0.11714263 0.045556724 -0.11468783
-0.05733198 0.049481496 0.03252326 -0.00749366 0.10984892 0.08980557 0.107524455 -0.090984
-0.08273721 0.04147853 -0.02129297 -0.0702371 -0.10415456 -0.06485976 -0.01933372 -0.06521273
0.0054287463 -0.0045219213 -0.08908239 0.07083726 -0.03520198 -0.0694446 0.033460647 -0.08232683
0.07621576 -0.056179777 -0.019422427 0.018943638 0.08468692 0.029872268 0.1049453 0.004188597
-0.0236485 0.015930697 -0.112984195 0.0105127245 -0.056786463 -0.09221737 -0.057346135 -0.0075597167
-0.044883475 0.029868945 0.021666944 -0.09234388 0.112914175 0.105223835 0.11197263 0.11781992
0.06361686 -0.04526612 0.104255006 -0.08991033 -0.057781473 -0.10820639 -0.09781113 -0.05137287
-0.12250388 0.01086469 -0.09859671 0.037320673 0.10126737 -0.038610756 0.0220159 0.033472016
0.10813892 0.028161228 -0.109993756 0.059016585 0.08958547 0.0085969865 -0.12333691 0.09951836
0.013244584 0.042582557 0.06989685 -0.108417064 -0.061949477 -0.039200157 0.021966666 0.013897389
-0.066909984 0.09345776 -0.046096787 0.0962536 -0.12259431 0.033202186 -0.097503185 0.05042261
0.06881809 -0.045174196 -0.049103007 0.0835143 0.122234985 0.09808537 -0.031312093 -0.0950997
0.021984816 0.119895026 0.11204626 -0.094818324 0.055841044 -0.079181224 0.050069407 -0.040251076
0.07587835 -0.015515745 0.117368996 -0.053166002 0.016207531 0.01198937 0.012626573 0.008700237
-0.02306436 -0.019381836 0.11198059 0.09257075 -0.016651109 -0.025053978 -0.0635165 0.06403871
0.019733876 0.028898701 -0.060085297 -0.10018666 0.03334099 0.09410085 0.0838179 0.12067631
00000000: 7a7f 8c3d 5005 8bbc 449d 003d 124e e4bd
00000010: 6add c6bd d0f8 e23c 16ba ff3d 80a8 dabd
00000020: 968f fabd f8f7 963c 14d9 fe3d c4c4 f13d
00000030: 0e82 d8bd d081 ff3d a4c1 5bbd 2090 e9bd
00000040: f0cf 29bc a0bf 443d 90b5 4e3c 00f2 80bc
00000050: 98c1 cebc 78d1 64bd 4c4f b83d 00d5 bc3c
00000060: dc1d 5dbd c217 ddbd 4406 e43d 4002 5e3d
00000070: 0422 543d bce2 713d 0054 19bd e0f7 e33d
00000080: 98f4 653d 741a fdbd 249b e6bd 1e45 cbbd
00000090: 545c cbbd 48f0 eebd 785c f23d e2a0 e93d
000000a0: c0a8 9dbb 3038 96bc aeea fb3d 2c95 1f3d
000000b0: 7242 b93d 3ab9 e8bd 0003 1f3b c060 a73b
000000c0: 485e afbc 645f aabd 1e37 cebd 9454 75bd
000000d0: 1e91 9b3d d6af cabd 2058 adbc e8f0 03bd
000000e0: 7090 42bd 6a1e c4bd 4016 fe3d c873 c03c
000000f0: 683f 9bbc 4037 35bb b06a f6bc d82a 8b3c
00000100: 3ab5 d1bd eafd debd a4c4 e9bd 82aa d8bd
00000110: 6829 51bd 58c5 8c3c cc51 2c3d 40be 333d
00000120: de43 d43d 546f 2f3d ecff de3d 2c6f 8d3d
00000130: 2403 fd3d 7cbc 473d 4639 b13d 164e d73d
00000140: c0a7 9a3d 04a6 893d ae6d e3bd 407b 14bd
00000150: fec2 c9bd 544f 353d fc6f 8fbd b017 46bd
00000160: 741f e73d 06a4 f4bd 4c66 16bd cc9f afbd
00000170: e045 133c 1889 6f3d 8806 6dbd 0068 aab9
00000180: 906b 223c 40e4 d7bc 0084 3abc e459 34bd
00000190: f893 c8bd c006 773c 4ad6 df3d 6457 b73d
000001a0: 743c dbbd 5698 d1bd 401c e13d 303b 2d3c
000001b0: bc75 f33d 1c28 42bd c86e b73c e824 963c
000001c0: 7e67 ee3d bcab 56bd fcc0 8dbd 00f8 0cbc
000001d0: f40b c4bd 30c6 a33c b6b8 e2bd f003 fbbd
000001e0: 600d 3cbd 8452 85bd b003 d73c ca9b ffbd
000001f0: 90e6 9bbd 7ae8 ef3d b099 3a3d 74e1 eabd
00000200: f0d4 6abd 1cad 4a3d 1c37 053d 608d f5bb
00000210: 78f8 e03d fceb b73d c835 dc3d d255 babd
00000220: 2072 a9bd 64e5 293d 986e aebc 78d8 8fbd
00000230: fc4e d5bd 32d5 84bd c061 9ebc 408e 85bd
00000240: a0e3 b13b a02c 94bb d470 b6bd 2013 913d
00000250: f42f 10bd f838 8ebd 080e 093d f89a a8bd
00000260: 0217 9c3d c41c 66bd c81b 9fbc b02f 9b3c
00000270: 5670 ad3d b0b6 f43c 90ed d63d 8040 893b
00000280: 80ba c1bc 1881 823c 4264 e7bd 903d 2c3c
00000290: ec98 68bd 76dc bcbd c8e3 6abd 80b7 f7bb
000002a0: bcd7 37bd b8af f43c e07e b13c ca1e bdbd
000002b0: 8c3f e73d 987f d73d e851 e53d 924b f13d
000002c0: 8e49 823d f868 39bd a683 d53d e822 b8bd
000002d0: 44ac 6cbd 509b ddbd 3451 c8bd 5c6c 52bd
000002e0: 50e3 fabd d001 323c 12ed c9bd 90dd 183d
000002f0: 4465 cf3d 5026 1ebd b05a b43c f419 093d
00000300: f077 dd3d 60b2 e63c 6844 e1bd 60bb 713d
00000310: 9678 b73d 60da 0c3c 1098 fcbd 48d0 cb3d
00000320: d0ff 583c 0c6b 2e3d 1426 8f3d c409 debd
00000330: bcbe 7dbd 5890 20bd 70f3 b33c e0b1 633c
00000340: 1a08 89bd c866 bf3d fccf 3cbd 9c20 c53d
00000350: ba12 fbbd 04ff 073d c0af c7bd f087 4e3d
00000360: 80f0 8c3d 9408 39bd 3c20 49bd 8c09 ab3d
00000370: 5656 fa3d fce0 c83d 1c41 00bd a2c3 c2bd
00000380: 8019 b43c 868b f53d 8278 e53d 1c30 c2bd
00000390: 94b9 643d c429 a2bd 9415 4d3d 50de 24bd
000003a0: 1c66 9b3d c035 7ebc 285f f03d 98c4 59bd
000003b0: a8c5 843c 106f 443c b0df 4e3c 708b 0e3c
000003c0: 78f1 bcbc a8c6 9ebc 1456 e53d bc95 bd3d
000003d0: e867 88bc 003e cdbc f014 82bd ba26 833d
000003e0: f0a8 a13c f8bc ec3c 001c 76bd aa2e cdbd
000003f0: 9090 083d f2b7 c03d b8a8 ab3d 2425 f73d

lstm.bias_ih_l0 f4 [256]
0.12302678 0.03924042 -0.09323102 0.05634586 0.13229017 0.12451217 0.0879716 0.07591004
-0.012733075 -0.092181265 -0.09311321 0.0045413785 0.06984382 -0.085418254 0.096377924 -0.037528656
0.011837765 0.073503785 0.12392575 -0.08356783 -0.020254225 -0.03862391 0.046425663 -0.0052831625
0.060161203 -0.046687916 -0.09122779 0.047625117 0.08181207 -0.06505589 -0.08438645 0.0038194996
-0.018653056 -0.056985788 -0.052946612 0.048776068 -0.071459845 -0.035954494 0.0020741168 -0.07057119
-0.007031653 -0.104890846 -0.10243711 0.017508319 -0.03617649 -0.0004037339 -0.03481889 -0.03227321
-0.066907294 -0.00086791493 -0.048481826 -0.039921477 -0.11033549 -0.01524856 -0.081010394 -0.025209675
-0.10697333 0.08547187 -0.041410737 0.029650478 0.055574156 -0.039924037 0.019068139 -0.06500339
-0.018880904 0.06494483 0.012964785 -0.036670446 -0.024419546 -0.07223739 0.040615022 0.1228338
0.065284416 -0.08084938 -0.09975229 0.0017688125 0.048253313 -0.09246953 0.075863466 -0.078854874
-0.018135816 -0.061617717 -0.08567208 -0.037601233 -0.08829108 -0.10117112 0.03273648 -0.10831049
0.027623728 0.03198348 -0.06784223 -0.08099544 0.028678238 0.017012343 -0.0576054 0.02610387
0.06972648 -0.10831149 0.074714825 -0.11992638 -0.10588767 0.07404749 -0.06957084 -0.012591541
-0.040205464 -0.01333946 0.0052028447 0.07596199 -0.09504306 -0.08484848 -0.07799715 -0.08114751
-0.1219634 0.009911165 -0.040655524 -0.120888114 0.057686195 0.08459674 0.11657491 0.11867267
0.017662674 -0.09361309 -0.12378478 0.06878322 0.054688856 0.064217776 0.07075158 0.059174538
0.066589534 0.055638354 0.13167115 -0.094907545 0.065903425 0.061551135 -0.0043155556 0.06124254
-0.13087857 0.108708665 0.121184714 0.0959272 -0.10931997 0.13210508 -0.11791319 -0.07081526
-0.027448643 -0.0444511 -0.12721531 0.02691249 0.08951336 0.00827792 0.024811108 -0.023725852
-0.07401658 0.021251615 -0.06902572 -0.044046726 -0.04937838 -0.102801025 -0.12765382 -0.07334043
-0.11522963 0.021199673 -0.014312836 -0.07379441 -0.122129686 0.043310788 0.049819876 0.030319048
-0.045372497 0.061685883 0.10892295 -0.05973682 0.09898709 -0.066404104 0.04548823 0.06695189
-0.056557085 -0.1063691 0.10204505 -0.109144054 -0.09052575 0.0048040166 0.10248615 -0.08318528
-0.05570407 0.12628885 -0.051006634 -0.050029255 0.07353824 -0.041603707 -0.012107944 -0.085550405
0.10431103 0.030491296 0.06560541 0.095152214 -0.1001815 -0.031684037 0.079062164 0.10050293
0.043182 0.044438906 0.11862148 0.046380278 0.08956447 -0.05297489 0.10759172 0.09071482
-0.054692898 -0.042028602 -0.037939813 -0.08142382 0.107281156 -0.072562024 0.014334526 0.061763566
-0.013797648 -0.08951223 -0.06538435 0.06805728 -0.071869515 0.047944035 0.022547582 -0.028848931
0.099494934 0.038397055 0.08911723 0.11835154 -0.10755535 0.041637924 -0.0688968 -0.05136364
-0.10575851 0.10518848 0.12168941 0.007395921 0.018737923 0.0185251 -0.034506686 0.056551725
0.042221926 -0.002723472 0.058623135 -0.055533893 0.073515475 -0.053728595 -0.108490795 -0.05188369
0.037323136 0.06661707 -0.076412104 -0.07999902 0.017349942 0.0074689714 -0.022117175 -0.032424398
00000000: 77f5 fb3d 90ba 203d e8ef bebd ebca 663d
00000010: 1377 073e 3d00 ff3d 742a b43d b976 9b3d
00000020: 639e 50bc 88c9 bcbd 23b2 bebd d8cf 943b
00000030: 470a 8f3d c4ef aebd ca61 c53d a6b7 19bd
00000040: 2ff3 413c 2789 963d c9cc fd3d 9c25 abbd
00000050: 30ec a5bc 1b34 1ebd d628 3e3d 611e adbb
00000060: 986b 763d d43b 3fbd a3d5 babd 8e12 433d
00000070: 168d a73d 063c 85bd ced2 acbd 9250 7a3b
00000080: 4bce 98bc ee69 69bd 8cde 58bd 6ac9 473d
00000090: 8a59 92bd 0545 13bd e8ed 073b a187 90bd
000000a0: c869 e6bb 03d1 d6bd 8cca d1bd 9b6d 8f3c
000000b0: cd2d 14bd 3fac d3b9 419e 0ebd ea30 04bd
000000c0: b106 89bd c984 63ba e194 46bd b484 23bd
000000d0: 93f7 e1bd 19d5 79bc c7e8 a5bd 8584 cebc
000000e0: d514 dbbd e00b af3d 4e9e 29bd 8fe5 f23c
000000f0: baa1 633d 6387 23bd c934 9c3c 7f20 85bd
00000100: 20ac 9abc cc01 853d 406a 543c c033 16bd
00000110: 800b c8bc 32f1 93bd f05b 263d 4a90 fb3d
00000120: d6b3 853d 5c94 a5bd ee4a ccbd 80d7 e73a
00000130: 44a5 453d aa60 bdbd 4e5e 9b3d aa7e a1bd
00000140: 9091 94bc dc62 7cbd d874 afbd c003 1abd
00000150: f4d1 b4bd ce32 cfbd b016 063d e4d1 ddbd
00000160: 284b e23c 1c01 033d def0 8abd f0e0 a5bd
00000170: a0ee ea3c 785d 8b3c a4f3 6bbd c8d7 d53c
00000180: c2cc 8e3d 6ad2 ddbd 1604 993d f69b f5bd
00000190: a2db d8bd 36a6 973d 287b 8ebd c04c 4ebc
000001a0: 7cae 24bd c08d 5abc a07c aa3b f691 9b3d
000001b0: f0a5 c2bd 0ac5 adbd f8bc 9fbd aa30 a6bd
000001c0: f2c7 f9bd 7062 223c 6886 26bd 3094 f7bd
000001d0: 5c48 6c3d 0e41 ad3d d4be ee3d a80a f33d
000001e0: 50b1 903c 38b8 bfbd e082 fdbd 38de 8c3d
000001f0: 6c01 603d 9c84 833d 34e6 903d 0061 723d
00000200: 1860 883d 0be5 633d cdd4 063e e35e c2bd
00000210: 60f8 863d 0b1d 7c3d 8169 8dbb 75d9 7a3d
00000220: 0805 06be a6a2 de3d b12f f83d 7b75 c43d
00000230: 26e3 dfbd 8e46 073e 787c f1bd 9707 91bd
00000240: fadb e0bc 5b12 36bd bb44 02be 9577 dc3c
00000250: c852 b73d 1da0 073c aa40 cb3c b85c c2bc
00000260: 0196 97bd de17 ae3c 5b5d 8dbd 576a 34bd
00000270: fc40 4abd 5889 d2bd afb7 02be 8233 96bd
00000280: 83fd ebbd f0aa ad3c 6380 6abc 8621 97bd
00000290: 211f fabd a766 313d ed0f 4c3d a75f f83c
000002a0: 83d8 39bd 56aa 7c3d ff12 df3d 99ae 74bd
000002b0: beb9 ca3d e0fe 87bd de51 3a3d 131e 893d
000002c0: 67a8 67bd 0bd8 d9bd fffc d03d eb86 dfbd
000002d0: 9065 b9bd 036b 9d3b 42e4 d13d 0b5d aabd
000002e0: f329 64bd dd51 013e 55ec 50bd 7aeb 4cbd
000002f0: 379b 963d a668 2abd 6660 46bc 0d35 afbd
00000300: 05a1 d53d e2c8 f93c 215c 863d 2adf c23d
00000310: f52b cdbd 1fc7 01bd 58eb a13d 7bd4 cd3d
00000320: 9cdf 303d 9205 363d d2ef f23d 3ff9 3d3d
00000330: 946d b73d 33fc 58bd 0c59 dc3d b1c8 b93d
00000340: a905 60bd 2f26 2cbd c766 1bbd 88c1 a6bd
00000350: 39b6 db3d 669b 94bd 5cdb 6a3c cbfb 7c3d
00000360: 880f 62bc 3052 b7bd 3be8 85bd 9d61 8b3d
00000370: 5330 93bd f760 443d b5b5 b83c 9854 ecbc
00000380: 00c4 cb3d 3b46 1d3d 1883 b63d 4b62 f23d
00000390: fb45 dcbd 878c 2a3d c419 8dbd ae62 52bd
000003a0: eb97 d8bd 0f6d d73d 4c38 f93d 7b59 f23b
000003b0: 4680 993c f3c1 973c e256 0dbd c8a2 673d
000003c0: e6f0 2c3d 477c 32bb d01e 703d 8277 63bd
000003d0: 488f 963d 8412 5cbd 6c30 debd fe83 54bd
000003e0: 25e0 183d 886e 883d f37d 9cbd 87d6 a3bd
000003f0: 7721 8e3c 46be f43b 142f b5bc 72cf 04bd

lstm.bias_hh_l0 f4 [256]
-0.07112471 0.10077661 -0.0923361 0.13301735 -0.014684116 -0.012472318 0.023240075 0.12772317
-0.0964466 -0.05698459 -0.05179097 -0.021508066 0.046444777 0.08541958 0.050637092 -0.07021975
0.0724767 -0.08375613 0.13099597 -0.098302305 0.09329029 0.12195979 0.019289043 0.015067709
-0.05741325 0.05578801 0.11199119 -0.11206579 0.02236238 0.058818568 -0.054672323 -0.054533888
-0.01900818 0.038356267 -0.02044964 -0.04633387 -0.013172924 -0.011655644 0.052393552 0.13080713
-0.10233127 -0.10203437 -0.09064238 -0.048486445 -0.03471886 -0.028247194 -0.055227436 0.023561466
-0.09244538 -0.050507743 0.0069336654 -0.030599708 0.10165996 0.030312963 -0.032724705 -0.09422547
-0.08300058 0.009632742 -0.019568346 -0.12953229 -0.08023936 -0.06246878 0.046478618 0.104099154
-0.07973032 -0.106109396 -0.11452833 -0.07876341 -0.10122992 -0.067258775 -0.05913505 -0.07122995
0.11973949 -0.022838414 0.07768476 0.09833127 -0.07625876 -0.08739054 0.08028579 -0.07424277
0.014342129 0.094227806 -0.0041354746 0.0070306957 -0.06683506 -0.04089944 0.054727018 -0.074706614
0.03867498 0.100491226 0.051404223 0.030807704 0.036568478 -0.07428305 -0.058242902 0.06449708
-0.10660392 0.08948609 0.0032497495 -0.11212219 -0.1042158 0.09695387 -0.06708814 -0.025183514
-0.072290316 0.07576877 0.03388089 0.036849424 -0.070170045 -0.010439053 -0.044387802 -0.11471744
0.030298755 -0.07787754 0.04518418 -0.10339494 0.03816688 0.004989296 0.019171253 0.017551929
-0.04944025 -0.11875798 0.07593058 0.10108641 0.016010135 -0.030455247 -0.09190856 0.00016330183
-0.10137372 0.10133711 0.052717976 -0.007489736 0.07738258 -0.03112139 0.09590447 0.08143226
-0.11899909 0.08731735 0.11421516 -0.02177528 -0.07606712 0.10361197 0.08734152 -0.07364928
-0.05691554 -0.07318157 0.11578813 0.08684663 0.07161164 -0.09336091 0.053216457 -0.074334286
-0.01879945 0.113265194 0.09758163 -0.0500251 0.11288168 0.06090989 0.017699637 -0.043810192
-0.014434121 0.116265096 -0.0046659145 0.05785656 -0.11359785 0.10131451 -0.12773013 -0.004148708
-0.032921232 0.0785943 -0.10874241 0.023741879 -0.05935337 -0.06584991 -0.049576767 -0.048453297
0.0018952914 0.039729927 0.08682535 0.10690483 -0.017320978 0.056804426 -0.042789124 0.052857563
-0.08446092 -0.09044726 0.071295746 -0.045755945 -0.0072708293 -0.06637509 0.05883862 -0.0048868926
-0.001416689 0.08620392 0.08503145 0.047822315 -0.019992473 0.06671051 -0.056898557 0.12814716
-0.05866781 -0.08186744 0.06271976 -0.02723811 -0.010017995 -0.050294038 0.122472525 -0.00090919
-0.07955578 0.03369916 0.028816342 -0.071430534 -0.09506396 -0.013565801 0.09194653 0.1309583
0.021646233 -0.026572479 -0.036449514 -0.11265007 -0.09889061 0.13240953 0.015558653 -0.028838217
-0.086095944 0.07166343 0.10379569 0.017722944 0.06501569 0.046376508 -0.019091005 -0.07779347
-0.07304502 0.013570291 0.039041165 -0.042113036 0.1110333 0.11088075 0.09261498 0.12618288
0.09004203 0.009408968 0.03093083 -0.038591065 0.11140464 -0.07368508 0.061746575 -0.034874804
0.12694474 0.0549737 0.081842326 0.05188836 -0.06697283 0.013352002 -0.004300432 -0.09276063
00000000: d5a9 91bd f863 ce3d b61a bdbd b335 083e
00000010: a595 70bc b158 4cbc f861 be3c ddc9 023e
00000020: cc85 c5bd ac68 69bd c522 54bd af31 b0bc
00000030: e13c 3e3d 76f0 ae3d d768 4f3d 5fcf 8fbd
00000040: aa6e 943d 5588 abbd cf23 063e b852 c9bd
00000050: fb0e bf3d 0ec6 f93d 0e04 9e3c 8dde 763c
00000060: 282a 6bbd f881 643d a35b e53d c082 e5bd
00000070: 4f31 b73c bdeb 703d 16f0 5fbd ed5e 5fbd
00000080: 0bb7 9bbc 761b 1d3d 0186 a7bc 96c8 3dbd
00000090: 3fd3 57bc 50f7 3ebc 9f9a 563d 4ef2 053e
000000a0: 0f93 d1bd 65f7 d0bd b6a2 b9bd b999 46bd
000000b0: 5d35 0ebd a966 e7bc 2a36 62bd fa03 c13c
000000c0: 0154 bdbd 35e1 4ebd cd33 e33b 3dac fabc
000000d0: 1933 d03d e452 f83c 570a 06bd 49f9 c0bd
000000e0: 35fc a9bd a6d2 1d3c cc4d a0bc 1da4 04be
000000f0: 8954 a4bd 43df 7fbd 5d60 3e3d f031 d53d
00000100: a649 a3bd e24f d9bd d48d eabd b64e a1bd
00000110: a251 cfbd f8be 89bd 9837 72bd 02e1 91bd
00000120: fa39 f53d a017 bbbc 3019 9f3d e861 c93d
00000130: 8e2d 9cbd d0f9 b2bd e06c a43d 980c 98bd
00000140: 40fb 6a3c 82fa c03d e082 87bb c061 e63b
00000150: d2e0 88bd 2c86 27bd 7029 603d c8ff 98bd
00000160: a869 1e3d 58ce cd3d 3c8d 523d 7060 fc3c
00000170: d4c8 153d b621 98bd 1c90 6ebd 0c17 843d
00000180: 2853 dabd 7c44 b73d c0f9 543b 52a0 e5bd
00000190: 186f d5bd c08f c63d 8265 89bd a84d cebc
000001a0: f20c 94bd a82c 9b3d b0c6 0a3d 6cef 163d
000001b0: 50b5 8fbd 9008 2bbc fccf 35bd faf0 eabd
000001c0: 1835 f83c 427e 9fbd 0c13 393d bac0 d3bd
000001d0: e054 1c3d 407d a33b 080d 9d3c 10c9 8f3c
000001e0: dc81 4abd 6237 f3bd 7e81 9b3d 6406 cf3d
000001f0: b027 833c 487d f9bc 8e3a bcbd 003c 2b39
00000200: 069d cfbd d589 cf3d ceee 573d 766c f5bb
00000210: c27a 9e3d 49f2 febc 9069 c43d f5c5 a63d
00000220: cbb5 f3bd 70d3 b23d a3e9 e93d 1262 b2bc
00000230: 14c9 9bbd 8332 d43d 1ce0 b23d 6fd5 96bd
00000240: 4520 69bd 38e0 95bd 5422 ed3d a5dc b13d
00000250: 20a9 923d 0134 bfbd 80f9 593d 933c 98bd
00000260: 4e01 9abc 95f7 e73d e1d8 c73d 1fe7 4cbd
00000270: 832e e73d a67c 793d d4fe 903c 5172 33bd
00000280: 177d 6cbc 651c ee3d 87e4 98bb 00fb 6c3d
00000290: fda5 e8bd fb7d cf3d b0cb 02be e3f1 87bb
000002a0: 6ad8 06bd 0cf6 a03d 57b4 debd 547e c23c
000002b0: 851c 73bd 51dc 86bd 0211 4bbd f776 46bd
000002c0: 6d6b f83a d9bb 223d 7dd1 b13d ebf0 da3d
000002d0: b9e4 8dbc c2ab 683d a643 2fbd 2c81 583d
000002e0: d9f9 acbd 6a3c b9bd 8103 923d 966a 3bbd
000002f0: 2340 eebb aaef 87bd c400 713d 3a22 a0bb
00000300: 32b0 b9ba ae8b b03d f824 ae3d 55e1 433d
00000310: 41c7 a3bc 859f 883d 760e 69bd 0239 033e
00000320: a84d 70bd 1eaa a7bd 3873 803d 7522 dfbc
00000330: 8422 24bc 1f01 4ebd e0d2 fa3d b556 6eba
00000340: 24ee a2bd 2108 0a3d 4010 ec3c 2c4a 92bd
00000350: e5b0 c2bd 1843 5ebc 764e bc3d ef19 063e
00000360: 7153 b13c 87ae d9bc 164c 15bd 14b5 e6bd
00000370: 2987 cabd 5d96 073e b8e9 7e3c 203e ecbc
00000380: 1253 b0bd 47c4 923d d692 d43d b52f 913c
00000390: f226 853d 4bf5 3d3d bd64 9cbc 2f52 9fbd
000003a0: a198 95bd ed55 5e3c a1e9 1f3d b87e 2cbd
000003b0: 6d65 e33d 7215 e33d ecac bd3d 1636 013e
000003c0: f567 b83d 1228 1a3c a762 fd3c aa11 1ebd
000003d0: 1e28 e43d 34e8 96bd fae9 7c3d e2d8 0ebd
000003e0: cdfd 013e 1a2c 613d f39c a73d e488 543d
000003f0: 0d29 89bd 5bc2 5a3c a3ea 8cbb 49f9 bdbd

lstm.weight_ih_l0_reverse f4 [256, 20]
0.09983264 0.099850394 -0.06782076 -0.09224152 0.043255795 0.07291448 0.088526994 0.019195354
0.112514056 -0.057334132 0.07155765 -0.10285826 -0.046671584 -0.035886407 -0.036508787 -0.0050547454
-0.063474044 0.107129864 -0.115128025 -0.09545931 -0.027638681 0.04364076 -0.116257794 0.118218526
-0.025459185 0.12651348 -0.09971634 0.03525906 0.0056995098 0.018283747 0.041293986 0.10927594
-0.11681016 -0.044793423 -0.05348459 -0.041668784 -0.07011882 -0.083133146 -0.030184045 0.013120381
0.038984075 0.119579546 -0.12204408 -0.08177692 -0.07215817 0.030722348 0.075778 -0.12349569
-0.037978712 0.07643302 -0.08175381 0.03190372 0.06447701 0.06319001 0.08408061 0.07512978
-0.07816412 -0.0055889445 0.058324702 -0.0663877 0.1309722 -0.07507476 -0.01418881 -0.10494771
0.056762174 0.07404186 -0.03401622 -0.019882271 -0.05047353 -0.09442996 -0.052015092 0.05878682
0.044422068 -0.033186443 -0.07374913 0.06303105 -0.02872498 0.08371244 0.03680938 0.09962763
0.09926527 0.007295073 -0.03561684 -0.08881474 0.10921308 0.071735576 -0.08366455 0.06227087
0.13282768 0.03926455 0.11274099 0.003361405 -0.07728879 -0.04189505 -0.0075402837 -0.1097539
-0.10739182 0.09826728 0.112095475 0.031383842 0.02963356 -0.0753625 -0.08408156 -0.11942008
0.043607105 0.04851582 -0.07790702 -0.061494 0.08031769 0.023328777 0.12040463 0.11939137
0.061739914 -0.06707061 -0.04944626 0.040683046 -0.067469805 -0.06276821 -0.08593368 0.082980804
-0.04062674 -0.055391584 0.12861316 0.022909475 -0.017077057 -0.11542797 -0.08498979 0.060597822
0.057970434 -0.13174455 -0.056499075 -0.044040803 0.02276286 0.10084368 0.014529398 0.00035016148
-0.107467994 0.124563545 0.024989212 -0.012087845 0.104307406 -0.026682045 0.036818255 -0.1330047
-0.0389797 0.025442101 0.08775188 0.0690625 0.09553233 0.105407685 0.11615278 -0.0924694
0.072068304 -0.040472306 -0.115584284 0.06879004 -0.101686224 0.090666324 0.0356179 0.0996797
-0.052038874 0.084996246 -0.09615336 0.08952445 0.087091066 0.12646717 -0.07827295 0.0710635
0.08959835 -0.11898867 0.061588462 0.09745723 0.028793553 -0.065901555 0.12002459 -0.122591175
-0.043254517 0.083106935 -0.0026726285 0.022881432 -0.014877366 -0.08544009 0.018232308 0.014816334
-0.0022404785 -0.124795936 -0.050673306 0.114479646 -0.089198254 -0.0033508672 -0.10484665 -0.0875967
-0.05112441 -0.017005257 0.019477563 0.112458 0.03635136 -0.08380995 -0.06267566 -0.116270036
0.04926815 0.06463254 -0.05083106 -0.10987686 0.030591408 -0.04455038 0.1297905 0.013091392
-0.098079406 0.010269344 0.0021962759 0.051350027 -0.09745316 0.103624254 0.12907633 0.12930246
-0.115040384 -0.016838185 -0.0056221597 -0.065109596 0.034574214 0.10527588 0.055709932 -0.007520253
0.004352139 -0.12964836 0.019928832 -0.08285853 0.08436187 -0.0008308094 0.018967886 0.027025286
0.09860045 -0.018812459 -0.021134581 0.011735172 -0.060619444 0.06764305 -0.11309994 -0.075712815
-0.018266307 -0.05410849 -0.12284449 -0.073676676 -0.109693706 0.061543953 -0.062629186 -0.023410436
-0.12864572 -0.055724826 -0.008656092 -0.008301456 -0.049789518 0.03804338 0.007504221 -0.049741127
00000000: 0e75 cc3d 5d7e cc3d 9ce5 8abd 1fe9 bcbd
00000010: fd2c 313d 3054 953d a44d b53d 933f 9d3c
00000020: c56d e63d 32d7 6abd d18c 923d 5aa7 d2bd
00000030: b42a 3fbd a0fd 12bd 3d8a 15bd 47a2 a5bb
00000040: aefe 81bd e766 db3d 3ec8 ebbd 2c80 c3bd
00000050: 846a e2bc a7c0 323d 9118 eebd 8e1c f23d
00000060: c88f d0bc c08c 013e 1538 ccbd ce6b 103d
00000070: f4c2 ba3b ccc7 953c e223 293d 10cc df3d
00000080: 2a3a efbd 4f79 37bd a812 5bbd e3ac 2abd
00000090: 759a 8fbd b641 aabd 8844 f7bc def6 563c
000000a0: c4ad 1f3d 1fe6 f43d 3ff2 f9bd a87a a7bd
000000b0: aac7 93bd 6fad fb3c 7f31 9b3d 4feb fcbd
000000c0: 918f 1bbd ea88 9c3d 8b6e a7bd 7aad 023d
000000d0: 860c 843d c469 813d 7432 ac3d a4dd 993d
000000e0: 8314 a0bd 7723 b7bb e2e5 6e3d 46f6 87bd
000000f0: 941d 063e ccc0 99bd 2f78 68bc d3ee d6bd
00000100: 747f 683d 42a3 973d 9854 0bbd 25e0 a2bc
00000110: 55bd 4ebd 7f64 c1bd c70d 55bd 73ca 703d
00000120: eaf3 353d 82ee 07bd c909 97bd 6c16 813d
00000130: a650 ebbc 6e71 ab3d 6fc5 163d 9209 cc3d
00000140: 974b cb3d 820b ef3b f7e2 11bd 81e4 b5bd
00000150: 1bab df3d 1aea 923d 5258 abbd bd0f 7f3d
00000160: fb03 083e ddd3 203d c0e4 e63d 054b 5c3b
00000170: 9649 9ebd 259a 2bbd 7c14 f7bb a7c6 e0bd
00000180: 3ef0 dbbd 5b40 c93d 5092 e53d 588c 003d
00000190: 14c2 f23c a857 9abd f432 acbd 8492 f4bd
000001a0: 5d9d 323d 86b8 463d b78d 9fbd 22e1 7bbd
000001b0: 9a7d a43d fe1b bf3c b496 f63d 7683 f43d
000001c0: fee2 7c3d 515c 89bd 2988 4abd 44a3 263d
000001d0: 9c2d 8abd 9f8c 80bd fffd afbd d7f1 a93d
000001e0: 3968 26bd 49e2 62bd 2bb3 033e a7ac bb3c
000001f0: 2fe5 8bbc 8065 ecbd 210f aebd 6c35 783d
00000200: 6872 6d3d 0be8 06be 936b 67bd 2164 34bd
00000210: 2d79 ba3c 2287 ce3d b60c 6e3c e195 b739
00000220: 2e18 dcbd 2c1b ff3d 2db6 cc3c 190c 46bc
00000230: 1f9f d53d 4e94 dabc bdce 163d 6232 08be
00000240: 2ea9 1fbd f46b d03c 42b7 b33d a470 8d3d
00000250: 74a6 c33d fcdf d73d 82e1 ed3d 9960 bdbd
00000260: 8c98 933d 4ac6 25bd 74b7 ecbd cbe1 8c3d
00000270: de40 d0bd 44af b93d 13e4 113d df24 cc3d
00000280: b726 55bd 8312 ae3d 0eec c4bd 9858 b73d
00000290: cd5c b23d 9c80 013e 924d a0bd be89 913d
000002a0: 577f b73d 55b0 f3bd 2f44 7c3d a897 c73d
000002b0: 75e0 eb3c 65f7 86bd 74cf f53d 1511 fbbd
000002c0: a62b 31bd f833 aa3d 4427 2fbb d771 bb3c
000002d0: 32c0 73bc 37fb aebd ec5b 953c 35c0 723c
000002e0: fed4 12bb 0395 ffbd d08e 4fbd 4e74 ea3d
000002f0: 93ad b6bd 399a 5bbb d7b9 d6bd e665 b3bd
00000300: d467 51bd 9c4e 8bbc 698f 9f3c 6150 e63d
00000310: 2ae5 143d 8da4 abbd 195c 80bd fc1e eebd
00000320: 66cd 493d 115e 843d 3b34 50bd 1f07 e1bd
00000330: d59a fa3c 767a 36bd cde7 043e 477d 563c
00000340: dbdd c8bd c040 283c 65ef 0f3b 6854 523d
00000350: 8695 c7bd f438 d43d 962c 043e dd67 043e
00000360: 4b9a ebbd 3cf0 89bc 183a b8bb 2e58 85bd
00000370: b19d 0d3d e19a d73d 1930 643d 746c f6bb
00000380: 639c 8e3b 8ac2 04be ca41 a33c bcb1 a9bd
00000390: ebc5 ac3d adca 59ba 8a62 9b3c 2264 dd3c
000003a0: 08ef c93d 961c 9abc 6e22 adbc e144 403c
000003b0: 184c 78bd 7088 8a3d f1a0 e7bd 520f 9bbd
000003c0: 39a3 95bc dda0 5dbd e495 fbbd cce3 96bd
000003d0: 18a7 e0bd 8315 7c3d bb43 80bd 3ec7 bfbc
000003e0: b4bb 03be b73f 64bd 48d2 0dbc d502 08bc
000003f0: 18f0 4bbd 60d3 1b3d f8e5 f53b 5abd 4bbd

lstm.weight_hh_l0_reverse f4 [256, 64]
0.008820102 0.059198618 -0.050024822 0.035410807 0.12278232 -0.066972464 -0.044736803 0.037853047
-0.070777714 -0.050137147 0.064573064 0.099906296 -0.0068395883 -0.12200034 0.113953754 0.08989559
0.009496093 0.0828682 -0.0060109943 0.08392613 0.003927693 0.011229336 0.06123227 -0.075824276
0.016532227 -0.095648885 0.056630105 -0.11275655 -0.00044949353 0.0836827 -0.09157133 0.068733186
0.08791512 -0.10852049 0.005538672 -0.12466374 0.097076446 -0.0974216 0.05901052 0.04050623
0.016295701 0.08183345 0.017670795 -0.025788143 -0.026545584 0.050091267 -0.0553803 0.043239504
0.042546242 0.07702376 0.11089426 0.030444503 0.09822494 -0.022769228 0.1166286 -0.028866544
-0.11351769 -0.116528675 0.059311226 -0.08004126 -0.019541934 -0.041426882 -0.054090127 -0.10752182
0.1007043 -0.017899722 0.123615175 -0.064753756 0.08986412 0.039710596 -0.020666882 0.08583172
-0.104399785 -0.0064767897 0.048540905 -0.1068563 -0.043454736 0.11372803 -0.03236954 0.07937364
-0.025120318 -0.10206249 -0.07807852 0.069807574 0.030150384 -0.09235133 -0.05227469 0.030542001
-0.113300726 -0.047022462 0.07384558 -0.09881954 0.09557843 0.11756827 0.05800785 -0.119511604
0.11046289 0.011859149 0.068405285 -0.08409956 0.064680964 0.06900297 -0.0250016 -0.03924586
0.106799126 0.03256455 0.10721114 -0.11063354 0.0075288266 -0.05688262 -0.05838546 0.0024208724
-0.07834114 0.10922451 0.108701214 0.119617596 -0.11407374 -0.0375475 0.07064505 -0.005210176
-0.03098552 0.06264348 -0.055574313 0.1045126 0.05809237 0.09214291 0.0039682835 0.0599339
0.110228494 0.026701272 -0.0747408 0.04854174 -0.030147925 -0.089834705 0.06949541 -0.0460528
-0.11298272 -0.0045933574 0.0997611 -0.038015917 -0.10522635 0.0026045889 -0.0977536 0.039752126
-0.11538309 -0.07871856 0.114788845 0.07869083 -0.095635295 0.10943432 -0.0131216645 -0.050997272
-0.01602751 -0.10167074 0.10817823 -0.026024088 0.038339525 -0.070197165 0.053842455 -0.09247282
0.10868469 -0.11161195 -0.08863494 -0.0084186345 -0.114176944 -0.019486621 -0.016117647 0.09560323
0.10243642 -0.106716916 -0.08674255 -0.05533898 0.025071338 -0.041477293 -0.105977714 -0.015178233
-0.046938017 0.0691707 -0.026779637 0.07223089 -0.11109248 0.12084696 -0.05945413 -0.079704344
0.03923109 -0.026582867 0.09082092 0.022359505 -0.009312853 0.11153673 0.029835999 -0.079811335
0.0426085 -0.05549009 -0.0012638718 -0.0048064888 0.03683582 0.018686146 0.06947169 -0.119352356
-0.09429689 -0.07110572 0.10885304 -0.10601883 0.08950648 -0.054201663 0.09537862 0.020263836
0.093725815 0.001512602 -0.12218289 0.057220668 -0.061347574 0.11752668 -0.06434119 -0.012320876
-0.111468315 0.024745435 -0.093974665 -0.117222965 0.030990079 0.119297326 0.10860194 -0.10562067
-0.003170997 0.059947103 0.10509215 -0.02041018 -0.06383403 0.053830326 -0.12464194 0.009445235
0.009001374 -0.09289415 -0.031395584 0.09616132 -0.015268296 -0.09513776 0.1145497 0.09544359
0.028301775 0.10987185 0.10611026 0.012780055 0.01614061 -0.039728135 -0.03475578 -0.012084439
0.048065364 -0.0057754368 0.10172394 -0.06482144 0.09700929 0.020512521 0.016695723 -0.059377626
00000000: 3082 103c 407a 723d d4e6 4cbd ec0a 113d
00000010: 4c75 fb3d dc28 89bd f03d 37bd cc0b 1b3d
00000020: e8f3 90bd 9c5c 4dbd e23e 843d ac9b cc3d
00000030: a01e e0bb 50db f9bd 9660 e93d 2e1b b83d
00000040: 8095 1b3c ceb6 a93d e0f7 c4bb 76e1 ab3d
00000050: e0b3 803b 40fb 373c b0ce 7a3d c249 9bbd
00000060: 986e 873c 90e3 c3bd f8f4 673d e8ec e6bd
00000070: 00aa ebb9 d661 ab3d c089 bbbd fcc3 8c3d
00000080: d80c b43d fe3f debd c07d b53b b44f ffbd
00000090: 04d0 c63d fa84 c7bd 04b5 713d dce9 253d
000000a0: 907e 853c 4c98 a73d 58c2 903c a841 d3bc
000000b0: 2076 d9bc 802c 4d3d 74d6 62bd e81b 313d
000000c0: f844 2e3d a2be 9d3d 881c e33d c066 f93c
000000d0: 282a c93d 8886 babc fada ee3d 8879 ecbc
000000e0: f67b e8bd 96a6 eebd 54f0 723d acec a3bd
000000f0: 6816 a0bc 3caf 29bd 9c8d 5dbd 6634 dcbd
00000100: 0e3e ce3d 70a2 92bc f429 fd3d 9e9d 84bd
00000110: ae0a b83d 94a7 223d 984d a9bc 8ac8 af3d
00000120: 8ecf d5bd 403b d4bb d4d2 463d 7ad7 dabd
00000130: 98fd 31bd 3eea e83d ec95 04bd a68e a23d
00000140: 20c9 cdbc 2406 d1bd a2e7 9fbd 46f7 8e3d
00000150: f0fd f63c b222 bdbd fc1d 56bd 3833 fa3c
00000160: 360a e8bd a09a 40bd 5a3c 973d e661 cabd
00000170: a0be c33d a2c7 f03d a499 6d3d 80c2 f4bd
00000180: 5e3a e23d e04c 423c 1218 8c3d 643c acbd
00000190: 7477 843d 6e51 8d3d 28d0 ccbc 44c0 20bd
000001a0: 80b9 da3d 6862 053d 8491 db3d d693 e2bd
000001b0: 60b4 f63b c0fd 68bd 9825 6fbd 80a7 1e3b
000001c0: 5271 a0bd 1ab1 df3d be9e de3d 12fa f43d
000001d0: 7e9f e9bd 68cb 19bd 5aae 903d 20ba aabb
000001e0: 58d5 fdbc 3a4b 803d e4a1 63bd b40a d63d
000001f0: 44f2 6d3d 6cb5 bc3d 6008 823b 407d 753d
00000200: 7abf e13d a0bc da3c b411 99bd b4d3 463d
00000210: c8f8 f6bc 42fb b7bd 9c53 8e3d dca1 3cbd
00000220: 7c63 e7bd e083 96bb 8c4f cc3d 94b6 1bbd
00000230: ea80 d7bd c0b1 2a3b 0a33 c8bd 20d3 223d
00000240: f84d ecbd 3237 a1bd 6a16 eb3d a828 a13d
00000250: 70dc c3bd 1a1f e03d 40fc 56bc 84e2 50bd
00000260: 204c 83bc c038 d0bd 8c8c dd3d 7830 d5bc
00000270: e809 1d3d 88c3 8fbd e889 5c3d 6462 bdbd
00000280: 1496 de3d ce94 e4bd 3c86 b5bd 50ee 09bc
00000290: 9ad5 e9bd 68a2 9fbc 2809 84bc a0cb c33d
000002a0: 30ca d13d 668e dabd 14a6 b1bd 20ab 62bd
000002b0: 6862 cd3c 18e4 29bd d80a d9bd 20ae 78bc
000002c0: 1442 40bd 5ea9 8d3d f860 dbbc caed 933d
000002d0: 7484 e3bd 9c7e f73d 2c86 73bd 083c a3bd
000002e0: c8b0 203d 50c4 d9bc 5200 ba3d 482b b73c
000002f0: f094 18bc 5e6d e43d a06a f43c 2074 a3bd
00000300: 4086 2e3d 9449 63bd 80a8 a5ba c07f 9dbb
00000310: 28e1 163d b013 993c 2c47 8e3d 026f f4bd
00000320: ba1e c1bd e09f 91bd 58ee de3d 6620 d9bd
00000330: 2c4f b73d 9002 5ebd de55 c33d 5800 a63c
00000340: 52f3 bf3d 8042 c63a 063b fabd 3860 6a3d
00000350: 9847 7bbd d4b1 f03d 50c5 83bd 80dd 49bc
00000360: 8049 e4bd f0b6 ca3c ca75 c0bd 9812 f0bd
00000370: e8de fd3c 2852 f43d b26a de3d a64f d8bd
00000380: 80d0 4fbb 188b 753d 8e3a d73d 4033 a7bc
00000390: 6abb 82bd 307d 5c3d 4644 ffbd 30c0 1a3c
000003a0: 807a 133c 4a3f bebd a898 00bd 3af0 c43d
000003b0: e027 7abc 96d7 c2bd 0899 ea3d ee77 c33d
000003c0: 20d9 e73c 7e04 e13d 5650 d93d 7063 513c
000003d0: 5039 843c f8b9 22bd 145c 0ebd d0fd 45bc
000003e0: 30e0 443d e03f bdbb a454 d03d 1ac1 84bd
000003f0: ceac c63d e009 a83c 78c5 883c f435 73bd

lstm.bias_ih_l0_reverse f4 [256]
-0.061246283 0.053202152 -0.069366306 0.031960186 0.053858563 0.03502561 0.023804061 0.012919682
-0.10118153 0.010281654 -0.021646982 0.043248385 -0.11685542 0.1240063 0.056488544 0.046550427
-0.071532845 0.027346237 0.12434834 0.049949754 0.027451659 0.0960206 -0.020823084 -0.05648476
0.016539171 0.007155441 -0.018968534 0.13329175 -0.0075051435 -0.032430086 0.04995593 -0.001996824
-0.060912125 0.104613975 0.11981071 -0.10949446 -0.028655821 0.021135394 -0.11102548 0.06039271
-0.08120684 -0.09561977 -0.11490921 -0.014407837 -0.1093182 0.015736 -0.0923282 0.11157716
0.10751294 -0.07222114 -0.10604883 -0.054571625 0.07157878 -0.06805156 0.09092447 -0.06937898
0.08480632 0.0006731249 0.10080391 -0.08360877 -0.055051375 -0.1072808 -0.08011341 -0.030088987
-0.047507092 0.04505022 -0.009112939 -0.10077557 0.079349324 -0.062253624 -0.1067559 -0.054116845
0.09387635 0.04704252 -0.10460311 0.06703119 0.11873816 -0.082351506 0.070098475 0.074698314
-0.10546337 0.07802203 0.029643148 -0.048082963 0.06793152 -0.0012006909 0.06939939 0.12005459
0.016745001 0.10716528 -0.12100315 0.03195755 -0.10330893 0.106887 -0.071381584 -0.026251882
0.04607281 0.08520356 -0.040741786 0.004441604 0.01575452 -0.032852665 -0.080096394 0.0701572
0.08560851 -0.02652809 -0.09417637 0.102136195 0.09204808 0.033755615 -0.11067256 -0.07645339
-0.12309314 -0.07916741 0.07374567 -0.07360202 -0.019468352 -0.09309764 0.12370892 -0.027071476
0.0034013838 0.00401634 0.12474017 -0.05902925 -0.062876984 -0.06624076 -0.08852932 -0.029175937
-0.09657546 -0.044087794 -0.11210043 0.05652658 -5.4277574e-05 -0.023968734 -0.018849634 0.084831364
-0.027844235 0.07103356 0.0068528666 0.07458845 -0.07361684 -0.061342515 -0.04825886 0.07170012
-0.0795424 0.076034494 -0.116372414 0.0033347216 0.11435517 -0.07041647 -0.020408025 0.110261194
-0.098409556 0.044462927 -0.058697507 0.13233674 0.060123373 0.055090338 0.044523887 0.048899222
-0.11277155 0.028975654 -0.04547662 -0.035087414 0.05463481 0.0070706266 0.035823736 0.049769804
-0.10654575 0.04832673 0.0962745 0.031147782 0.07012393 0.01173394 -0.100481175 -0.12777635
0.05560806 0.10897276 0.0026030177 -0.04370031 -0.088965766 0.104601175 0.104616426 -0.13072523
0.072014324 0.08536572 0.08158508 -0.12924358 -0.06982576 -0.12672114 -0.07429209 0.0953554
-0.051464967 -0.04380698 0.047063366 -0.11192382 0.038244218 0.05052096 0.10850937 -0.013116006
-0.06643593 0.040598564 -0.03855642 -0.09488977 -0.10429378 0.1278707 -0.10027059 0.0802939
0.07032214 0.061787225 0.035510056 -0.004520837 0.07236945 -0.06945279 -0.10598431 -0.06316491
0.07120728 0.0908598 -0.12076222 0.0919578 0.038141448 -0.059739098 -0.027058557 -0.069708325
0.085083276 0.025935829 0.056618918 0.042119455 0.09559013 -0.02861173 -0.0033831317 -0.01979798
-0.09464371 0.090447225 -0.052769672 0.07872203 0.053047452 -0.0004221184 -0.07580739 -0.07673614
0.039964423 -0.062424555 0.02060931 -0.06637929 0.013523966 -0.0610619 0.0033602458 -0.11685432
-0.04475441 0.062713794 -0.09448367 0.0015114913 -0.008066115 0.11254552 -0.019447286 0.11110604
00000000: 62dd 7abd 80ea 593d ec0f 8ebd afe8 023d
00000010: cc9a 5c3d 0477 0f3d bc00 c33c 13ad 533c
00000020: 4338 cfbd 6274 283c 0355 b1bc 3825 313d
00000030: e551 efbd 04f7 fd3d 8860 673d a9ab 3e3d
00000040: d07f 92bd 3705 e03c 58aa fe3d 1d98 4c3d
00000050: 4de2 e03c 73a6 c43d 2c95 aabc 905c 67bd
00000060: 287d 873c 3178 ea3b e663 9bbc a27d 083e
00000070: b5ed f5bb 69d5 04bd 979e 4c3d 26dd 02bb
00000080: fe7e 79bd da3f d63d 515f f53d a23e e0bd
00000090: 9dbf eabc 2224 ad3c 5461 e3bd 595e 773d
000000a0: c64f a6bd 4cd4 c3bd 8555 ebbd d90e 6cbc
000000b0: 38e2 dfbd c9e8 803c 9116 bdbd 9182 e43d
000000c0: bf2f dc3d ade8 93bd 2130 d9bd 7f86 5fbd
000000d0: e597 923d 9e5e 8bbd 9c36 ba3d 9116 8ebd
000000e0: f0ae ad3d a674 303a 4872 ce3d 133b abbd
000000f0: 8d7d 61bd 09b6 dbbd 8012 a4bd 2e7d f6bc
00000100: cc96 42bd 9486 383d 704e 15bc 6c63 cebd
00000110: e681 a23d a8fd 7ebd d6a2 dabd a0a9 5dbd
00000120: 3e42 c03d a8af 403d 283a d6bd a647 893d
00000130: fe2c f33d e8a7 a8bd ca8f 8f3d 6efb 983d
00000140: 2efd d7bd 04ca 9f3d 30d6 f23c a4f2 44bd
00000150: ae1f 8b3d 8060 9dba 4421 8e3d 2edf f53d
00000160: d02c 893c 7879 db3d 80d0 f7bd ece5 023d
00000170: a293 d3bd 92e7 da3d 8230 92bd 300e d7bc
00000180: d8b6 3c3d 347f ae3d dce0 26bd e08a 913b
00000190: a00f 813c 8490 06bd 9409 a4bd 94ae 8f3d
000001a0: 8453 af3d 7051 d9bc 8adf c0bd c82c d13d
000001b0: b483 bc3d 5443 0a3d 4ca8 e2bd 9893 9cbd
000001c0: 4218 fcbd 8622 a2bd f807 973d a8bc 96bd
000001d0: 187c 9fbc faa9 bebd 1a5b fd3d 00c5 ddbc
000001e0: c0e9 5e3b 809b 833b c677 ff3d a8c8 71bd
000001f0: a6c5 80bd 3ca9 87bd dc4e b5bd 6002 efbc
00000200: 5bc9 c5bd 6795 34bd e994 e5bd 6a88 673d
00000210: 1aa8 63b8 145a c4bc 8c6a 9abc 11bc ad3d
00000220: 9819 e4bc 0b7a 913d 038e e03b d4c1 983d
00000230: 6dc4 96bd 4a42 7bbd 15ab 45bd 83d7 923d
00000240: 20e7 a2bd f9b7 9b3d a954 eebd 588b 5a3b
00000250: 0b33 ea3d 8336 90bd bb2e a7bc 9fd0 e13d
00000260: f38a c9bd c21e 363d cc6c 70bd 4883 073e
00000270: ed43 763d 68a6 613d ae5e 363d 8d4a 483d
00000280: c5f4 e6bd 5a5e ed3c b145 3abd d2b7 0fbd
00000290: c0c8 5f3d b7b0 e73b e9bb 123d 6cdb 4b3d
000002a0: a834 dabd 40f2 453d 912b c53d a229 ff3c
000002b0: 239d 8f3d b63f 403c 13c9 cdbd ced7 02be
000002c0: 47c5 633d 1c2d df3d 6497 2a3b 19ff 32bd
000002d0: af33 b6bd 2439 d63d 2341 d63d d6dc 05be
000002e0: 3f7c 933d 39d4 ae3d 1416 a73d 6e58 04be
000002f0: cf00 8fbd 30c3 01be 7426 98bd b149 c33d
00000300: eecc 52bd f36e 33bd 84c5 403d 5138 e5bd
00000310: f8a5 1c3d 11ef 4e3d 293a de3d 84e4 56bc
00000320: 900f 88bd ae4a 263d 56ed 1dbd 9155 c2bd
00000330: fa97 d5bd 89f0 023e ab5a cdbd 2171 a43d
00000340: 0e05 903d 9a14 7d3d fe72 113d 8823 94bb
00000350: 6f36 943d 443d 8ebd 4d0e d9bd 9b5c 81bd
00000360: 1fd5 913d b414 ba3d 2f52 f7bd 5f54 bc3d
00000370: 353a 1c3d fcb0 74bd e8a9 ddbc 3dc3 8ebd
00000380: 2440 ae3d 6077 d43c 3de9 673d 7385 2c3d
00000390: c2c4 c33d 2663 eabc 88b7 5dbb 602f a2bc
000003a0: 90d4 c1bd 653c b93d 0325 58bd 0439 a13d
000003b0: 4948 593d c64f ddb9 e840 9bbd d627 9dbd
000003c0: bcb1 233d e4b0 7fbd dbd4 a83c ddf1 87bd
000003d0: a093 5d3c 0b1c 7abd 9237 5c3b 5151 efbd
000003e0: 6650 37bd 1770 803d a880 c1bd 3b1d c63a
000003f0: bd27 04bc 447e e63d ea4f 9fbc 908b e33d
