TadGAN/models/decoder.pt (torch, 627619 bytes, 18 tensors)

lstm.weight_ih_l0 f4 [256, 20]
0	0x3d87e3ac	0.06635222
1	0xbd47cdb3	-0.048780154
2	0x3aaac049	0.0013027276
3	0xbdc27b2a	-0.09496148
4	0x3c8272e4	0.015923925
5	0x3c9936eb	0.018702945
6	0xbde45ae5	-0.11150149
7	0x3ca25ed0	0.0198206
8	0xbd91cc0b	-0.07118996
9	0xbdb37920	-0.08763337
10	0xbd8cf134	-0.06881943
11	0xbd87afb5	-0.0662531
12	0x3c5933aa	0.013256947
13	0x3d814adf	0.06313109
14	0x3d159e4d	0.03652792
15	0x3d66474a	0.05622033
16	0xbd84aaf1	-0.06477917
17	0xbcf8e2fe	-0.030381676
18	0xbe0572df	-0.13032101
19	0xbda3e41d	-0.080024935
20	0xbe03f189	-0.12885107
21	0xbdd6dd03	-0.104913734
22	0x3d5ef2ea	0.05443088
23	0xbd13d651	-0.03609306
24	0xbc04a3a4	-0.008095656
25	0xbd7b63c9	-0.06137446
26	0xbe0ddffb	-0.13854973
27	0x3d008b52	0.031382866
28	0x3d835820	0.06413293
29	0x3d0266e4	0.031836405
30	0x3ded0341	0.11572886
31	0xbd21c12d	-0.039490867
32	0xbd40af02	-0.0470419
33	0x3d44c597	0.04804
34	0x3d2f9b2f	0.042872604
35	0xbe0a71bb	-0.13519947
36	0xb9d64dbc	-0.00040875177
37	0xbd8aa668	-0.06770021
38	0xbdc99684	-0.09843162
39	0xbd81bd0a	-0.063348845
40	0x3d9087f9	0.07057185
41	0x3d4a7ab1	0.049433414
42	0x3d9c4331	0.07630003
43	0x3cea8ae8	0.028630689
44	0x3a4e34aa	0.0007866124
45	0xbdc21f38	-0.09478611
46	0xbd3be00f	-0.045867976
47	0x3df225fb	0.118236504
48	0x3d044661	0.03229368
49	0x3d977294	0.07394901
50	0x3d42e319	0.04757986
51	0x3d32da36	0.043665133
52	0xbcc8f01f	-0.024528561
53	0xbdef3669	-0.116803
54	0x3db4d832	0.088302985
55	0xbda5a67e	-0.080883965
56	0xbd0ea7e8	-0.034828097
57	0x3db8730d	0.09006319
58	0xbbe6d809	-0.0070447964
59	0xbdf1ad78	-0.11800665
60	0xbdc963fc	-0.09833524
61	0x3dc2b5b4	0.09507313
62	0xbd8ce67c	-0.06879899
63	0xbd3dc2c5	-0.046328325
64	0xbd8de282	-0.069279686
65	0xbdc69443	-0.096962474
66	0xbd51e779	-0.05124614
67	0x3e12c6a7	0.14333592
68	0xbe0db662	-0.13839105
69	0xbd81364b	-0.06309184
70	0xbcdb5b5b	-0.02677696
71	0x3e083553	0.13301592
72	0x3d5e5078	0.05427596
73	0x3d498ac5	0.049204607
74	0xbd85f476	-0.06540768
75	0xbd77a4f7	-0.060460057
76	0xbd5dbab1	-0.05413312
77	0x3d8ce5a3	0.06879737
78	0xbd4a6a14	-0.04941757
79	0xbdafbd3c	-0.085810155
80	0xbcbd08eb	-0.023075541
81	0x3d2e3ea3	0.042540204
82	0xbd0ed7a0	-0.034873605
83	0xbd382e59	-0.044966076
84	0xbe000b22	-0.12504247
85	0xbdf7c44c	-0.120979875
86	0x3ad5fdb9	0.0016326226
87	0x3dc567d0	0.09638941
88	0x3d7f7374	0.062365964
89	0xbd0bc704	-0.034125343
90	0x3db41a18	0.087940395
91	0x3dbcee5e	0.092251524
92	0x3c81240b	0.015764257
93	0xbcb30cf3	-0.02185676
94	0x3d4cac36	0.04996892
95	0xbdc16314	-0.09442726
96	0xbd68127d	-0.056658257
97	0xbd824728	-0.06361228
98	0x3dafa6b2	0.085767165
99	0x3daf8ffd	0.085723855
100	0x3db9d7d3	0.09074368
101	0x3de2f24f	0.11081373
102	0x3d7e4e6c	0.062086508
103	0x3d5dbd28	0.05413547
104	0xbd59d5b8	-0.053182334
105	0x3cc2cc7a	0.023779143
106	0xbce0fa74	-0.027463175
107	0x3d96a70b	0.0735608
108	0xbda48d11	-0.08034719
109	0x3d76ba43	0.060236227
110	0xbd95b1a2	-0.073092714
111	0xbde0d9a5	-0.109790124
112	0x3dc8a1b6	0.09796469
113	0x3ca1dfff	0.01976013
114	0xbdc8a244	-0.09796575
115	0xba9c9e72	-0.0011949076
116	0x3de08bcc	0.10964164
117	0x3cb957b6	0.022624832
118	0xbda56ba4	-0.080771714
119	0x3cc8d9f5	0.024517993
120	0xbd664c2b	-0.056224983
121	0x3ce6f310	0.028192073
122	0x3d32a919	0.043618295
123	0xbc5f1fb9	-0.013618403
124	0x3d0a262d	0.033727814
125	0x3c30ed4c	0.0107987635
126	0xbdafeab3	-0.08589687
127	0xbdc0b827	-0.09410124
128	0xbe06b7bf	-0.13156031
129	0xbdafb3da	-0.08579226
130	0x3d9afeff	0.07568168
131	0x3e0859f5	0.13315566
132	0xbd0b756c	-0.03404753
133	0xbe09e720	-0.13467073
134	0x3db21a18	0.08696383
135	0xbe056066	-0.13025054
136	0xbd0bdb33	-0.03414459
137	0x3d9a0f6e	0.07522474
138	0x3d7558ec	0.059899256
139	0xbdcc879d	-0.09986804
140	0x3b2374f6	0.002494154
141	0xbd615d60	-0.05502069
142	0x3d8917e6	0.066940114
143	0xbd4ccee9	-0.050002012
144	0x3c9fadc4	0.019492038
145	0xbc337cba	-0.01095503
146	0xbd5ba4a2	-0.053623803
147	0xbb8594ae	-0.004076562
148	0xbced84d4	-0.028994001
149	0x3e159941	0.14609243
150	0x3dd49d1b	0.10381528
151	0x3dfef929	0.12449867
152	0x3e057a25	0.13034876
153	0x3b1d5f08	0.0024012942
154	0x3d654df9	0.055982564
155	0xbc3de259	-0.01158961
156	0xbd736277	-0.059420075
157	0xbc0e2d80	-0.00867784
158	0x3dc5bc7e	0.09655093
159	0xbd9e0b7b	-0.077170335
160	0x3d5f0a5d	0.054453243
161	0x3c4daa8b	0.012552868
162	0xbcb20d8a	-0.021734972
163	0xbddde595	-0.10834805
164	0xbdadeab2	-0.0849203
165	0xbdc1508a	-0.0943919
166	0x3caeeacf	0.0213522
167	0x3dd6c555	0.10486857
168	0xbd89ff71	-0.06738175
169	0x3c8e1b60	0.017347038
170	0x3daa9f73	0.08331194
171	0xbdb3de36	-0.08782618
172	0xbcdefaf7	-0.027219279
173	0xbcb8b42a	-0.022546846
174	0xbb85805f	-0.004074141
175	0x3d82db3d	0.06389473
176	0xbdbc21b9	-0.091861196
177	0xbbc6bfc2	-0.00606534
178	0x3a5af514	0.00083525595
179	0xbd93b417	-0.07212084
180	0xbcb9522e	-0.022622194
181	0x3ae539ed	0.0017488577
182	0x3d1b50a3	0.037918698
183	0x3dda7ba1	0.106681116
184	0xbdd81075	-0.10550014
185	0xbdb5ea1d	-0.08882544
186	0x3b809874	0.003924424
187	0x3ca8a8c4	0.020588286
188	0x3dc7c653	0.09754624
189	0xbd9a9edf	-0.075498335
190	0xbc023150	-0.007946327
191	0xbd833c86	-0.06408028
192	0xbca77281	-0.020440342
193	0xbc27c4bd	-0.010239777
194	0xbdc43dd3	-0.095821045
195	0xbd8bbc13	-0.06822982
196	0x3ad146a9	0.0015966493
197	0x3d0a8fff	0.03382873
198	0x3d5f9f06	0.054595016
199	0xbb6e454e	-0.0036357227
200	0xbd1926be	-0.037390463
201	0xbd52e3ef	-0.051486906
202	0xbccbc304	-0.024873264
203	0x3daabe84	0.08337119
204	0xbd4c1caa	-0.049832024
205	0xbdb2da25	-0.08733014
206	0x3daa3735	0.08311311
207	0xbd9a330b	-0.07529267
208	0x3dc2e07f	0.095154755
209	0x3da7847c	0.08179566
210	0xbd0be9aa	-0.034158386
211	0x3e066ffc	0.13128656
212	0x3d43210a	0.04763893
213	0x3ce1bd6c	0.027556144
214	0xbd98fa47	-0.074696116
215	0x3cfe8193	0.031067645
216	0xbdb5d561	-0.088785894
217	0x3df5d42b	0.120033585
218	0x3ce3c721	0.027804913
219	0x3de49e74	0.11163035
220	0xbdc9b2d9	-0.098485656
221	0x3d6136c2	0.05498386
222	0xbe0d8da7	-0.13823567
223	0x3c9d5ebd	0.019210214
224	0xbb35e724	-0.0027756179
225	0x3db6ee51	0.08932174
226	0xbcd6d5bb	-0.026224962
227	0x3db021e0	0.08600211
228	0x3d661b62	0.056178458
229	0x3d33fa4e	0.04393988
230	0xbd53f8e3	-0.05175103
231	0x3d1e7d2b	0.03869359
232	0x3e13e474	0.14442617
233	0xbe076548	-0.1322223
234	0xbdc52c50	-0.096275926
235	0xbdfc74ab	-0.1232694
236	0x3df31b55	0.118704475
237	0x3e098d91	0.1343291
238	0x3c2d511d	0.010578421
239	0x3cc5fa86	0.02416731
240	0x3c2be626	0.010491883
241	0x3c9d140d	0.0191746
242	0xbd596634	-0.053075984
243	0x3e16903b	0.14703457
244	0xbdaa7e44	-0.083248645
245	0x3d4fa1f8	0.050691575
246	0xbd50a4cc	-0.050938413
247	0xbd3f68b8	-0.046730727
248	0xbc1ce9ef	-0.0095772585
249	0x3dcf316e	0.1011685
250	0x3df7ae66	0.12093811
251	0x3dd4a529	0.10383064
252	0x3dfbd29f	0.12296032
253	0xb89e8842	-7.559407e-05
254	0x3da49b25	0.08037404
255	0x3c1d6c2a	0.009608308

lstm.weight_hh_l0 f4 [256, 64]
0	0xbd2cf240	-0.042223215
1	0x3dc1e064	0.09466627
2	0x3cb96720	0.022632182
3	0xbd412460	-0.04715383
4	0xbdbcee46	-0.092251346
5	0x3d26e128	0.04074207
6	0x3c874f80	0.0165174
7	0x3db005e0	0.085948706
8	0x3b2ae200	0.0026074648
9	0x3d90abce	0.07064019
10	0x3d7f6f28	0.062361866
11	0xbbf76a80	-0.0075505376
12	0x3d40a454	0.047031716
13	0x3c8cb4c8	0.017176047
14	0xbd7422c8	-0.059603482
15	0x3d55219c	0.052034006
16	0x3d3dafe8	0.046310335
17	0x3d3f6494	0.04672678
18	0x3c6a5320	0.014302045
19	0xbdbcfbb8	-0.09227699
20	0xbd59bae0	-0.053156734
21	0x3d88bfbc	0.066771954
22	0x3da43380	0.08017635
23	0x3cb64c48	0.02225317
24	0x3c6eb980	0.014570594
25	0x3dea0542	0.11426784
26	0x3dc6023a	0.096683934
27	0xbd705174	-0.05867143
28	0xbd022534	-0.03177376
29	0xbd9bda74	-0.07610026
30	0xbda23e8e	-0.079220876
31	0xbc7d5870	-0.01546298
32	0x3c2d8090	0.010589734
33	0x3ddb9718	0.10722178
34	0xbdcd06b8	-0.10011047
35	0x3d2a1ae8	0.041529566
36	0xbd3afa00	-0.045648575
37	0xbda9b858	-0.08287114
38	0x3da07cee	0.078363284
39	0x3da2246a	0.07917102
40	0xbd81432a	-0.06311639
41	0x3d9814fc	0.074258775
42	0x3d5937bc	0.053031668
43	0x3cb82f30	0.022483438
44	0xbcab80a8	-0.020935372
45	0xbdc2106e	-0.0947579
46	0x3d50ddf0	0.050992906
47	0x3d2c9820	0.042137265
48	0x3cba04a0	0.022707283
49	0xbde5e3b0	-0.112250686
50	0xbd8dde5c	-0.06927177
51	0xbdf133e6	-0.11777477
52	0x3bdb5da0	0.0066945106
53	0xbd9a6bfa	-0.07540126
54	0x3d92a910	0.07161152
55	0xbd84fe22	-0.064937845
56	0x3dd64cf4	0.104638964
57	0x3da81580	0.08207226
58	0x3c355a40	0.011068881
59	0xbdf87070	-0.12130821
60	0xbd1c4434	-0.03815098
61	0x3dff3d7e	0.124629006
62	0xbddc33f6	-0.10752098
63	0xbddcde88	-0.10784632
64	0xbd0d23ac	-0.034457847
65	0xbdacebcc	-0.08443412
66	0xbca67918	-0.020321414
67	0x3d8ec490	0.06971085
68	0xbda2e97a	-0.07954688
69	0x3df2caa8	0.1185506
70	0xbde78864	-0.11305311
71	0xbdae31c0	-0.08505583
72	0x3caa0028	0.020752028
73	0x3df9883e	0.12184189
74	0x3cd5bca8	0.026090935
75	0x3d9e344a	0.07724817
76	0x3ded61e2	0.11590935
77	0x3d18301c	0.037155256
78	0xbd89cc10	-0.06728375
79	0xbd0d9034	-0.03456135
80	0x3ac4f280	0.0015025884
81	0xbc9d9d58	-0.019240066
82	0xbdb8daee	-0.090261325
83	0x3d3ddf8c	0.04635577
84	0xbcbb3a90	-0.022855073
85	0x3d91aa44	0.07112554
86	0x3d89e5b4	0.067332655
87	0x3de089ae	0.1096376
88	0x3ddba55e	0.10724901
89	0x3d361800	0.044456482
90	0xbdc04ef8	-0.09390062
91	0xbd3eebc0	-0.046611547
92	0x3d3281ac	0.043580696
93	0xbdac04d8	-0.08399361
94	0x3da1b5de	0.078960165
95	0xbda20070	-0.0791024
96	0x3d56e0b0	0.052460372
97	0x3d5ed714	0.054404333
98	0xbd05173c	-0.03249286
99	0xbd806f80	-0.06271267
100	0x3d7135fc	0.058889374
101	0x3dcc1f78	0.0996694
102	0xbd757e74	-0.05993505
103	0xbdbf22ba	-0.093327954
104	0x3d6f3d90	0.05840832
105	0x3dd7c040	0.10534716
106	0xbdb538d4	-0.0884873
107	0x3d3f162c	0.046652004
108	0x3d4e29e0	0.050332904
109	0x3dbd2bc2	0.09236862
110	0x3da5e41c	0.08100149
111	0x3d1fe034	0.039032176
112	0xbcf08608	-0.029360786
113	0x3d71e14c	0.05905275
114	0xbd460f8c	-0.04835467
115	0xbcbbf958	-0.022946045
116	0x3d0f1068	0.034927756
117	0xbdb347e6	-0.08753948
118	0xbc0e85c0	-0.008698881
119	0x3d81ee34	0.06344262
120	0x3dcdb394	0.100440174
121	0x3c8f66f8	0.017505154
122	0xbdfff830	-0.1249851
123	0x3d5a7a60	0.053339362
124	0x3db65750	0.08903372
125	0x3cefa0d0	0.029251486
126	0x3d501a10	0.050806105
127	0xbd010288	-0.031496555
128	0x3c4e94a0	0.012608677
129	0xbd9a3010	-0.075286984
130	0xbc9f10e8	-0.019417241
131	0xbd0f9fdc	-0.035064563
132	0xba108900	-0.00055135787
133	0xbd5b8f6c	-0.053603575
134	0x3d9dbaba	0.07701631
135	0xbdf2e56a	-0.118601635
136	0xbc4a27c0	-0.012338579
137	0x3dc308e0	0.09523177
138	0xbbbfb880	-0.0058508515
139	0xbd5da9a8	-0.054116875
140	0xbda0bd9a	-0.07848664
141	0x3df6d944	0.12053159
142	0xbde0f910	-0.10985005
143	0x3d10a854	0.03531678
144	0x3c789250	0.015171602
145	0xbd62c21c	-0.0553609
146	0xbd55d848	-0.052208215
147	0xbdc7d956	-0.097582504
148	0xbded58c0	-0.11589193
149	0xbd9457d8	-0.07243317
150	0x3d6eba28	0.058283
151	0xbc95cc90	-0.01828602
152	0x3c58aae0	0.0132243335
153	0xbc6d3c80	-0.014479756
154	0x3dddfefc	0.1083965
155	0xbddbd986	-0.10734849
156	0x3dbfea4a	0.09370859
157	0x3c132190	0.00898017
158	0x3c2485b0	0.010041639
159	0xbdc654d2	-0.09684147
160	0xbd382e44	-0.044965997
161	0x3db9587a	0.09050079
162	0xbd01f620	-0.031728864
163	0x3dd6ee88	0.10494715
164	0xbdb81b30	-0.089895606
165	0xbd705274	-0.058672383
166	0x3d034c84	0.032055393
167	0x3d0fbc5c	0.035091743
168	0xbce22fb0	-0.02761063
169	0x3d828558	0.063730896
170	0xbd81264a	-0.06306131
171	0xbd435f68	-0.04769841
172	0xb9375000	-0.00017482042
173	0xbdb47932	-0.08812179
174	0xbd8bfb7e	-0.06835078
175	0xbde0b408	-0.10971838
176	0x3da72bb6	0.08162634
177	0x3db1d260	0.08682704
178	0xbdfb1144	-0.122591525
179	0x3dbeb07c	0.093110055
180	0x3cc04e78	0.023474917
181	0xbd6dbc80	-0.058041096
182	0x3d0d4728	0.034491688
183	0x3dd4f946	0.10399108
184	0x3df432ee	0.119237766
185	0x3dbce256	0.09222858
186	0xbd846956	-0.06465404
187	0x3c842c08	0.016134277
188	0xbb5eab80	-0.0033976734
189	0xbddd486a	-0.108048275
190	0x3cd41310	0.025887996
191	0xbd84e17c	-0.0648832
192	0x39452000	0.00018799305
193	0xbd125368	-0.035724074
194	0x3d9ecc74	0.0775384
195	0xbb82a080	-0.0039864182
196	0x3b41fb00	0.002959907
197	0xbd58336c	-0.052783415
198	0xbd911ce4	-0.070855886
199	0x3defe5c0	0.11713743
200	0xbddf83c2	-0.10913803
201	0x3d26e810	0.040748656
202	0x3de9cf02	0.11416437
203	0xbdefbee2	-0.1170633
204	0x3d9fe612	0.07807554
205	0xbdfd02ac	-0.12354025
206	0xbd872920	-0.06599641
207	0xbda6b104	-0.08139232
208	0xbda265e0	-0.07929587
209	0xbd0b7a44	-0.03405215
210	0x3df347f4	0.11878958
211	0xbda8fcbc	-0.0825133
212	0xbbe33a40	-0.006934434
213	0xbda571dc	-0.080783576
214	0x3c08c740	0.008348286
215	0xbdb6ab18	-0.08919352
216	0xbd7424bc	-0.059605345
217	0x3d54c34c	0.051944062
218	0x3df7db80	0.12102413
219	0x3dd589d4	0.10426679
220	0x3cf44c68	0.02982159
221	0x3d761a34	0.060083583
222	0x3da9e6b8	0.08295959
223	0x3d8cdaae	0.06877647
224	0x3dd65884	0.10466102
225	0xbdb4a648	-0.08820778
226	0xbdd2b10e	-0.10287677
227	0xbd8eb0a0	-0.06967282
228	0xbd332b30	-0.04374236
229	0xbd6c9b28	-0.057765156
230	0xbdb63d46	-0.08898406
231	0x3c0e5150	0.008686379
232	0xbdf6bf66	-0.12048225
233	0x3d75e470	0.060032308
234	0xbc86aa78	-0.016438708
235	0xbdade69a	-0.084912494
236	0x3d52542c	0.051349804
237	0xbbb61180	-0.0055562854
238	0x3ddfdcc6	0.10930781
239	0xbdb4159c	-0.08793184
240	0x3d4972d4	0.049181774
241	0x3c159f00	0.009132147
242	0xbc8db3c0	-0.017297626
243	0xbcb93608	-0.022608772
244	0xbbd64960	-0.0065395087
245	0x3d3c5478	0.045978993
246	0xbdd5a654	-0.10432115
247	0xbd8119b8	-0.063037336
248	0x3d7f9520	0.062398076
249	0x3de48f96	0.11160199
250	0xbdd5e68e	-0.104443654
251	0xbcced988	-0.025250211
252	0x3cfd0b80	0.030889273
253	0x3d1e40a0	0.03863585
254	0xbdc56e02	-0.09640123
255	0x3dae888e	0.085221395

lstm.bias_ih_l0 f4 [256]
0	0xbdcb270e	-0.099195585
1	0x3e0260cb	0.12732236
2	0xbd5e6934	-0.05429955
3	0xbd88bfca	-0.06677206
4	0x3dda4082	0.10656835
5	0xbdbd8b77	-0.092551164
6	0x3d3adb6f	0.045619424
7	0x3d179a16	0.037012182
8	0xbce708b8	-0.0282024
9	0xbd109319	-0.035296533
10	0xbc8e3759	-0.017360376
11	0x3dbb7fa1	0.09155203
12	0x3db4443e	0.08802079
13	0x3de73c3d	0.112907864
14	0x3d635d38	0.055508822
15	0xbb943090	-0.0045223907
16	0xbde99d12	-0.11406912
17	0x3e13ad88	0.14421666
18	0x3d21dcdc	0.03951727
19	0xbd42d9b4	-0.0475709
20	0xbcfb5894	-0.030681886
21	0x3a85b88f	0.0010202097
22	0xbdcc2f66	-0.09969978
23	0xbd8dd652	-0.06925644
24	0xbda8ee5b	-0.08248588
25	0xbc061871	-0.008184538
26	0xbd7a3b5a	-0.06109176
27	0xbd9013d7	-0.07035034
28	0xbdf439e8	-0.11925107
29	0xbd27df17	-0.04098424
30	0xbd0af2e7	-0.033923056
31	0x3ded89a9	0.11598522
32	0x3d4bcb24	0.049754277
33	0xbdc018f6	-0.09379761
34	0xbd646c81	-0.05576754
35	0x3dae4520	0.08509278
36	0xbd2eefb9	-0.042709086
37	0xbd1b7891	-0.037956778
38	0x3da598e0	0.08085799
39	0xbdc281d8	-0.09497422
40	0xbd52a385	-0.051425476
41	0xbbca3c58	-0.0061717443
42	0xbd792a5c	-0.060831413
43	0x3dac435b	0.084112845
44	0x3c91fbb8	0.017820224
45	0xbccdcf8b	-0.025123378
46	0xbda52971	-0.08064545
47	0x3df23bbc	0.118278
48	0x3dc7b4b8	0.09751266
49	0x3cdf720e	0.027276065
50	0xbc33934f	-0.010960414
51	0x3d556763	0.05210055
52	0x3dc72b05	0.09725002
53	0x3dcb5b4f	0.09929525
54	0x3df5db33	0.120046996
55	0xbd5d0822	-0.053962834
56	0xbd4a223e	-0.049349062
57	0x3e147fca	0.14501873
58	0x3d46b5bc	0.04851316
59	0x3cf62235	0.030045608
60	0x3d0f6345	0.03500678
61	0x3de41f4a	0.111387804
62	0xbdedd260	-0.116123915
63	0x3dd9a696	0.10627477
64	0x3dfa9eda	0.1223733
65	0xbd6334b4	-0.055470183
66	0x3d8d19f8	0.06889719
67	0x3d75cd84	0.060010448
68	0x3df270aa	0.11837895
69	0xbd9d83ec	-0.07691178
70	0xbd8fec9c	-0.070275515
71	0xbd411608	-0.04714015
72	0xbd120640	-0.03565049
73	0xbcc1f408	-0.023675933
74	0x3d633358	0.055468887
75	0xbdc5df06	-0.09661679
76	0x3d8f46aa	0.069959
77	0x3db7016e	0.089358196
78	0xbcc3cb90	-0.023900777
79	0xbde47024	-0.111542016
80	0xbc459560	-0.01205954
81	0xbc53bf40	-0.0129240155
82	0xbdabe850	-0.083939195
83	0x3dd465fa	0.10371013
84	0xbdf20394	-0.11817089
85	0xbd25bbe8	-0.040462404
86	0xbc86ba08	-0.016446128
87	0xbd94f9b0	-0.072741866
88	0xbc82c1a0	-0.015961468
89	0xbc2b5830	-0.010458037
90	0x3c342f00	0.010997534
91	0x3d93810e	0.072023496
92	0x3bd44de0	0.00647901
93	0xbd0eec28	-0.034893185
94	0xbcfe1510	-0.031015903
95	0x3dffe0c8	0.124940455
96	0x3c854518	0.016268298
97	0xbd4fd830	-0.05074328
98	0x3b844720	0.004036799
99	0x3d9b0ede	0.07571195
100	0xbcb26778	-0.021777853
101	0xbd35439c	-0.04425393
102	0x3dfb5874	0.122727305
103	0xbda44cce	-0.08022462
104	0xbdf697ca	-0.1204067
105	0xbb9944c0	-0.004677385
106	0x3dff02fa	0.124517396
107	0xbd5d6294	-0.05404909
108	0xbdfa1dd6	-0.12212722
109	0xbcf98858	-0.030460522
110	0xbbcd1360	-0.006258413
111	0xbdfbc9b8	-0.12294334
112	0xbdb967fa	-0.09053035
113	0xbad34c00	-0.0016120672
114	0x3d89a7c2	0.067214504
115	0xbd48c260	-0.049013495
116	0xbdf83c2e	-0.12120853
117	0xbddd753a	-0.10813375
118	0x3d68c458	0.056827873
119	0xbdf17dde	-0.117915854
120	0xbd4ffd3c	-0.050778612
121	0xbde9bd44	-0.11413053
122	0xbd821f4e	-0.06353627
123	0xbde1bb52	-0.11022057
124	0xbce24620	-0.027621329
125	0x3dfc91e0	0.12332511
126	0x3df0921a	0.11746617
127	0x3da48e52	0.08034958
128	0x3ba6a484	0.0050855298
129	0x3dd0dedb	0.10198756
130	0xbd525beb	-0.05135719
131	0xbd3a2810	-0.045448363
132	0xbda2ad72	-0.07943238
133	0xba423d0f	-0.0007409611
134	0x3dc328af	0.09529244
135	0x3df4b7d5	0.11949126
136	0x3beaa74f	0.007161058
137	0x3b5aaf22	0.0033368547
138	0xbd22b31a	-0.039721586
139	0x3da96906	0.08271985
140	0x3e03ceff	0.12871931
141	0xbe0a7e64	-0.13524777
142	0xbe0adeb0	-0.13561511
143	0xbdd25d95	-0.102717556
144	0xbd7ee595	-0.062230665
145	0xbc3226d0	-0.010873511
146	0xbdea8b21	-0.11452318
147	0xbca9c8b4	-0.020725586
148	0xbd3d97d3	-0.04628737
149	0x3e089763	0.13339
150	0x3d75027d	0.059816826
151	0xbd781c88	-0.060574085
152	0xbdd565e2	-0.10419823
153	0x3e042f0f	0.12908576
154	0x3da3d36c	0.0799931
155	0x3e08c05c	0.1335463
156	0x3d5211b5	0.051286418
157	0xbda9828e	-0.082768545
158	0xbcecf3ca	-0.028924841
159	0x3d38fdcd	0.04516392
160	0x3c169508	0.009190805
161	0xbbe275d6	-0.00691102
162	0xbdc48379	-0.09595389
163	0x3dce3932	0.10069503
164	0xbcb1102e	-0.02161416
165	0xbd96775a	-0.07346983
166	0x3bc91f5a	0.0061377706
167	0xbdf846b1	-0.12122858
168	0xbd16cad0	-0.03681451
169	0xbda11106	-0.07864575
170	0x3cc79b64	0.024366088
171	0x3e05b09e	0.13055655
172	0xbdf981c9	-0.12182958
173	0x3a29b69d	0.000647405
174	0xbda36fd5	-0.07980315
175	0xbdf5357f	-0.11973094
176	0xbd7b7b7c	-0.06139706
177	0x3dac895a	0.08424635
178	0x3db3ea2b	0.08784898
179	0x3e0157a1	0.12631084
180	0x3e0d02f6	0.13770661
181	0x3ddc7d73	0.10766115
182	0xbaa4cbd0	-0.0012572948
183	0xbd799d00	-0.060940742
184	0xbdb5d15d	-0.088778235
185	0x3dfd0c94	0.12355915
186	0xbbc882c2	-0.006119103
187	0x3e0d7494	0.13814002
188	0xbd620b24	-0.055186406
189	0x3d10f711	0.03539187
190	0xbd8a60f9	-0.06756777
191	0xbdde464d	-0.108532526
192	0x3db8dafd	0.09026144
193	0x3dd1af0c	0.10238466
194	0x3e0a9c1d	0.13536115
195	0x3d1d76d0	0.038443387
196	0x3d8cfb33	0.0688385
197	0x3c60fe61	0.013732524
198	0xbd33b43d	-0.04387306
199	0x3d6cd869	0.057823572
200	0x3e05e626	0.13076076
201	0xbb8b598e	-0.004252619
202	0x3df8cb5d	0.121481635
203	0x3d69d98a	0.057092227
204	0x3cedfaa9	0.029050188
205	0x3df4a16d	0.11944852
206	0xbd59f5c0	-0.05321288
207	0x3ccd6ffd	0.025077814
208	0xbda0328a	-0.078221396
209	0x3d8035da	0.06260271
210	0x3e06f94e	0.1318104
211	0x3e106cf6	0.14104065
212	0x3c64357e	0.013928769
213	0x3dfd5a5b	0.123707496
214	0xbd216fcd	-0.039413262
215	0xbd9ebf4d	-0.077513315
216	0x3bec868d	0.007218188
217	0xbc2cb8a1	-0.010542066
218	0x3d890a6e	0.066914424
219	0x3d3590a1	0.044327382
220	0xbddcce61	-0.10781551
221	0xbd4079bc	-0.046991095
222	0x3db7de89	0.08977992
223	0xbcac63a6	-0.02104361
224	0xbd11e791	-0.03562123
225	0xbd61e193	-0.055146765
226	0xbcf834e7	-0.030298663
227	0x3d1de708	0.038550407
228	0x3d90a350	0.070623994
229	0xbda2914d	-0.0793787
230	0x3dc926bf	0.09821843
231	0x3c24164a	0.01001508
232	0x3d3988a6	0.045296334
233	0xbd380e1b	-0.044935327
234	0x3d7b290b	0.06131844
235	0xbd865257	-0.06558674
236	0xbdb95630	-0.09049642
237	0x3d7652d0	0.06013757
238	0x3c9d4c0c	0.019201301
239	0xbcb3350c	-0.02187588
240	0xbdc3bc48	-0.09557396
241	0x3cab6993	0.020924365
242	0xbde8e078	-0.11370939
243	0x3e117d31	0.14207913
244	0x3d62f4e0	0.055409312
245	0xbd21e431	-0.03952426
246	0x3d240479	0.040043328
247	0x3def7808	0.11692816
248	0xbd863f25	-0.065550126
249	0x3df7de9c	0.12103006
250	0x3cf79965	0.030224511
251	0x3e0b5e63	0.13610224
252	0x3dc81219	0.09769077
253	0x3bccedb6	0.0062539233
254	0xbde33806	-0.1109467
255	0x3d2f82cc	0.042849347

lstm.bias_hh_l0 f4 [256]
0	0xbc41459d	-0.011796382
1	0xbca0fa6b	-0.019650659
2	0xbd033bcd	-0.032039452
3	0xbdbed520	-0.09317994
4	0x3c5f4528	0.013627328
5	0xbc005dd6	-0.007834872
6	0x3618dbc9	2.2777697e-06
7	0x3b217b85	0.0024640274
8	0x3e01a8c3	0.12662034
9	0xbc8d05f9	-0.017214762
10	0x3de2de65	0.11077575
11	0x3dbf9e59	0.09356374
12	0xbd47594d	-0.04866915
13	0xbd06cc84	-0.032909885
14	0x3df7fad5	0.12108389
15	0x3d3497ab	0.044089954
16	0xbae11ac5	-0.0017174116
17	0xbcf0ef5a	-0.029411007
18	0x3c4e90ef	0.012607797
19	0x3d917546	0.07102446
20	0x3d091a34	0.033472255
21	0x3c1d4652	0.009599285
22	0xbd150c6c	-0.0363888
23	0x3de400c6	0.1113296
24	0xbce442c0	-0.02786386
25	0x3bb53d21	0.005530969
26	0x3e04b316	0.12958941
27	0x3e06f3de	0.13178965
28	0xbdfe3798	-0.124129474
29	0x3df05809	0.117355414
30	0xbd440cfc	-0.047863945
31	0x3dfe778c	0.124251455
32	0x3c162177	0.009163252
33	0x3df28206	0.11841206
34	0x3de07d0c	0.10961351
35	0x3decea3c	0.11568114
36	0x3d423181	0.04741049
37	0xbd3f9378	-0.046771497
38	0xbcbf1f0c	-0.023330234
39	0xbda76834	-0.08174172
40	0xbcd2ce2a	-0.025733072
41	0xbca82d4b	-0.02052941
42	0x3df196a5	0.11796311
43	0xbdc5ab15	-0.09651772
44	0x3d1d9b20	0.038478017
45	0x3dd2cb09	0.10292632
46	0xbccb4e17	-0.02481751
47	0xbdcb7bbe	-0.09935711
48	0x3cf234ec	0.02956625
49	0x3cdef2de	0.027215417
50	0xbdc0bab8	-0.09410614
51	0x3c24477a	0.010026807
52	0xbd061352	-0.03273327
53	0x3d09ba79	0.0336251
54	0x3ad0454a	0.001588979
55	0xbdd0f5fa	-0.10203166
56	0x3daa42e4	0.083135396
57	0xbdb8ad97	-0.09017485
58	0xbd096dbc	-0.033551916
59	0x3e135aed	0.14390154
60	0xbcdf55dc	-0.02726262
61	0xbd7dd04d	-0.06196623
62	0xbbec82b4	-0.0072177295
63	0xbd7a79cc	-0.06115131
64	0x3c1b5bb0	0.009482309
65	0xbdd220ac	-0.10260138
66	0xbd8a3494	-0.0674831
67	0xbdbfeaca	-0.09370954
68	0xbcdb7728	-0.026790217
69	0xbd0f296c	-0.034951612
70	0xbd420e38	-0.04737684
71	0xbd631f78	-0.055449933
72	0xbdfe4628	-0.12415725
73	0xbd99ffea	-0.07519515
74	0x3d3cda9c	0.04610692
75	0x3dc12892	0.09431566
76	0x3d9a0680	0.07520771
77	0x3d3ccf5c	0.04609619
78	0x3d30dd80	0.04317999
79	0x3b36f7c0	0.0027918667
80	0x3d953652	0.072857514
81	0x3d7c9c20	0.06167233
82	0x3dc83eda	0.09777613
83	0xbd97d46c	-0.07413563
84	0xbd66b364	-0.056323424
85	0x3d0c49c8	0.03425005
86	0x3dc31d20	0.095270395
87	0x3decaeee	0.11556803
88	0x3df550f2	0.1197833
89	0xbdfdcdf2	-0.123927966
90	0xbcb61958	-0.022228882
91	0xbd540c38	-0.051769465
92	0xbd2fa710	-0.042883933
93	0x3d78a7ac	0.06070678
94	0x3da10186	0.07861619
95	0x3de49ae2	0.11162354
96	0x3db22ee6	0.087003514
97	0x3ddd2114	0.10797325
98	0x3c8fa788	0.01753594
99	0x3af33c80	0.0018557459
100	0x3ddaac94	0.10677448
101	0xbc101700	-0.008794546
102	0x3d2bdae8	0.041956812
103	0x3da9c40e	0.082893476
104	0xbc9da150	-0.019241959
105	0xbd0e4e10	-0.034742415
106	0x3d903614	0.070415646
107	0xbc1ccfa0	-0.009570986
108	0xbd313024	-0.0432588
109	0xbc1db200	-0.009624958
110	0x3dcf4f10	0.10122502
111	0x3d6be4a0	0.05759108
112	0xbda65cc2	-0.08123161
113	0xbc27a5d0	-0.010232404
114	0x3bb86340	0.005627066
115	0x3d95f194	0.07321468
116	0xbd00e934	-0.0314724
117	0xbdf5a9f2	-0.11995305
118	0xbde59c84	-0.112114936
119	0xbd76ae9c	-0.060225114
120	0xbbdb7000	-0.006696701
121	0x3d665de0	0.05624187
122	0xbd3a1b20	-0.045436025
123	0x3d5855bc	0.052816138
124	0x3d365a34	0.04451962
125	0x3d728738	0.059210986
126	0xbd66c648	-0.05634144
127	0xbdb87f84	-0.09008697
128	0xbddc9959	-0.10771436
129	0xbd30753c	-0.043080553
130	0x3e09846a	0.13429418
131	0xbd726407	-0.059177425
132	0x3d046217	0.03232011
133	0xbd8b8c77	-0.06813901
134	0xbc3406e4	-0.010987971
135	0xbd7c9789	-0.061667953
136	0xbe09c9df	-0.13455914
137	0xbe043b9c	-0.12913364
138	0xbd159331	-0.036517326
139	0x3d54c909	0.051949535
140	0xbd5ea9b5	-0.054361064
141	0xbd494527	-0.049138214
142	0x3d1f18a0	0.038841844
143	0xbcdd43e1	-0.027009906
144	0xbd7a7c7d	-0.061153878
145	0x3e0d30b5	0.13788112
146	0xbd2debf5	-0.042461354
147	0xbdecf2e9	-0.11569769
148	0xbda15754	-0.07877985
149	0x3d89ab84	0.06722167
150	0xbd2c588a	-0.042076625
151	0xbc70b315	-0.014691134
152	0x3dc01e8e	0.09380828
153	0x3e0033c8	0.12519753
154	0x3da9c742	0.082899585
155	0x3ce21f8d	0.027602935
156	0xbca1414e	-0.01968446
157	0xbe07c926	-0.13260326
158	0x3c862f89	0.016380088
159	0x3da43113	0.08017173
160	0xbd634944	-0.055489793
161	0xbc717924	-0.014738355
162	0x3cfc5a9d	0.030804927
163	0x3de6dcb8	0.112725675
164	0x3e025a07	0.12729655
165	0xbd5c1a60	-0.05373609
166	0x3be8d0db	0.0071049756
167	0x3c3762f1	0.011193023
168	0x3d961849	0.07328851
169	0xbdb0d9c2	-0.08635284
170	0x3dea97cb	0.114547335
171	0x3e0a7007	0.13519298
172	0xbd8cd476	-0.06876461
173	0xbe09c13a	-0.13452616
174	0x3d51a2ec	0.051180765
175	0xbdd5fbd1	-0.10448421
176	0xbd8cdda5	-0.06878213
177	0xbd1a02e8	-0.037600428
178	0xbdc5fe23	-0.09667613
179	0xbd1be5fb	-0.038061123
180	0xbca914aa	-0.020639736
181	0x3deaa8f7	0.11458009
182	0xbd200ac1	-0.039072756
183	0xbdaf4088	-0.0855723
184	0xbda38141	-0.079836376
185	0x3dc16416	0.09442918
186	0x3dde753f	0.10862207
187	0x3da721fe	0.0816078
188	0xbe0a7c14	-0.13523895
189	0x3d2a25d5	0.041539986
190	0xbdf0bf89	-0.117552824
191	0x3de9db79	0.11418814
192	0x3d13956a	0.036031164
193	0x3dea987c	0.11454865
194	0x3d187408	0.03722003
195	0xbdcdc2ca	-0.10046919
196	0xbc93be1d	-0.018034989
197	0xbcb2d80a	-0.021831531
198	0x3ded660e	0.11591731
199	0x3dda89e8	0.10670835
200	0xbd9e4fd9	-0.077300735
201	0x3e1055e8	0.1409527
202	0xbcc04e1e	-0.02347475
203	0x3c2b12cc	0.010441493
204	0xbdb45715	-0.08805672
205	0x3de76969	0.11299402
206	0xbd98ec4a	-0.074669436
207	0x3da13e01	0.078731544
208	0xbdfa2ac3	-0.122151874
209	0x3d1527dd	0.03641497
210	0x3e0cc03b	0.13745205
211	0xbd655b6d	-0.055995394
212	0xbd874b93	-0.066062115
213	0x3d527fb0	0.051391304
214	0x3dec2bdb	0.11531802
215	0xbdb9c039	-0.09069867
216	0xbc478de4	-0.012179825
217	0xbcd68b9e	-0.026189622
218	0xbd531fb3	-0.051543903
219	0x3dc59f83	0.09649565
220	0x3db46329	0.08807976
221	0x3def949c	0.11698267
222	0x3df738eb	0.12071403
223	0x3ce95c49	0.028486388
224	0x3db71365	0.08939246
225	0xbd847926	-0.0646842
226	0x3d98d2f0	0.07462108
227	0x3e00ccd4	0.12578136
228	0xbc5084eb	-0.012727003
229	0xbc6a97e1	-0.014318437
230	0xbc3a2694	-0.011361737
231	0x3ce0a78f	0.027423648
232	0x3e050a30	0.12992167
233	0xbd94d982	-0.07268049
234	0x3c05ef35	0.008174707
235	0x3da6a3d6	0.08136718
236	0x3d712cc9	0.0588806
237	0x3d0c4f6c	0.03425543
238	0xbd6d9246	-0.058000825
239	0xbd04b900	-0.032402992
240	0x3baf7c34	0.0053553823
241	0x3e0a2bd0	0.13493276
242	0x3c925e05	0.017867098
243	0xbc0b7048	-0.008510657
244	0x3d4070bd	0.046982516
245	0xbb2c91a9	-0.0026331937
246	0x3d1f0d19	0.03883085
247	0x3db3a54c	0.08771762
248	0x3d6b5e38	0.0574629
249	0xbd91376c	-0.07090649
250	0x3e032ccd	0.12810059
251	0x3c8d9abe	0.0172857
252	0x3d513b29	0.05108181
253	0xbd9ea683	-0.07746603
254	0xbc678f46	-0.01413328
255	0xbd9a66d0	-0.07539141

lstm.weight_ih_l0_reverse f4 [256, 20]
0	0xbd90784c	-0.07054195
1	0x3df46d13	0.11934867
2	0xbb1de4e9	-0.002409274
3	0x3d8cf664	0.06882933
4	0x3da22a4c	0.07918224
5	0xbc5f611b	-0.013633992
6	0xbcf10abb	-0.029424062
7	0xbda1f295	-0.07907597
8	0xbbcd8381	-0.00627178
9	0x3af3a87a	0.0018589639
10	0xbcbc6367	-0.022996617
11	0xbdd4db85	-0.103934325
12	0xbd67493f	-0.056466337
13	0x3d006f67	0.03135624
14	0xbc32f5c1	-0.01092285
15	0x3db8a27d	0.09015367
16	0xbd5944fa	-0.053044297
17	0xbcdfcdc9	-0.027319806
18	0x3cd09163	0.02545995
19	0x3d8710b1	0.065949805
20	0xba8062dc	-0.0009795087
21	0xbc159d9b	-0.009131814
22	0x3db381f8	0.08765024
23	0x3da52594	0.08063808
24	0x3dadca02	0.084857956
25	0x3d9e65ce	0.077342615
26	0xbe116515	-0.14198716
27	0x3e015d24	0.12633187
28	0xbd6a5787	-0.05721238
29	0x3da7cfa8	0.08193904
30	0xbd99c76b	-0.07508739
31	0x3e067f15	0.13134415
32	0xbd687bfc	-0.056758866
33	0x3ca70a17	0.020390553
34	0xbd8989a6	-0.067157075
35	0xbcbacdd2	-0.02280322
36	0x3d83104d	0.063995935
37	0x3dcf6459	0.10126562
38	0xbd78c56b	-0.060735147
39	0xbd89a39b	-0.067206584
40	0xbd17eefc	-0.037093148
41	0xbd6b8700	-0.057501793
42	0x3cf24436	0.029573541
43	0x3dde2813	0.10847487
44	0xbde01c4e	-0.10942899
45	0xbded6983	-0.115923904
46	0xbc9def95	-0.01927928
47	0xbd08365e	-0.033254974
48	0xbe0b5b8b	-0.1360914
49	0xbc718eb5	-0.014743497
50	0xbd39a614	-0.0453244
51	0x3d17d0d4	0.03706439
52	0x3cf01617	0.029307408
53	0xbd9ba7e1	-0.0760038
54	0x3cb1aebb	0.021689763
55	0x3d2c0892	0.04200036
56	0x3d869e69	0.06573183
57	0xbbdc935c	-0.006731434
58	0x3c71cb33	0.014757919
59	0xbd5f245d	-0.054478038
60	0xbdf81bb2	-0.121146575
61	0x3dbd4dd2	0.09243359
62	0xbdc048f4	-0.09388915
63	0x3dbbe191	0.09173883
64	0x3d2391a7	0.039933827
65	0x3d16ca8d	0.03681426
66	0x3d239dbd	0.039945353
67	0xbd9430b8	-0.07235855
68	0x3d87906f	0.066193454
69	0xbcf91755	-0.030406633
70	0x3d9749e7	0.07387143
71	0x3d8b2412	0.06793989
72	0xbca92095	-0.02064542
73	0x3ca956b8	0.020671234
74	0xbdc5923f	-0.09647035
75	0xbe020b65	-0.12699659
76	0xbbb0aab3	-0.0053914427
77	0x3d20e01a	0.03927622
78	0xbdb042b5	-0.08606473
79	0x3de024cb	0.10944518
80	0xbd42e619	-0.04758272
81	0xbd90bcf2	-0.070672885
82	0xbcf848c8	-0.030308142
83	0x3dcc5cb5	0.0997862
84	0xbdf1fa05	-0.118152656
85	0xbe054da9	-0.13017906
86	0xbd6a53ac	-0.057208702
87	0xbcd7211c	-0.026260905
88	0x3a9ea325	0.0012103064
89	0x3d985e8d	0.07439909
90	0x3c355101	0.011066676
91	0xbd844a32	-0.06459464
92	0xbbcd1584	-0.0062586684
93	0xbd1c270e	-0.038123183
94	0xbdf3cfb4	-0.119048506
95	0xbd5c49aa	-0.05378119
96	0xbd9fe1f8	-0.07806772
97	0xbc216424	-0.009850536
98	0xbde62b08	-0.11238676
99	0xbd6ac1a9	-0.057313595
100	0xbda149dc	-0.07875416
101	0x3e0013cd	0.12507553
102	0xbe02050c	-0.12697238
103	0x3d564c41	0.052318815
104	0x3d8a33e9	0.06748182
105	0xbd851be0	-0.06499457
106	0xbdaa9987	-0.08330064
107	0x3dcc445e	0.099739775
108	0xbe0df584	-0.13863188
109	0x3debae83	0.11507895
110	0x3da9e88a	0.082963064
111	0x3d9778bb	0.073960744
112	0xbcce2a11	-0.025166543
113	0xbda3d53e	-0.07999657
114	0xbdf5e0ad	-0.12005744
115	0xbdcc1819	-0.09965534
116	0xbd65eae6	-0.05613222
117	0xbd7ec22d	-0.0621969
118	0x3d59ba05	0.053155918
119	0xbd156428	-0.03647247
120	0x3dd294fc	0.10282323
121	0xbdcdcdf0	-0.10049045
122	0xbde317b7	-0.110885076
123	0x3de71885	0.112839736
124	0xbcaeb405	-0.021326074
125	0xbd3a61ea	-0.045503534
126	0x3debbd4d	0.11510716
127	0x3d9f9a1d	0.07793067
128	0x3dc6a340	0.09699106
129	0xbbde9ccf	-0.0067935954
130	0xbc96e8a8	-0.018421486
131	0xbda5dc10	-0.08098614
132	0xbdde9846	-0.108688876
133	0xbc62eaf6	-0.013849964
134	0xbd50bc8a	-0.050961055
135	0x3d541999	0.051782224
136	0xbc84fbb8	-0.01623331
137	0xbdf3798f	-0.1188842
138	0x3da5012d	0.08056865
139	0xbdc13f98	-0.09435958
140	0x3ce13c2e	0.027494516
141	0xbde69873	-0.11259546
142	0x3cdf1c8e	0.027235296
143	0xbddb7eb8	-0.10717529
144	0xbd8973ca	-0.06711538
145	0xbd2a8951	-0.04163486
146	0x3d07f3fc	0.033191666
147	0xbdae46b0	-0.08509576
148	0x3c6b67c6	0.014368003
149	0x3de87ab5	0.113515295
150	0x3d490b98	0.049083322
151	0x3d9f332d	0.07773433
152	0xbc8b6ceb	-0.01701971
153	0x3cc6861d	0.024233872
154	0xbc998ef3	-0.018744921
155	0xbcad25b1	-0.021136137
156	0x3daaf86d	0.08348165
157	0xbda50bb5	-0.080588736
158	0x3afda0e6	0.001935032
159	0xbd05989a	-0.032616235
160	0x3d71f6a1	0.059073094
161	0xbdc63025	-0.096771516
162	0xbdee23e8	-0.11627942
163	0xbbf786fd	-0.0075539337
164	0xbd70ef65	-0.058822054
165	0x3cb3f89e	0.021969136
166	0x3d8f91cf	0.07010233
167	0xbd917fb5	-0.07104436
168	0xbdf117cb	-0.11772116
169	0xbd1eb9b1	-0.038751308
170	0x3d34fe48	0.044187814
171	0xbc315b85	-0.010825043
172	0x3dbe1224	0.09280804
173	0x3d73535f	0.05940568
174	0x3c04569b	0.008077289
175	0x3c853d02	0.016264442
176	0x3d06e17e	0.03292989
177	0x3deb20c8	0.11480862
178	0xbd400c2c	-0.046886608
179	0xbdc18ad3	-0.09450307
180	0xbcd120a6	-0.025528263
181	0x3dd9116a	0.105990246
182	0x3c5bcefc	0.013416048
183	0x3da30e37	0.07961696
184	0xbd6497ca	-0.05580882
185	0xbdede1c8	-0.1161533
186	0xbd2654e5	-0.040608305
187	0x3cec4df9	0.028845774
188	0xbdabbbef	-0.08385455
189	0x3d974657	0.07386463
190	0x3dcb5ce7	0.09929829
191	0x3d7979df	0.06090724
192	0xbd3d8167	-0.046265986
193	0xbdce63f6	-0.1007766
194	0xbd9d50e6	-0.07681446
195	0xbdf2c9ff	-0.11854934
196	0x3d67ba8a	0.056574382
197	0xbd39a39c	-0.045322046
198	0x3d83ed76	0.064417765
199	0xbda21773	-0.07914629
200	0x3d4010e0	0.046891093
201	0xbcbd6a0e	-0.02312186
202	0x3d8bb5e7	0.068218045
203	0x3e159ab1	0.14609791
204	0xbde685d5	-0.11255995
205	0xbe1506c8	-0.14553368
206	0xbcaecf81	-0.02133918
207	0x3d8ee5ad	0.06977401
208	0xbd6880df	-0.056763526
209	0xbc114a4b	-0.0088678105
210	0xbdb51d8f	-0.088435285
211	0xbdb8bb93	-0.09020152
212	0x3cadd353	0.021218931
213	0xbd9b51bf	-0.07583951
214	0xbdd57977	-0.10423558
215	0x3d8fd555	0.07023112
216	0x3bec67c3	0.007214518
217	0xbdcf4d47	-0.10122161
218	0xbdaa85f8	-0.08326334
219	0xbdf39c3a	-0.11895032
220	0xbdf08906	-0.11744885
221	0x3c9a41fa	0.018830288
222	0x3d91a120	0.0711081
223	0x3c716e46	0.014735764
224	0xbcc0a63c	-0.023516767
225	0xbddee607	-0.10883718
226	0xbd45df15	-0.04830845
227	0x3dbb0c17	0.09133165
228	0x3d14c4e6	0.03632059
229	0x3dc14b80	0.094382286
230	0xbd4dbcb0	-0.050228775
231	0xbdc15af9	-0.0944118
232	0xbc3f5875	-0.011678805
233	0xbe08bf87	-0.13354312
234	0x39960083	0.0002861061
235	0xbe12f176	-0.14349923
236	0xbb031f2c	-0.0020007594
237	0xbd1417bd	-0.03615545
238	0xbd3cb7fc	-0.0460739
239	0xbd7d9b7d	-0.061915863
240	0x3cbe6fd7	0.023246689
241	0xbd0e862c	-0.034795925
242	0xbc277f7b	-0.010223265
243	0xbda3d5ba	-0.079997495
244	0x3c0600da	0.008178914
245	0xbdfcec71	-0.12349785
246	0xbc7d3aed	-0.0154559435
247	0x3e0794a8	0.13240302
248	0xbb8f8f23	-0.004381077
249	0xbd8120d6	-0.06305091
250	0x3d3abf10	0.045592368
251	0x3c414dff	0.011798381
252	0x3dc0cc3d	0.09413955
253	0xbdbf40a2	-0.093384996
254	0xbc6ff2cf	-0.014645292
255	0x3dac3f64	0.08410528

lstm.weight_hh_l0_reverse f4 [256, 64]
0	0x3d40d624	0.04707922
1	0x3dd0e82a	0.10200532
2	0xbb6dce40	-0.0036286265
3	0xbcfb8330	-0.030702204
4	0xbd66cda4	-0.056348458
5	0xbda1cd5e	-0.07900499
6	0x3d11370c	0.035452887
7	0xbc3d1ef0	-0.011543021
8	0xbdf1b570	-0.118021846
9	0xbd64de7c	-0.05587624
10	0x3ccb4d18	0.024817035
11	0x3cbda180	0.023148298
12	0x3ddd68ec	0.10811028
13	0x3d14ca78	0.0363259
14	0x3d3b2c4c	0.04569654
15	0x3d9c6370	0.07636154
16	0xbd6b3444	-0.05742289
17	0xbc919ea0	-0.017775834
18	0x3c3f5f00	0.011680365
19	0x3dd1d55a	0.10245772
20	0xbb955620	-0.004557386
21	0x3dac8aaa	0.084248856
22	0xbd1fc308	-0.039004356
23	0xbde37a4c	-0.11107311
24	0xbd8b5d74	-0.06804934
25	0xbd64fef4	-0.055907205
26	0x3daa49a8	0.0831483
27	0xbd598a48	-0.05311039
28	0xbdeabbf0	-0.114616275
29	0xbd7f7294	-0.06236513
30	0x3d3377a4	0.04381527
31	0xbdb0e9d6	-0.08638351
32	0x3d2a4438	0.041568965
33	0x3d6cd588	0.057820827
34	0x3d1db3bc	0.038501486
35	0xbddf764e	-0.10911237
36	0x3deb6c06	0.11495213
37	0x3c791790	0.015203372
38	0x3cc00190	0.023438245
39	0xbc88a430	-0.016679853
40	0xbccf20a0	-0.025284111
41	0x3db9f358	0.09079617
42	0xbdad665a	-0.08466788
43	0xbda82458	-0.08210057
44	0xbb342000	-0.0027484894
45	0x3d8f35fc	0.069927186
46	0x3db01752	0.08598198
47	0xbce881b8	-0.028382167
48	0x3c0ffbe0	0.008788079
49	0x3de303ac	0.11084685
50	0xbdbf0a56	-0.09328143
51	0x3c1a5ab0	0.009421036
52	0x3d42e1f0	0.047578752
53	0xbd0d2558	-0.034459442
54	0xbc5efc80	-0.013610005
55	0x3dad05f4	0.08448401
56	0xbd4080b0	-0.046997726
57	0x3c1d10e0	0.009586543
58	0x3dc6f86a	0.0971535
59	0x3daf350a	0.08555038
60	0xbdb1e5a8	-0.086863816
61	0xbdd93270	-0.10605323
62	0xbc639bf0	-0.013892159
63	0x3d6ae33c	0.057345614
64	0xbdeccbb6	-0.11562292
65	0x3cd9f120	0.026604235
66	0x3bf96580	0.0076109767
67	0xbcc6ee80	-0.024283648
68	0x3ddf8556	0.10914104
69	0xbc453f90	-0.01203908
70	0xbce76070	-0.028244227
71	0xbcd04f08	-0.02542831
72	0xbc3db440	-0.0115786195
73	0xbd0dcfb4	-0.03462191
74	0x3db02124	0.08600071
75	0xbdbec27a	-0.09314437
76	0xbde9b614	-0.11411682
77	0xbdb5b2c4	-0.088719875
78	0xbdc25b42	-0.09490062
79	0xbd9c3be6	-0.07628612
80	0x3a056b00	0.00050894916
81	0x3da8bdd4	0.08239332
82	0xbdcc1fc2	-0.09966995
83	0xbd5206bc	-0.051275954
84	0x3b95d6c0	0.0045727193
85	0xbdfa5b46	-0.1222444
86	0xbc828ab8	-0.015935287
87	0xbcfc6988	-0.03081204
88	0x39a2b600	0.00031034648
89	0xbc34fb10	-0.011046186
90	0xbdf2e4bc	-0.11860034
91	0x3dddca10	0.10829556
92	0x3dea4452	0.11438812
93	0xbdac789a	-0.084214404
94	0x3d604840	0.054756403
95	0x3ba31bc0	0.0049776733
96	0x3dc94b92	0.09828867
97	0xbddf78fa	-0.10911746
98	0xbcc332f0	-0.023828
99	0xbd2dd49c	-0.04243909
100	0x3da7de78	0.081967294
101	0xbdd9de48	-0.106381
102	0x3c966130	0.01835689
103	0x3de17bd2	0.11009945
104	0xbd1ec534	-0.038762286
105	0xbc63bfc0	-0.013900697
106	0x3bd1c860	0.0064020604
107	0x3cbad538	0.022806749
108	0xbdd95610	-0.10612118
109	0x3b0c3800	0.0021395683
110	0xbdbd0b64	-0.09230688
111	0xbd012ba8	-0.031535774
112	0x3d0890d4	0.033341244
113	0xbce54370	-0.027986258
114	0x3cf54750	0.029941231
115	0x3c263870	0.010145292
116	0x3d8e5aac	0.06950888
117	0x3db30266	0.08740692
118	0x3dcbdc66	0.09954147
119	0x3dcbb3de	0.09946416
120	0x3cb8ed10	0.022573978
121	0x3dd4d3c4	0.103919536
122	0xbd7d1f40	-0.06179738
123	0xbd18748c	-0.037220523
124	0xbda33030	-0.079681754
125	0xbd4078f0	-0.046990335
126	0xbbf47180	-0.0074598193
127	0xbd94bd4e	-0.072626695
128	0xbb5278c0	-0.003211543
129	0x3cdd3290	0.02700165
130	0x39778000	0.0002360344
131	0xbdf0315a	-0.11728163
132	0x3c8d0f40	0.017219186
133	0xbc9a39c8	-0.01882638
134	0xbdae6908	-0.08516127
135	0x3c9ca020	0.019119322
136	0xbd90301e	-0.070404276
137	0x3d0fc3f4	0.035098985
138	0xbdd3b49e	-0.10337184
139	0xbded63c4	-0.115912944
140	0x3aa6aa80	0.0012715608
141	0xbd4e1bfc	-0.050319657
142	0xbd8161d6	-0.06317489
143	0xbdc1e98a	-0.09468372
144	0x3d169fe8	0.036773592
145	0x3dc8d5cc	0.098064035
146	0xbdcba9fc	-0.09944531
147	0xbd5e30a0	-0.05424559
148	0x3dd09d0e	0.10186206
149	0xbd8cec40	-0.068809986
150	0xbccef148	-0.025261536
151	0x3d181d20	0.03713715
152	0xbcc1e8f0	-0.023670644
153	0x3da54748	0.080702364
154	0x3d902cec	0.07039818
155	0xbbc93d60	-0.0061413497
156	0x3dd3ef34	0.10348359
157	0x3dfa8598	0.12232512
158	0xbdd752e8	-0.1051386
159	0x3dddf428	0.10837585
160	0x3b20a4c0	0.002451226
161	0x3df9360e	0.12168513
162	0x3db5fac0	0.088857174
163	0x3d9d0e56	0.0766875
164	0xbde3106a	-0.11087115
165	0x3da24832	0.079239264
166	0x3d1255b4	0.035726264
167	0xbdb2c332	-0.08728637
168	0x3c8441f8	0.016144738
169	0xbc878990	-0.016545087
170	0xbc0baa90	-0.008524552
171	0x3daabed8	0.08337182
172	0xbce0cf28	-0.02744253
173	0xbd36c548	-0.044621736
174	0xbdf48c2c	-0.11940798
175	0x3d311124	0.043229237
176	0x3de48d4c	0.11159763
177	0xbdc8be0e	-0.09801875
178	0x3d12cd68	0.035840422
179	0xbd9e9ed0	-0.07745135
180	0x3d107384	0.035266414
181	0xbd88d410	-0.06681073
182	0x3de47bb8	0.1115641
183	0x3d4fcd54	0.050732926
184	0x3cc2e910	0.023792773
185	0xb994d600	-0.00028388202
186	0xbd3629bc	-0.044473395
187	0x3c9c45f8	0.019076332
188	0xbdefbaca	-0.11705549
189	0xbd2ab3e0	-0.04167545
190	0xbd29d0a8	-0.041458756
191	0xbd469b44	-0.048487917
192	0x3c2520f0	0.010078654
193	0xbdd4e5fc	-0.103954285
194	0x3d874796	0.06605451
195	0xbc4c5950	-0.012472466
196	0xbdf98154	-0.121828705
197	0xbd540308	-0.051760703
198	0xbdcfd7f8	-0.10148615
199	0xbdaaf210	-0.08346951
200	0xbdbded46	-0.09273772
201	0xbd7a4164	-0.061097518
202	0x3dd86e32	0.10567893
203	0xbd525f94	-0.05136068
204	0x3dd915c6	0.10599856
205	0x3c2af270	0.010433778
206	0xbd3f9ea0	-0.046782136
207	0xbba42360	-0.0050091
208	0x3db576e6	0.08860569
209	0xbd21b518	-0.039479345
210	0xbde168c4	-0.110063106
211	0xbde27088	-0.1105662
212	0xbd1b75e0	-0.03795421
213	0xbdba2d0a	-0.09090622
214	0x3d2f1b38	0.042750567
215	0x3d914d7a	0.070948556
216	0x3dfa30e6	0.12216358
217	0x3df4ed22	0.11959292
218	0x3db00c1a	0.08596058
219	0xbce69060	-0.028145015
220	0x3d961dfa	0.07329936
221	0xbdab7e20	-0.08373666
222	0xbd22e0a4	-0.039765015
223	0xbde6ab92	-0.11263193
224	0x3dea7164	0.11447409
225	0x3be30160	0.006927654
226	0xbd4fe4fc	-0.050755486
227	0xbdcafa24	-0.09910992
228	0xbdcc12e8	-0.099645436
229	0xbcddb620	-0.027064383
230	0xbd44a694	-0.048010424
231	0xbdfec456	-0.12439792
232	0x3dc34a30	0.095356345
233	0xbd30e9f8	-0.04319188
234	0xbdb93dec	-0.09045014
235	0x3debf1d8	0.115207374
236	0xbb631680	-0.0034650862
237	0xbda99e82	-0.08282186
238	0x3ca05410	0.019571334
239	0x3d083d08	0.03326133
240	0x3d88a7c8	0.06672627
241	0x3dc78a64	0.09743193
242	0xbdb9da1a	-0.09074803
243	0x3c27e9d0	0.010248616
244	0x3d185458	0.03718981
245	0x3b9fb1c0	0.0048734844
246	0xbcec1c40	-0.028822064
247	0x3d8a4028	0.06750518
248	0x3dc4ddea	0.09612639
249	0xbd84935c	-0.06473419
250	0xbdddbf28	-0.10827476
251	0xbde649b8	-0.112445295
252	0xbdbc0b2e	-0.0918182
253	0x3d750834	0.059822276
254	0xbdf81c2a	-0.12114747
255	0x3cbeeb88	0.02330567

lstm.bias_ih_l0_reverse f4 [256]
0	0x3dc710e1	0.09720016
1	0x3d62cdbb	0.05537198
2	0x3d41ebfe	0.0473442
3	0xbd0a733c	-0.033801302
4	0x3d03956e	0.03212493
5	0xbc870706	-0.016482841
6	0x3dab14fd	0.083536126
7	0x3dee49b4	0.116351515
8	0xbd15662d	-0.036474396
9	0x3dfe4e92	0.1241733
10	0x3d4b7256	0.049669586
11	0x3dafba45	0.0858045
12	0x3d8d0d6c	0.06887326
13	0x3c764f4d	0.015033555
14	0xbdb492ce	-0.08817063
15	0xbdb32389	-0.08747012
16	0xbcdb24ab	-0.026750883
17	0xbdd262c3	-0.102727436
18	0x3cc4797f	0.023983715
19	0xbd924719	-0.07142467
20	0x3cb0cce4	0.021582074
21	0xbc721e45	-0.014777725
22	0x3cadd90d	0.021221662
23	0xbdac3dc1	-0.08410216
24	0x3bcccb99	0.0062498567
25	0xbda6f7be	-0.08152722
26	0xbd0eb2b4	-0.034838393
27	0x3c63611e	0.013878135
28	0xbd1d25d5	-0.038366158
29	0x3e0ceb5e	0.1376166
30	0xbdb73976	-0.08946507
31	0xbde215e8	-0.110393345
32	0x3dce9d1f	0.10088562
33	0x3d546622	0.051855214
34	0x3dff9095	0.12478749
35	0xbddd0c79	-0.107933946
36	0x3d0f31cb	0.034959596
37	0x3de98d9d	0.11403964
38	0x3ddd8a40	0.10817385
39	0xbd40c667	-0.04706421
40	0x3c4a96ff	0.012365102
41	0x3d83109b	0.063996516
42	0xbdc4072b	-0.0957168
43	0x3de9a2d6	0.114080116
44	0xbd4c0e26	-0.04981818
45	0x3df1d4d7	0.11808174
46	0xbd589ecd	-0.05288582
47	0x3cf2aa4d	0.029622221
48	0x3dbc5458	0.09195775
49	0x3c4d805b	0.012542809
50	0xbd99a46e	-0.075020656
51	0xbcbbc7be	-0.022922393
52	0x3dc44638	0.09583706
53	0xbd829161	-0.06375385
54	0xbcad3ef4	-0.021148182
55	0x3e0bc9a4	0.13651139
56	0xbd87a3c0	-0.0662303
57	0xbd774ad0	-0.06037408
58	0xbd57db4a	-0.052699365
59	0x3d8a3f4d	0.06750355
60	0x3d6410f9	0.05568025
61	0x3ce55563	0.027994817
62	0xbdcb30eb	-0.0992144
63	0x3e013981	0.12619592
64	0xbd46fb84	-0.048579708
65	0x3d8bdf18	0.06829661
66	0xbdea299c	-0.114337176
67	0x3d2de820	0.0424577
68	0x3d93b448	0.0721212
69	0x3d14d034	0.03633137
70	0xbde7fde2	-0.11327721
71	0x3c4067c0	0.011743486
72	0xbbc8c5a0	-0.0061270744
73	0x3df02cc4	0.11727288
74	0x3dbeabde	0.09310125
75	0x3dcf4466	0.10120468
76	0x3dff32bc	0.12460849
77	0x3d9d7bf2	0.07689656
78	0xbd534458	-0.05157885
79	0x3d0c7648	0.03429249
80	0xbc998e18	-0.018744513
81	0xbbc275c0	-0.005934447
82	0xbcd93670	-0.026515216
83	0xbb345f00	-0.0027522445
84	0xbc18ef90	-0.00933446
85	0xbc4b4b40	-0.012408078
86	0xbd1965b4	-0.037450507
87	0x3d54624c	0.051851556
88	0x3d90fd00	0.07079506
89	0xbd61595c	-0.05501686
90	0xbc85c2f0	-0.016328305
91	0x3db571ae	0.08859573
92	0xbd1ad6b0	-0.0378024
93	0xbcdbb800	-0.026821136
94	0x3d2e3b20	0.042536855
95	0xbc9aed98	-0.018912122
96	0xbdf1e35e	-0.11810945
97	0xbdfc500c	-0.12319955
98	0x3d975c1a	0.07390614
99	0xbdf5a320	-0.11994004
100	0x3bcc6380	0.0062374473
101	0xbcf41af8	-0.029798016
102	0xbd951d4c	-0.072809786
103	0xbd8b80aa	-0.0681165
104	0x3ce71098	0.028206155
105	0x3d29f7bc	0.041496024
106	0x3dec34ec	0.115335315
107	0x3c8311b8	0.01599966
108	0x3df80974	0.12111178
109	0xbd6e53c8	-0.05818537
110	0x3db73cf6	0.08947174
111	0x3d5258e4	0.051354304
112	0x3d1f65f8	0.038915604
113	0xbc9de598	-0.019274518
114	0xbd8512bc	-0.06497714
115	0x3c8bc258	0.017060444
116	0x3c131a00	0.008978367
117	0x3dfaf5b6	0.12253897
118	0xbd30af20	-0.043135762
119	0xbd685ab0	-0.05672711
120	0x3ce15ff8	0.027511582
121	0xbbb1a2c0	-0.0054210126
122	0x3dea3556	0.11435954
123	0xbdadfb6a	-0.08495219
124	0x3d656474	0.056004003
125	0xbc12e650	-0.008966044
126	0x3da84458	0.082161605
127	0xbdd5a9da	-0.10432787
128	0xbc7a5f86	-0.015281564
129	0x3e0f2f51	0.13982894
130	0x3d24d835	0.040245254
131	0x3d71bec9	0.059019838
132	0x3dfaf3e3	0.12253549
133	0xbdcce04b	-0.10003718
134	0x3b350d82	0.002762646
135	0xbd59370b	-0.05303101
136	0x3df6727b	0.12033554
137	0x3d9841b3	0.07434406
138	0x3d9f28b7	0.077714376
139	0x3c5e8d08	0.013583429
140	0x3cff23b6	0.031144958
141	0xbd0c4c35	-0.034252364
142	0x3d5b1cbc	0.0534942
143	0x3d1b39bd	0.03789686
144	0x3d897950	0.06712592
145	0xb9ad6ef2	-0.00033079792
146	0xbe0cdd1b	-0.1375622
147	0x3db127da	0.08650179
148	0xbde923f2	-0.11383809
149	0xbdb7a612	-0.08967222
150	0xbd0b4f1b	-0.034010988
151	0x36e3106d	6.7670394e-06
152	0xbd352229	-0.04422203
153	0x3cb7aa65	0.022420118
154	0xbd4fd8f2	-0.050744005
155	0xbd1e77f0	-0.0386886
156	0x3dae4697	0.08509558
157	0x3e0a208e	0.13488981
158	0x3d2b6b9e	0.04185068
159	0x3d6ab264	0.057299033
160	0xbd57da8b	-0.052698653
161	0x3d2c9047	0.04212978
162	0x3c3ae27a	0.011406535
163	0x3d6b8edc	0.05750929
164	0x3da0f484	0.07859138
165	0xbba1a213	-0.004932651
166	0xbde2a0ea	-0.11065848
167	0xbb83d8ba	-0.0040236386
168	0xbdc0c282	-0.094120994
169	0x3bb1ec58	0.0054297857
170	0x3e028265	0.12745054
171	0x3dea991e	0.11454986
172	0x3e020f0f	0.12701057
173	0x3de7b316	0.11313455
174	0x3d8d5294	0.06900516
175	0x3dce2453	0.10065522
176	0xbe0a292f	-0.13492273
177	0xbcb16b2f	-0.021657554
178	0x3e0b4186	0.13599214
179	0xbdaf91f5	-0.08572761
180	0xbde237ca	-0.11045797
181	0xbd56cf9b	-0.05244408
182	0xbd13f3e4	-0.036121264
183	0xbdb704f5	-0.08936492
184	0xbe0f3216	-0.1398395
185	0xbbdce3ce	-0.0067410236
186	0xbdba0ca2	-0.09084441
187	0x3ccf8d19	0.025335835
188	0x3d339e1d	0.04385196
189	0x3dfb7cfe	0.122797
190	0xbd6cb622	-0.057790883
191	0x3d4fee5a	0.05076442
192	0x3d9d5638	0.076824605
193	0x3e0c986f	0.13730024
194	0xba8d6db0	-0.0010790136
195	0x3d3f8472	0.04675717
196	0x3be9d019	0.007135403
197	0x3e0f46fc	0.13991922
198	0xbd9025af	-0.070384376
199	0x3df0fce4	0.11766985
200	0x3ddf183b	0.108932935
201	0xbde39148	-0.111116946
202	0xbd2a7d08	-0.041623145
203	0x3de42589	0.11139972
204	0x3d176264	0.036959067
205	0x3df3ae35	0.11898462
206	0x3d47fbfa	0.048824288
207	0xbcabf599	-0.020991134
208	0x3da0dc71	0.07854546
209	0x3c7b8b0f	0.015352978
210	0x3d766817	0.06015786
211	0xbddb46c5	-0.107068576
212	0x3dca0169	0.0986355
213	0x3e042f8a	0.1290876
214	0x3db314b6	0.08744185
215	0x3d8b03b1	0.067878135
216	0x3d3147f9	0.04328153
217	0x3d8d9e7d	0.06914995
218	0x3dcf4618	0.10120791
219	0x3dcfb063	0.10141065
220	0x3da6b969	0.08140833
221	0xbd91c16d	-0.07116971
222	0xbd037efb	-0.03210352
223	0x3dcdd514	0.10050407
224	0x3d25cca1	0.040478352
225	0x3d95e941	0.0731988
226	0x3dea8e98	0.11452979
227	0xbdb45261	-0.08804775
228	0x3d79213e	0.060822718
229	0x3dd2cf1c	0.10293409
230	0xbc2bd82d	-0.010488552
231	0xbc5c924e	-0.013462616
232	0x3d84c254	0.06482378
233	0x3dfa70f5	0.12228576
234	0xbd42890e	-0.047493987
235	0x3da8eed2	0.08248676
236	0x3c98cd13	0.018652475
237	0x3d1556e1	0.036459807
238	0xbd9ea21f	-0.07745766
239	0x3d6899bc	0.056787238
240	0x3d526715	0.051367838
241	0xb838a92f	-4.4026583e-05
242	0x3d09ca12	0.033639975
243	0xbd7ca924	-0.061684743
244	0xbc7fe0cc	-0.015617561
245	0x3d67498d	0.056466628
246	0xbcfcff04	-0.03088332
247	0xbd08790f	-0.033318575
248	0x3dac220b	0.08404931
249	0x3df23a5f	0.1182754
250	0xbd78bc68	-0.060726553
251	0x3d8c80a8	0.06860477
252	0x3dbe12b4	0.09280911
253	0x3d839f38	0.06426853
254	0xbdca6151	-0.09881843
255	0xbdbb2e3f	-0.0913968
