TadGAN/models/encoder.pt (torch, 83235 bytes, 10 tensors)

lstm.weight_ih_l0 f4 [80, 100]
0.024241533 0.06932578 -0.06843835 0.01617748 0.03979038 -0.1589287 -0.052417457 -0.10649794
-0.006038021 -0.13708769 -0.03868378 -0.07448908 0.23945875 -0.09786109 0.07046667 -0.10444386
-0.04012286 0.06991571 -0.17572826 -0.0062027746 0.1024017 0.15856595 0.18016586 0.1973504
0.013297321 0.06588976 0.15748747 0.20847468 0.21100357 0.18045323 -0.101972006 0.16887757
-0.026135271 -0.1428426 0.16712955 -0.091904975 0.06863066 0.09428827 -0.10351242 0.12658694
0.041380946 0.02637154 -0.18599738 -0.15507093 0.20228975 -0.14241347 0.20089616 0.11998028
0.09401842 0.118738644 -0.06314188 0.015226258 0.08922302 0.20751584 -0.17518051 -0.0526858
-0.1397763 0.11865882 0.19176474 0.20749903 -0.11825194 0.19146654 0.12209335 0.22162999
-0.15957235 0.19948678 0.061419133 0.21367364 -0.03186048 -0.06056591 -0.119878925 0.09346401
0.073016 -0.021892251 -0.10944613 0.063649245 -0.08737857 -0.09211391 -0.09587058 0.06769519
0.19507502 0.16113135 -0.07748349 -0.10877501 0.082512684 0.0849457 -0.118128195 0.07507243
0.17164522 0.216667 -0.16970883 0.07627728 0.16509318 -0.17913705 0.18027072 0.18575178
0.16044138 0.009539458 0.0812476 0.070627205 0.03624576 -0.06965381 0.088381976 0.0516326
-0.043616403 0.15060146 0.19557674 -0.001379364 0.12736867 -0.17119458 0.08908557 0.13234057
0.13290696 0.014332769 0.16043504 0.19573124 -0.156768 -0.017890973 0.22183475 -0.16785006
0.067552164 0.21555617 0.013010862 0.10788429 0.23467328 0.061660107 0.055410452 0.033820473
-0.059854385 0.23835702 -0.016484693 -0.06516826 0.1916518 -0.119503595 0.23887482 -0.15677707
0.18342009 -0.08477832 0.0029738436 0.08656449 0.21445897 0.01077335 0.04999196 0.06898814
-0.0487318 0.22985987 0.06274501 -0.05283237 -0.1339996 -0.025336124 0.099751055 0.07991257
0.12684362 0.23122747 -0.13125591 -0.11392212 0.07838157 0.14576459 -0.14476797 0.039556827
0.19763327 -0.1610404 0.10706602 -0.014978572 -0.15260598 -0.11081043 0.11875341 -0.19534247
0.1739806 0.05598722 0.15741618 0.05455099 -0.017754905 -0.018710827 0.19613437 0.17265438
0.13408339 0.10541632 -0.17776611 0.046764765 -0.016383238 0.030202096 -0.062136035 -0.0128051
0.090473175 0.040262796 -0.055847995 -0.057895925 -0.13136667 0.15065026 -0.11073462 -0.16352212
-0.19384617 -0.028858248 -0.11544731 -0.17964955 -0.08065372 0.04289469 -0.009026591 0.15637235
0.1504479 -0.12393101 -0.17587656 -0.08532066 -0.09616174 -0.15373446 0.19982152 -0.021174666
-0.22271489 -0.14226077 0.14768785 -0.0681935 -0.015557425 -0.18297516 -0.21950956 -0.14964427
-0.18229605 -0.08511083 0.12528014 -0.23355967 0.17746067 0.18631388 -0.022021415 -0.0036604689
0.13111736 -0.118723534 0.08011744 0.0829456 0.12704617 0.14454387 -0.21743591 -0.12311308
0.06175621 0.11452912 0.06946818 0.11895639 0.20492855 0.094746016 -0.057595577 0.15579471
0.18523937 0.061413754 0.18547179 -0.21114624 -0.026782945 -0.16038676 0.019874815 -0.054020848
-0.058381286 -0.067966685 0.14971116 -0.10521559 -0.05002409 -0.22167185 0.0062604635 0.18390167
00000000: 2e96 c63c adfa 8d3d 6829 8cbd a286 843c
00000010: 3dfb 223d 35be 22be b0b3 56bd 981b dabd
00000020: 97da c5bb b760 0cbe e272 1ebd bb8d 98bd
00000030: ad34 753e 656b c8bd d450 903d aae6 d5bd
00000040: de57 24bd f82f 8f3d 1cf2 33be a540 cbbb
00000050: fcb7 d13d 1d5f 223e 667d 383e 3916 4a3e
00000060: 02dd 593c 36f1 863d 6544 213e 637a 553e
00000070: 5211 583e bbc8 383e b3d6 d0bd 3eee 2c3e
00000080: a319 d6bc 5545 12be 0224 2b3e ad38 bcbd
00000090: 3b8e 8c3d 351a c13d 52fe d3bd 02a0 013e
000000a0: 117f 293d 2109 d83c 1976 3ebe eaca 1ebe
000000b0: 0b25 4f3e d6d4 11be b9b7 4d3e 39b8 f53d
000000c0: bb8c c03d 3f2d f33d 8850 81bd 8e77 793c
000000d0: 8fba b63d 087f 543e 8562 33be 11cd 57bd
000000e0: 8521 0fbe 6503 f33d fa5d 443e a07a 543e
000000f0: 132e f2bd ce0f 443e 140c fa3d f9f2 623e
00000100: ef66 23be 4346 4c3e a192 7b3d 43cd 5a3e
00000110: 2280 02bd f613 78bd 1583 f5bd 0f6a bf3d
00000120: 6a89 953d 6157 b3bc 4b25 e0bd 895a 823d
00000130: 89f3 b2bd 38a6 bcbd cb57 c4bd c7a3 8a3d
00000140: bfc1 473e 9eff 243e aaaf 9ebd 6fc5 debd
00000150: 69fc a83d 03f8 ad3d 32ed f1bd 93bf 993d
00000160: c4c3 2f3e f4dd 5d3e 27c8 2dbe 4337 9c3d
00000170: 300e 293e b46f 37be e398 383e b735 3e3e
00000180: bf4a 243e 634b 1c3c 2465 a63d ffa4 903d
00000190: 6f76 143d a8a6 8ebd 9c01 b53d b57c 533d
000001a0: 1da7 32bd 4537 1a3e 4545 483e c7cb b4ba
000001b0: ef6c 023e a24d 2fbe 7f72 b63d 4984 073e
000001c0: c318 083e fed3 6a3c 1549 243e c56d 483e
000001d0: ca87 20be 1790 92bc a628 633e e3e0 2bbe
000001e0: ca58 8a3d c2ba 5c3e 832b 553c 70f2 dc3d
000001f0: 314e 703e 4f8f 7c3d 12f6 623d 5687 0a3d
00000200: df29 75bd dd13 743e e80a 87bc f076 85bd
00000210: 5f40 443e 4dbe f4bd 9a9b 743e 2b8a 20be
00000220: 7ad2 3b3e 41a0 adbd d1e4 423b b948 b13d
00000230: 229b 5b3e b482 303c 5fc4 4c3d a749 8d3d
00000240: ff9a 47bd 6360 6b3e 7580 803d c166 58bd
00000250: 3137 09be b48d cfbc 484a cc3d 34a9 a33d
00000260: 4be3 013e e5c6 6c3e f367 06be 0050 e9bd
00000270: 8486 a03d 5043 153e 0e3e 14be 5706 223d
00000280: 6060 4a3e c6e7 24be 6e45 db3d af68 75bc
00000290: be44 1cbe 94f0 e2bd fd34 f33d db07 48be
000002a0: f827 323e db52 653d b531 213e dc70 5f3d
000002b0: bc72 91bc 7347 99bc 73d7 483e 4fcc 303e
000002c0: 284d 093e 83e4 d73d 5208 36be 698c 3f3d
000002d0: 2436 86bc 636a f73c 5b82 7ebd 7bcc 51bc
000002e0: 004a b93d 9aea 243d dec0 64bd 4724 6dbd
000002f0: fc84 06be 1044 1a3e d5c8 e2bd 5872 27be
00000300: 9c7f 46be 2268 ecbc a46f ecbd 0df6 37be
00000310: c72d a5bd 58b2 2f3d 44e4 13bc 1320 203e
00000320: 040f 1a3e 8bcf fdbd fc18 34be 99bc aebd
00000330: 72f0 c4bd 916c 1dbe 039e 4c3e 7e76 adbc
00000340: 5f0f 64be cfac 11be 7c3b 173e 09a9 8bbd
00000350: 92e4 7ebc d75d 3bbe 1dc7 60be 593c 19be
00000360: d1ab 3abe 964e aebd 7049 003e 442a 6fbe
00000370: 40b8 353e 11c9 3e3e 4166 b4bc 7ae4 6fbb
00000380: a143 063e 5325 f3bd 9d14 a43d 62df a93d
00000390: 6418 023e 4f03 143e 85a7 5ebe b622 fcbd
000003a0: 14f4 7c3d 3e8e ea3d 5545 8e3d 689f f33d
000003b0: cad8 513e 330a c23d 57e9 6bbd a688 1f3e
000003c0: 64af 3d3e fd8c 7b3d 51ec 3d3e b836 58be
000003d0: e867 dbbc 6d3c 24be 82d0 a23c f744 5dbd
000003e0: 3721 6fbd 1e32 8bbd e24d 193e 457b d7bd
000003f0: 0fe6 4cbd f2fd 62be 9324 cd3b b850 3c3e

lstm.weight_hh_l0 f4 [80, 20]
-0.15048867 -0.015359938 0.10167861 -0.02418302 0.2103351 0.11163029 -0.15203148 -0.19251198
-0.03444697 -0.08733411 0.21783024 0.112041 0.008998796 -0.08280747 0.0022203326 -0.040893868
-0.21274629 -0.17583984 -0.040344 0.03033033 -0.06607142 -0.21876474 -0.055075556 -0.20312658
0.031995773 -0.11881539 -0.012475014 0.10125831 -0.16792394 0.17440379 0.17103243 0.12368655
-0.21504681 0.060516894 0.20928991 -0.082447484 0.13931587 0.15743345 0.028440773 0.14995831
0.07459706 -0.19585979 0.075977445 0.03558269 0.07279301 0.16716236 0.13598686 0.07648519
-0.22035497 0.008968845 -0.14143781 -0.07620348 -0.06415984 0.009926811 -0.0025174767 0.19267017
-0.20274177 0.1930151 -0.001457125 -0.1767328 -0.041612566 -0.16163 -0.11111602 -0.17594925
-0.08426516 -0.10290128 -0.11510744 0.093806565 0.22083032 -0.14044145 0.09136909 -0.09385413
-0.06134078 -0.105697066 0.08058137 0.18339857 0.016547859 -0.15135582 -0.037328333 0.14903796
-0.052170902 0.14101407 0.20752496 0.056236625 0.21752578 -0.20950958 0.21604195 -0.15328315
0.17452008 -0.05824311 -0.21725637 -0.17919114 -0.010204926 -0.055494368 0.0008535534 -0.008860916
0.11264005 0.13507873 0.1905221 0.08181989 0.04854679 -0.2030499 0.21256939 -0.13042851
0.09576014 0.21841818 -0.1964012 -0.19556731 -0.107344784 -0.029852808 -0.010708123 0.17216823
-0.15193495 0.1458531 -0.03879139 0.19499445 0.14991426 0.2042521 -0.11982246 -0.13368979
-0.17965738 -0.05008602 -0.16720265 -0.049164414 -0.17271128 0.2200183 -0.13924304 -0.2162934
0.037745148 -0.18479826 -0.17287207 -0.11901969 -0.12829393 -0.033646256 -0.10136845 0.19886926
-0.088096425 0.02101776 -0.08473404 0.15338853 -0.16668057 0.1311369 0.16999662 -0.16124952
-0.11975849 -0.059879467 -0.023630261 -0.083972365 0.059140205 -0.13848504 -0.006449908 -0.048182756
-0.052016243 0.21076775 -0.06588139 0.19666731 -0.10999745 -0.013225615 0.17009842 0.023203835
0.10959524 0.06132531 -0.21286997 -0.0033271015 0.19217804 -0.04515727 -0.20104696 -0.16356473
0.020835668 -0.07483858 0.064801395 0.1164659 -0.018142506 -0.18402116 -0.07902154 -0.056509405
-0.10298125 -0.106734596 0.17954266 0.17118213 0.20381063 -0.20762964 0.029600382 0.14645189
0.09117779 -0.013946876 0.16491905 -0.2090967 -0.050899297 0.09475899 0.118561596 0.08413541
-0.0308377 -0.10475917 -0.15582156 -0.21336988 0.034238756 0.19020435 -0.104934305 -0.11890992
-0.039587855 0.1817447 0.20768231 -0.042023644 0.14200178 0.21592924 0.14297718 0.1926037
-0.006325394 -0.19291097 -0.07384081 0.16545436 0.18134484 0.0683766 0.18310037 0.11892286
0.20584235 -0.07312727 -0.16301191 -0.004762873 0.083765805 0.05848649 -0.15023531 -0.14615166
0.06627685 0.18087023 -0.110974476 -0.021129385 -0.2197097 0.0864574 0.17545158 0.19606766
-0.0668402 0.034182668 0.22174534 -0.05930738 -0.0623841 -0.16496126 -0.21509156 0.1638912
-0.18295887 0.1319266 0.19816408 0.16407505 -0.20474839 0.08329162 0.10862771 0.03040421
0.04261911 -0.17988932 -0.1774227 -0.1767672 -0.197473 -0.19333327 -0.12294076 0.20595917
00000000: b419 1abe 40a8 7bbc e03c d03d 781b c6bc
00000010: 1662 573e 6c9e e43d 24ae 1bbe dc21 45be
00000020: 4418 0dbd 3adc b2bd e40e 5f3e c075 e53d
00000030: b06f 133c f696 a9bd 0083 113b 5480 27bd
00000040: 2ada 59be 5c0f 34be c03f 25bd 5077 f83c
00000050: 7450 87bd dd03 60be e896 61bd 6a00 50be
00000060: 000e 033d 7c55 f3bd 0064 4cbc 8460 cf3d
00000070: 41f4 2bbe e896 323e 2023 2f3e 604f fd3d
00000080: 3b35 5cbe 90e0 773d 1850 563e 3ada a8bd
00000090: d2a8 0e3e 3c36 213e a0fc e83c ac8e 193e
000000a0: 58c6 983d 788f 48be 109a 9b3d 28bf 113d
000000b0: 8014 953d 9c2c 2b3e 2440 0b3e 44a4 9c3d
000000c0: bca4 61be 10f2 123c 13d5 10be 9210 9cbd
000000d0: 3c66 83bd 10a4 223c 40fc 24bb 544b 453e
000000e0: 8a9b 4fbe c0a5 453e 00fd beba 71f9 34be
000000f0: f071 2abd 5682 25be cc90 e3bd 0a2c 34be
00000100: 3693 acbd e8bd d2bd 73bd ebbd a81d c03d
00000110: 5821 623e e2cf 0fbe b81f bb3d 9836 c0bd
00000120: 7840 7bbd b477 d8bd d807 a53d d6cc 3b3e
00000130: 608f 873c 05fd 1abe 98e5 18bd 689d 183e
00000140: 28b1 55bd fe65 103e 6c81 543e 6058 663d
00000150: 14bf 5e3e ae89 56be 1a3a 5d3e 42f6 1cbe
00000160: 64b5 323e 5490 6ebd 7478 5ebe e27d 37be
00000170: 9032 27bc 104e 63bd 00c1 5f3a 602d 11bc
00000180: d4af e63d 1452 0a3e 3a18 433e 3091 a73d
00000190: 00d9 463d 50ec 4fbe caab 593e 0d8f 05be
000001a0: e41d c43d 04a9 5f3e 651d 49be cc42 48be
000001b0: 95d7 dbbd e08d f4bc 2071 2fbc de4c 303e
000001c0: d694 1bbe 845a 153e b8e3 1ebd a0ac 473e
000001d0: 2083 193e 7627 513e 7a65 f5bd fae5 08be
000001e0: 1bf8 37be 0027 4dbd 2c37 2bbe a060 49bd
000001f0: 3adb 30be 7a4c 613e ba95 0ebe 047c 5dbe
00000200: a89a 1a3d c13b 3dbe 6005 31be 98c0 f3bd
00000210: 7c5f 03be a8d0 09bd 439a cfbd 62a4 4b3e
00000220: e66b b4bd 702d ac3c 0a89 adbd e211 1d3e
00000230: 50ae 2abe c048 063e 9813 2e3e 981e 25be
00000240: f043 f5bd 2c44 75bd 4094 c1bc b4f9 abbd
00000250: 003d 723d 06cf 0dbe c059 d3bb 485b 45bd
00000260: fc0e 55bd 80d3 573e d2ec 86bd 2863 493e
00000270: 5846 e1bd 40b0 58bc 482e 2e3e f815 be3c
00000280: 7873 e03d 4030 7b3d 96fa 59be 800b 5abb
00000290: 52ca 443e d4f6 38bd 41df 4dbe 837d 27be
000002a0: 90af aa3c f844 99bd 98b6 843d ac85 ee3d
000002b0: 989f 94bc 0b70 3cbe 0cd6 a1bd 6876 67bd
000002c0: d5e7 d2bd ab97 dabd 08da 373e 5e4a 2f3e
000002d0: bcb3 503e dd9c 54be 807c f23c 7cf7 153e
000002e0: 6cbb ba3d 7081 64bc 8ae0 283e 721d 56be
000002f0: c87b 50bd 0011 c23d 6cd0 f23d 304f ac3d
00000300: 589f fcbc fa8b d6bd b08f 1fbe a27d 5abe
00000310: f03d 0c3d eec4 423e cce7 d6bd 0b87 f3bd
00000320: e026 22bd 481b 3a3e acaa 543e fc20 2cbd
00000330: ea68 113e 8e1c 5d3e 9c68 123e e839 453e
00000340: 4045 cfbb 748a 45be da39 97bd de6c 293e
00000350: 76b2 393e 0809 8c3d aa7e 3b3e d48d f33d
00000360: 56c8 523e c0c3 95bd 98ec 26be e011 9cbb
00000370: 688d ab3d 888f 6f3d 49d7 19be c8a8 15be
00000380: 28bc 873d 0c36 393e 9646 e3bd 8817 adbc
00000390: 94fb 60be 9410 b13d 94a9 333e f6c5 483e
000003a0: 84e3 88bd 2003 0c3d 3611 633e 4cec 72bd
000003b0: 7886 7fbd 9beb 28be f640 5cbe 18d3 273e
000003c0: 9259 3bbe c417 073e 86eb 4a3e 4a03 283e
000003d0: 90a9 51be cc94 aa3d 3478 de3d 4012 f93c
000003e0: 6091 2e3d e834 38be 4cae 35be 7602 35be
000003f0: 5d36 4abe 28f9 45be 5dc8 fbbd f6e6 523e

lstm.bias_ih_l0 f4 [80]
0.11189233 0.1303889 -0.08504929 -0.14368136 0.016201938 0.101050556 -0.08323978 0.053012837
0.12183262 0.085885726 0.24240169 -0.116244346 0.026230734 -0.10284989 -0.01956135 -0.05981
-0.008207784 0.23357625 0.008824069 0.03876439 0.12674421 0.10340971 0.20464969 0.10616395
0.098933786 0.02638483 0.01481162 0.007854626 0.01992859 -0.0063293874 0.13972402 0.1102528
0.026943535 0.21019635 0.17491141 -0.12053377 -0.15794303 0.18361238 0.04279405 0.1789661
-0.044421196 0.0146312 -0.15377028 -0.18506685 -0.18645577 0.13613276 -0.06792922 -0.2480525
-0.05645731 -0.031719938 0.21741341 -0.0029220749 -0.037307702 -0.23237976 0.21690467 -0.015492158
-0.057164386 -0.13756345 -0.06484143 -0.17551538 0.06352816 0.19463286 -0.20530844 0.1334512
-0.01652683 0.09541562 0.17118551 0.15620658 -0.12090483 -0.06708022 -0.06534548 -0.20045355
0.09473765 0.15654641 -0.0150061585 -0.077070676 0.2115261 0.08559178 0.060951047 -0.13002667
00000000: ce27 e53d ab84 053e 522e aebd 3521 13be
00000010: edb9 843c 98f3 ce3d 9e79 aabd fd23 593d
00000020: 6183 f93d dbe4 af3d 2638 783e 8411 eebd
00000030: d6e1 d63c f7a2 d2bd 203f a0bc 55fb 74bd
00000040: f179 06bc 9d2e 6f3e d492 103c 69c7 1e3d
00000050: 3cc9 013e 78c8 d33d b08f 513e 7c6c d93d
00000060: cc9d ca3d 0025 d83c 70ac 723c b0b0 003c
00000070: 4841 a33c c066 cfbb d013 0f3e 38cc e13d
00000080: b0b8 dc3c b63d 573e fa1b 333e 69da f6bd
00000090: d1bb 21be e204 3c3e d048 2f3d e442 373e
000000a0: 00f3 35bd b3b7 6f3c f575 1dbe 2a82 3dbe
000000b0: 43ee 3ebe 6366 0b3e 7a1e 8bbd 7901 7ebe
000000c0: c83f 67bd c4ec 01bd 9fa1 5e3e 4880 3fbb
000000d0: f6cf 18bd f6f4 6dbe 421c 5e3e d2d2 7dbc
000000e0: 3425 6abd 6fdd 0cbe 95cb 84bd 4eba 33be
000000f0: 0d1b 823d d64d 473e 603c 52be 6ea7 083e
00000100: 4663 87bc 4469 c33d 414b 2f3e 9ef4 1f3e
00000110: f49c f7bd 5b61 89bd dad3 85bd b243 4dbe
00000120: d005 c23d b44d 203e 64dc 75bc 3bd7 9dbd
00000130: 4c9a 583e be4a af3d cea7 793d b625 05be

lstm.bias_hh_l0 f4 [80]
-0.024233155 0.21293446 0.09664796 0.03206814 0.22480126 -0.114279225 0.042862996 0.14447361
0.20874494 0.044259746 -0.015428309 -0.061343156 0.25348985 0.18114729 -0.013816846 0.04626529
0.008361344 0.09734883 -0.016848434 -0.08437633 -0.20850217 -0.054063573 -0.099344164 -0.12766348
-0.21884297 -0.20545283 0.13603395 0.010020524 0.1624248 0.12989691 -0.0030406713 -0.09652847
0.049359202 0.14101061 0.093972236 -0.09630242 -0.15913975 0.18295327 -0.15969813 -0.12433121
-0.21660048 -0.03296585 -0.13091885 -0.038050298 0.05511592 -0.1460602 -0.13714764 -0.070124015
0.1491395 -0.13065165 -0.06465241 -0.00544256 -0.15270436 -0.13867006 0.19320038 -0.16032884
-0.12382148 0.22156209 0.035564803 0.1364768 0.046495836 0.15130916 -0.05997116 -0.14554556
-0.15758768 0.10444656 -0.019634327 0.12363475 0.040743515 -0.120951 -0.11575406 -0.20125882
0.038866125 0.14683434 0.20576751 0.015432592 -0.1415638 0.015132748 -0.04214993 -0.14797221
00000000: 9c84 c6bc 7e0b 5a3e 5eef c53d e259 033d
00000010: 4d32 663e 3a0b eabd 1c91 2f3d e4f0 133e
00000020: 3cc1 553e b549 353d 05c7 7cbc f642 7bbd
00000030: 6cc9 813e ad7e 393e 0d60 62bc ac80 3d3d
00000040: 05fe 083c d35e c73d ba05 8abc 7fcd acbd
00000050: 9881 55be c471 5dbd f474 cbbd 37ba 02be
00000060: 5f18 60be 3a62 52be 7c4c 0b3e 202d 243c
00000070: b052 263e b203 053e 0046 47bb b8b0 c5bd
00000080: e02c 4a3d 1665 103e 8474 c03d 343a c5bd
00000090: 88f5 22be 1a58 3b3e e887 23be 5da1 febd
000000a0: 84cc 5dbe 3307 07bd 970f 06be a1da 1bbd
000000b0: 3bc1 613d ce90 15be 6e70 0cbe 2e9d 8fbd
000000c0: 06b8 183e 8cc9 05be 7c68 84bd 8157 b2bb
000000d0: 885e 1cbe 86ff 0dbe 52d6 453e 3e2d 24be
000000e0: 1e96 fdbd 2ce1 623e 66ac 113d 93c0 0b3e
000000f0: 6b72 3e3d caf0 1a3e 52a4 75bd e509 15be
00000100: aa5e 21be 14e8 d53d 2bd8 a0bc 3734 fd3d
00000110: ace2 263d 28b5 f7bd 7710 edbd cb16 4ebe
00000120: 1632 1f3d be5b 163e b8b4 523e fbd8 7c3c
00000130: 1af6 10be 58ef 773c 68a5 2cbd 0786 17be

lstm.weight_ih_l0_reverse f4 [80, 100]
-0.14349556 0.16544 0.10172645 0.030339435 0.0060665687 0.19827573 0.08381683 -0.027984705
0.118374616 -0.02334927 0.08390304 0.080517635 -0.10054369 -0.14242408 -0.08851308 0.0101469895
-0.06435893 0.19824211 -0.08860281 -0.17225458 0.087902516 0.10641394 -0.06305327 -0.1729324
-0.16960698 -0.028227886 -0.008947637 -0.1608871 0.032425743 0.15372474 0.13824716 0.16849892
-0.029912287 0.14056398 0.18633746 0.12714656 0.031756807 -0.0065827915 -0.16870506 0.056594063
0.16398622 -0.05905038 0.25075987 0.1431041 0.23242848 -0.086892635 -0.072825335 -0.0777932
-0.1784784 0.079354994 0.12572375 -0.18640648 0.114313275 -0.052950595 0.22322309 0.11205428
-0.064252324 -0.07046193 -0.1896664 0.21829773 0.20212111 0.06508564 0.015418491 -0.038198326
0.23759368 0.24156953 0.23100315 -0.13571766 0.17771544 0.042594366 0.2154332 0.11379026
0.032608237 0.13041376 0.10777467 -0.18420358 0.17171569 -0.027678339 -0.0960067 0.24437736
0.096482694 -0.1692627 0.10814467 -0.039415445 0.08499484 -0.04889478 -0.0008174172 -0.038407724
-0.007890043 0.11670345 -0.15809368 0.031086437 0.1980049 0.09677613 -0.09169126 0.22749671
0.08067152 -0.1694312 -0.16652258 -0.13138804 0.14057012 0.15895443 -0.08201829 -0.08535334
0.07854568 0.17754827 -0.08021185 -0.037503336 -0.05048044 0.014452208 0.081574395 0.02366593
0.11511211 -0.020637006 0.07177049 0.02910186 0.0276121 0.12294083 0.0687388 -0.15950176
0.014584128 -0.17034881 0.0053478796 0.17536882 0.17512164 -0.027371796 0.19281183 0.140862
0.056570835 -0.05551004 0.22192673 -0.008964347 -0.028009653 0.020313635 -0.19335036 0.07250743
-0.020192746 0.18871146 0.12328329 -0.1502562 -0.1555133 0.20479253 0.13830303 0.13215443
-0.022565184 0.16265775 -0.16070029 -0.13155125 0.2407339 -0.09950789 0.009952961 -0.056918263
0.098182276 0.11396043 0.114642315 0.14247175 -0.14577034 0.014648637 -0.08615732 -0.1886456
-0.087267786 0.086847365 -0.16109352 0.053282425 0.059877537 0.054102328 0.17794898 -0.1990328
0.046357647 0.21059598 -0.054829136 0.06309298 0.22015356 0.07382207 -0.07288115 -0.14963631
-0.18038008 0.016093591 0.05434798 0.22084276 0.18043564 0.110400036 0.05681332 0.07038353
-0.20236045 -0.19177634 -0.04636525 0.034041025 -0.13539071 0.16048913 -0.15859483 0.04817014
0.19412841 0.167252 0.21184331 0.096693724 0.16622321 0.21614692 0.2092218 -0.1336901
0.018584413 -0.19395112 0.22834073 -0.13159625 -0.106893115 0.15446533 0.22900355 0.12628905
0.06514883 -0.0872284 0.07172202 -0.026048299 0.13080479 -0.07413983 0.09441453 -0.1642433
0.118146405 0.23751885 0.033779357 -0.1614046 -0.18765154 0.16560785 -0.007375778 -0.070578925
-0.06746007 0.15199757 0.056123763 0.043219548 0.09160368 0.183317 0.009755572 0.10713435
0.10469238 0.14229412 -0.19376013 0.23240744 0.14099365 0.048576754 -0.034463063 -0.054708257
0.15867212 0.115459345 0.11680425 -0.03826712 -0.161105 -0.17435966 0.083774455 0.19794393
-0.0498158 0.06801433 0.07321912 -0.0114735095 0.17405765 0.036170553 0.019340608 0.038069572
00000000: 80f0 12be 1a69 293e f555 d03d 688a f83c
00000010: 11ca c63b cb08 4b3e 28a8 ab3d 2e40 e5bc
00000020: 646e f23d f846 bfbc 5bd5 ab3d 6ee6 a43d
00000030: dae9 cdbd 9ed7 11be 5846 b5bd 8f3f 263c
00000040: 9dce 83bd fbff 4a3e 6475 b5bd 8163 30be
00000050: 3c06 b43d 8def d93d 1322 81bd 3115 31be
00000060: 74ad 2dbe 2b3e e7bc 1c99 12bc 97bf 24be
00000070: dbd0 043d 056a 1d3e aa90 0d3e fb8a 2c3e
00000080: 9d0a f5bc 01f0 0f3e 3fcf 3e3e b532 023e
00000090: 6d13 023d 75b4 d7bb 05c1 2cbe 2dcf 673d
000000a0: 01ec 273e d0de 71bd 9963 803e e289 123e
000000b0: bb01 6e3e c4f4 b1bd 7325 95bd 0b52 9fbd
000000c0: 0bc3 36be df84 a23d babd 003e 57e1 3ebe
000000d0: 141d ea3d b9e2 58bd 9894 643e b77c e53d
000000e0: b996 83bd 584e 90bd e937 42be 7189 5f3e
000000f0: d6f8 4e3e 9f4b 853d d79d 7c3c d975 1cbd
00000100: c24b 733e 015e 773e 178c 6c3e 92f9 0abe
00000110: 09fb 353e 6e77 2e3d 859a 5c3e de0a e93d
00000120: 3790 053d 2f8b 053e f7b8 dc3d dd9f 3cbe
00000130: 3dd6 2f3e afbd e2bc 299f c4bd 0f3e 7a3e
00000140: b898 c53d 3453 2dbe f47a dd3d 1772 21bd
00000150: c611 ae3d e545 48bd f147 56ba 6b51 1dbd
00000160: 3d45 01bc 3802 ef3d 4fe3 21be fca8 fe3c
00000170: ccc1 4a3e 9032 c63d a1c8 bbbd e6f4 683e
00000180: 1c37 a53d 5f7f 2dbe e584 2abe 968a 06be
00000190: 9df1 0f3e f3c4 223e 35f9 a7bd bbcd aebd
000001a0: 8fdc a03d 37cf 353e 1c46 a4bd 199d 19bd
000001b0: 94c4 4ebd f4c8 6c3c 7a10 a73d 0ddf c13c
000001c0: e6bf eb3d f00e a9bc 68fc 923d 0667 ee3c
000001d0: c532 e23c 67c8 fb3d eec6 8c3d 6e54 23be
000001e0: 44f2 6e3c eb6f 2ebe 443d af3b e293 333e
000001f0: 1653 333e d13a e0bc 7770 453e 213e 103e
00000200: d2b6 673d 7f5e 63bd c340 633e 32df 12bc
00000210: 8074 e5bc c868 a63c a3fd 45be c77e 943d
00000220: 426b a5bc 943d 413e f37b fc3d c3dc 19be
00000230: e13e 1fbe 22b5 513e 4f9f 0d3e 7e53 073e
00000240: 9fda b8bc c18f 263e 9e8e 24be 5fb5 06be
00000250: f382 763e cbca cbbd be11 233c 2023 69bd
00000260: ca13 c93d 1664 e93d 97c9 ea3d 1de4 113e
00000270: d244 15be d600 703c 4073 b0bd 502c 41be
00000280: 74b9 b2bd 08dd b13d b3f5 24be ac3e 5a3d
00000290: 2642 753d 679a 5d3d 4238 363e 41cf 4bbe
000002a0: 84e1 3d3d 79a6 573e 8494 60bd e436 813d
000002b0: ef6f 613e 0730 973d b642 95bd 433a 19be
000002c0: 8eb5 38be b5d6 833c fd9b 5e3d 9b24 623e
000002d0: 1fc4 383e 6a19 e23d 15b5 683d 3d25 903d
000002e0: 9437 4fbe 0461 44be 7de9 3dbd 9a6e 0b3d
000002f0: dda3 0abe 4357 243e af66 22be 0d4e 453d
00000300: 99c9 463e 1c44 2b3e 74ed 583e 5c07 c63d
00000310: 6b36 2a3e 9e55 5d3e 3d3e 563e 0fe6 08be
00000320: 573e 983c 1f9b 46be 27d2 693e 2bc1 06be
00000330: c7ea dabd 292c 1e3e e87f 6a3e eb51 013e
00000340: c06c 853d cea4 b2bd ffe2 923d 3e63 d5bc
00000350: b1f1 053e a0d6 97bd 685c c13d 652f 28be
00000360: bef6 f13d 2438 733e 395c 0a3d 3f47 25be
00000370: ba27 40be 1b95 293e 83b0 f1bb af8b 90bd
00000380: 8128 8abd 40a5 1b3e 08e2 653d fb06 313d
00000390: b69a bb3d 74b7 3b3e d6d5 1f3c 4169 db3d
000003a0: f568 d63d 8db5 113e 0e69 46be 37fc 6d3e
000003b0: a460 103e 6bf8 463d 2429 0dbd c415 60bd
000003c0: f27a 223e f375 ec3d 1137 ef3d fcbd 1cbd
000003d0: b6f8 24be 578b 32be f191 ab3d d0b1 4a3e
000003e0: a70b 4cbd 194b 8b3d e8f3 953d 63fb 3bbc
000003f0: 2b3c 323e 9327 143d 3270 9e3c d7ee 1b3d

lstm.weight_hh_l0_reverse f4 [80, 20]
-0.18796523 0.13541126 0.15748373 0.14236769 0.03847125 0.13714883 -0.028382167 -0.1301952
0.035506934 -0.11682033 0.11171308 -0.04522775 0.19257167 0.13456696 -0.13059965 -0.067197695
-0.14465284 -0.111636825 -0.15953466 -0.019184709 -0.07097517 -0.16246967 0.17338982 -0.12725255
-0.17483184 -0.18476012 -0.15714246 0.21047327 0.20575416 -0.07181014 0.19884655 -0.071591884
0.10747036 0.19955218 0.20944533 -0.018959165 0.16941544 -0.14774838 0.16550621 0.16698211
-0.11594321 0.18440914 -0.09675673 -0.03209628 -0.03889844 -0.1920133 0.122576624 -0.020136803
0.09835148 -0.211227 -0.03047061 0.03168741 0.17419687 0.17127347 -0.16353333 0.037246674
0.033778876 0.14313003 0.016122013 0.08929828 0.20650735 0.05386597 -0.20211497 -0.016394913
0.1373761 0.003508836 -0.06732726 -0.1623784 0.13312078 0.18152484 -0.09822106 -0.02469474
-0.1953869 0.07490873 -0.12253108 -0.15441355 -0.11957229 0.0749664 0.062956095 0.00032253563
0.12415466 -0.18690038 -0.18134305 -0.07890594 -0.031793267 0.12575322 -0.16294378 -0.10639564
0.09498963 -0.14204273 -0.13391739 -0.0043427497 -0.12006002 0.2085068 -0.042123154 0.14675346
-0.2053034 -0.19248289 -0.07831687 0.21091136 -0.06522259 0.13323045 0.16398808 0.16088846
0.12616569 -0.21245438 -0.043152988 -0.19743955 0.019539833 0.06382972 -0.17706855 0.044728816
-0.0803746 -0.1581178 0.21428841 -0.12186857 0.071986645 0.021779537 -0.015695646 -0.008527949
-0.014782786 -0.13898788 -0.020394161 -0.11638783 -0.18661782 -0.08510493 0.15139535 0.112134635
0.05365333 -0.17412736 -0.0055736452 -0.14318952 -0.19484958 -0.099557705 -0.15306333 -0.049932063
0.21407053 0.0865345 0.12815505 -0.19711046 -0.15624589 -0.05293387 -0.051220372 -0.18001935
-0.1927413 -0.013323531 0.12671956 -0.0935363 -0.046564013 0.21924263 -0.1452061 -0.15745045
-0.1763707 -0.06202045 -0.02357857 0.07888782 0.19339329 -0.19714749 0.04132819 0.07120228
-0.123156935 0.16233572 0.14394504 0.17918837 -0.04772502 -0.20577955 -0.026890814 0.13549626
-0.1310342 0.1984725 0.20936844 0.055146813 -0.21389945 -0.17168652 0.15828145 0.105424136
-0.21193552 -0.20498466 0.0045330673 0.032609046 0.029754639 -0.11423618 -0.046524465 0.06863654
0.10669002 -0.15919589 0.10598731 0.1697363 -0.089129 0.004890263 -0.053296506 0.102561384
-0.009799391 0.02712807 -0.07132822 0.004209444 0.055418044 0.11552754 -0.11190171 0.06703061
-0.12107913 0.20036098 -0.06967206 -0.15414834 0.099592 0.17601919 -0.17379424 0.003735736
0.17258614 0.05201122 -0.12166338 -0.1999203 -0.05102952 -0.0016706437 -0.047164097 0.2165935
0.0316661 -0.21427085 -0.031144425 0.10174495 -0.088137746 0.06738493 0.087448925 -0.041625574
0.17578998 -0.02465944 -0.0892044 0.15472957 -0.12672493 0.1337797 0.20920658 0.003916681
-0.16476691 0.08677068 0.061556518 0.20570934 -0.067711905 0.20762417 0.1443063 -0.1723114
0.13221312 -0.22085054 0.2129989 0.047066987 -0.1491558 0.02899319 -0.20067887 0.19411233
0.1980429 -0.15341195 -0.052750528 0.093775004 -0.18612468 0.0139146 0.15597817 -0.21009403
00000000: f579 40be 40a9 0a3e 6a43 213e d6c8 113e
00000010: 0894 1d3d be70 0c3e b881 e8bc e451 05be
00000020: b86f 113d 7f3f efbd d4c9 e43d bc40 39bd
00000030: 8231 453e eccb 093e eabb 05be f29e 89bd
00000040: e01f 14be d9a1 e4bd 0e5d 23be 4029 9dbc
00000050: 6e5b 91bd 735e 26be 1a8d 313e 7e4e 02be
00000060: 1e07 33be c231 3dbe f4e9 20be 4e86 573e
00000070: 38b1 523e 3211 93bd 6e9e 4b3e c49e 92bd
00000080: 6c19 dc3d 6857 4c3e d678 563e 4050 9bbc
00000090: 3e7b 2d3e 5a4b 17be 767a 293e 5cfd 2a3e
000000a0: a273 edbd c0d5 3c3e 6428 c6bd 6477 03bd
000000b0: f853 1fbd 229f 44be 7409 fb3d f0f5 a4bc
000000c0: 806c c93d e44b 58be 809d f9bc a8ca 013d
000000d0: aa60 323e 5062 2f3e 4875 27be f88f 183d
000000e0: b85b 0a3d ae90 123e 5012 843c 04e2 b63d
000000f0: aa76 533e 90a2 5c3d 3af7 4ebe a04e 86bc
00000100: 52ac 0c3e 80f4 653b e0e2 89bd 8646 26be
00000110: d050 083e a6e1 393e 2028 c9bd a04c cabc
00000120: 8113 48be c069 993d 93f1 fabd 961e 1ebe
00000130: 51e2 f4bd fc87 993d 20ef 803d 001a a939
00000140: cc44 fe3d d062 3fbe feb1 39be 7099 a1bd
00000150: a839 02bd 74c5 003e bcda 26be f5e5 d9bd
00000160: ec89 c23d a673 11be a421 09be a04d 8ebb
00000170: 07e2 f5bd ce82 553e 5489 2cbd 8a46 163e
00000180: 0e3b 52be 3c1a 45be 9864 a0bd 26f9 573e
00000190: 6c93 85bd 906d 083e 7eec 273e f2bf 243e
000001a0: 9431 013e a48d 59be 30c1 30bd 982d 4abe
000001b0: 0012 a03c 28b9 823d 7551 35be 9035 373d
000001c0: 709b a4bd a2e9 21be 6c6e 5b3e 3b96 f9bd
000001d0: bc6d 933d 006b b23c 2894 80bc d0b8 0bbc
000001e0: 8033 72bc d752 0ebe a811 a7bc be5c eebd
000001f0: be18 3fbe 7e4b aebd 6207 1b3e d8a6 e53d
00000200: 98c3 5b3d 714e 32be 20a3 b6bb 46a0 12be
00000210: a686 47be e9e4 cbbd a2bc 1cbe 9085 4cbd
00000220: 4e35 5b3e 0039 b13d 143b 033e 53d7 49be
00000230: ecfe 1fbe 30d1 58bd 74cc 51bd fe56 38be
00000240: fa5d 45be f04a 5abc c6c2 013e f68f bfbd
00000250: e8b9 3ebd 2481 603e e8b0 14be b13a 21be
00000260: 859a 34be 2809 7ebd d827 c1bc f08f a13d
00000270: e408 463e 08e1 49be c047 293d 80d2 913d
00000280: b439 fcbd 563b 263e 5466 133e 287d 373e
00000290: 507b 43bd e0b7 52be 204a dcbc 88bf 0a3e
000002a0: d42d 06be 603c 4b3e ae64 563e a0e1 613d
000002b0: 7508 5bbe 97ce 2fbe 8814 223e 9ce8 d73d
000002c0: a005 59be 80e7 51be 208a 943b 1091 053d
000002d0: 00c0 f33c a9f4 e9bd 7090 3ebd 5091 8c3d
000002e0: 4c80 da3d 3f04 23be e00f d93d 5acf 2d3e
000002f0: 4489 b6bd 803e a03b 704d 5abd b40b d23d
00000300: a08d 20bc b03b de3c 8814 92bd 60ef 893b
00000310: 08fe 623d b499 ec3d b92c e5bd 5847 893d
00000320: 56f8 f7bd 6e2b 4d3e 3ab0 8ebd 10d9 1dbe
00000330: e4f6 cb3d 603e 343e 1ef7 31be 40d3 743b
00000340: 6cba 303e b809 553d a62a f9bd e8b7 4cbe
00000350: 5404 51bd 80f9 daba 242f 41bd b0ca 5d3e
00000360: 50b4 013d d169 5bbe 9822 ffbc a85f d03d
00000370: 9081 b4bd 1c01 8a3d 6c18 b33d 947f 2abd
00000380: 4a02 343e 9802 cabc ccb0 b6bd 6e71 1e3e
00000390: 2ec4 01be 8cfd 083e 403a 563e 8057 803b
000003a0: a8b8 28be d4b4 b13d b022 7c3d 78a5 523e
000003b0: 8aac 8abd 6e9b 543e 08c5 133e 6672 30be
000003c0: e062 073e a526 62be 621c 5a3e 50c9 403d
000003d0: 4cbc 18be 2083 ed3c c37e 4dbe 62c5 463e
000003e0: c2cb 4a3e 0618 1dbe f010 58bd 1c0d c03d
000003f0: 7897 3ebe 10fa 633c beb8 1f3e e422 57be

lstm.bias_ih_l0_reverse f4 [80]
0.1907987 -0.082526386 0.15395683 0.21684965 0.068752475 -0.04126604 -0.05457902 0.22099875
0.20785446 -0.12001391 -0.02218863 -0.048608724 -0.07936335 -0.08749899 0.028262986 0.06812163
0.06626052 0.10650465 0.08151856 0.15283576 -0.14512601 -0.14381486 -0.011698544 0.12714928
0.19855711 -0.025725424 -0.21496142 -0.073695645 -0.019425273 0.14893532 -0.039504126 -0.13342328
-0.21643673 0.20693335 -0.037354693 0.107894 -0.13689657 -0.15459213 0.18489525 -0.038631916
0.118734665 -0.13261366 0.21067171 0.24182327 -0.15584485 0.24262282 0.060909517 0.16262132
0.18645099 0.0007872008 -0.16751605 -0.14284107 0.0012726116 0.08316191 -0.06597051 -0.2255992
0.07442448 0.008705235 0.1991219 -0.1301373 -0.10839911 0.06583215 -0.16124988 0.19102915
-0.002054145 0.038366824 0.040210705 0.04772123 0.21083023 -0.14182676 0.20462304 -0.026621545
0.109597795 0.010800021 0.21172568 -0.08608745 0.19316645 0.0839938 -0.11447509 0.1999976
00000000: bc60 433e 9803 a9bd dca6 1d3e d60d 5e3e
00000010: 19ce 8c3d 9406 29bd 408e 5fbd 7f4d 623e
00000020: cdd7 543e dac9 f5bd eec4 b5bc f119 47bd
00000030: 4189 a2bd ac32 b3bd c787 e73c 5a83 8b3d
00000040: 98b3 873d 1c1f da3d 34f3 a63d fa80 1c3e
00000050: ea9b 14be 3444 13be 40ab 3fbc 6c33 023e
00000060: 8e52 4b3e 20be d2bc d91e 5cbe beed 96bd
00000070: c021 9fbc 8082 183e 14cf 21bd 1da0 08be
00000080: 97a1 5dbe 56e6 533e 3c01 19bd 88f7 dc3d
00000090: 9d2e 0cbe 664d 1ebe 2e55 3d3e 803c 1ebd
000000a0: 292b f33d e0cb 07be 53ba 573e 85a0 773e
000000b0: cb95 1fbe 1e72 783e 427c 793d 3486 263e
000000c0: 02ed 3e3e 275c 4e3a 5489 2bbe ee44 12be
000000d0: c2cd a63a cb50 aa3d 8c1b 87bd 7a03 67be
000000e0: dd6b 983d 67a0 0e3c 9de6 4b3e b642 05be
000000f0: 5a00 debd 02d3 863d b01e 25be 259d 433e
00000100: d69e 06bb 8826 1d3d fbb3 243d 5677 433d
00000110: e1e3 573e 093b 11be b488 513e 6d15 dabc
00000120: cf74 e03d 92f2 303c 9ece 583e 9e4e b0bd
00000130: 6dcd 453e f104 ac3d ea71 eabd 2ccc 4c3e

lstm.bias_hh_l0_reverse f4 [80]
0.14453675 0.0024162917 0.23516639 -0.0069573564 -0.09105427 0.040776122 0.036200576 -0.05633013
-0.04179198 0.25736094 0.15152016 0.24911483 -0.06653656 -0.11019203 0.20063926 0.024292275
0.109591566 -0.16925813 -0.054652587 -0.036182504 -0.13308534 -0.15423968 -0.058085755 0.04006341
-0.10454147 0.06310809 0.20125085 0.11790332 -0.058034077 -0.045882612 0.088373184 -0.042019382
-0.014550239 0.09279838 -0.17587996 -0.038321882 -0.13887623 0.07546067 -0.024140537 -0.096366525
-0.015414329 0.14651251 0.040123917 0.1863795 0.17965016 0.23482278 0.10674568 0.21558201
-0.0091820415 -0.14463082 0.09728937 -0.17725307 -0.10592644 0.14086409 -0.13561143 0.0356232
-0.05550286 0.20807777 0.07002477 -0.17604321 0.24760766 0.18188848 0.004670059 0.03303331
0.03555756 0.13379681 -0.068388194 0.039008882 0.1722456 0.03282201 -0.0202952 0.24113727
-0.012247308 0.18914796 -0.15927762 0.003953866 -0.12867653 -0.19360569 -0.072004445 -0.17405899
00000000: 7101 143e a65a 1e3b 75cf 703e 89fa e3bb
00000010: a97a babd dd04 273d 0e47 143d 6cba 66bd
00000020: 112e 2bbd d0c4 833e 1a28 1b3e f517 7f3e
00000030: 5244 88bd 5cac e1bd 6174 4d3e 9800 c73c
00000040: 8b71 e03d 0152 2dbe 64db 5fbd 1b34 14bd
00000050: 8647 08be 02f1 1dbe 54eb 6dbd 8819 243d
00000060: d719 d6bd d03e 813d b414 4e3e 4c77 f13d
00000070: 24b5 6dbd 68ef 3bbd 00fd b43d 841c 2cbd
00000080: 2064 6ebc 140d be3d e019 34be 68f7 1cbd
00000090: 9235 0ebe 208b 9a3d 60c2 c5bc d05b c5bd
000000a0: 628c 7cbc 6007 163e fa58 243d 45da 3e3e
000000b0: 36f6 373e 6275 703e 7b9d da3d 88c1 5c3e
000000c0: 4670 16bc 1a1a 14be a63f c73d d481 35be
000000d0: f6ef d8bd ad3e 103e b9dd 0abe a2e9 113d
000000e0: f856 63bd 5712 553e 2669 8f3d ac44 34be
000000f0: dd8c 7d3e f940 3a3e 4b07 993b f04d 073d
00000100: cea4 113d 0802 093e 1c0f 8cbd c7c7 1f3d
00000110: 2761 303e 5f70 063d 1f42 a6bc b0ec 763e
00000120: efa8 48bc 01b0 413e ac19 23be 6f8f 813b
00000130: c8c3 03be 9240 46be 1177 93bd 853c 32be

dense.weight f4 [20, 40]
0.15432374 0.09685846 -0.055193048 -0.055012986 -0.041008998 0.16517553 0.13731763 0.14047149
-0.057276353 0.018060526 -0.15636909 -0.012061249 0.12493205 0.14931794 -0.02256957 -0.11396972
-0.028770143 0.028608434 -0.1372348 -0.17187929 -0.0032349585 -0.1541873 0.0036672817 -0.12974742
0.14811733 -0.07759346 -0.0011914526 0.001578373 -0.011170021 0.17179796 -0.13725021 0.03463215
-0.057596542 -0.1400582 0.043254226 0.097391345 0.16614372 -0.025999162 -0.009091347 -0.12780757
0.0042155045 -0.029698059 -0.08666151 -0.06931767 -0.014220804 -0.06477621 -0.03136073 -0.048516255
-0.045992345 -0.120502196 0.1082444 0.0558336 0.08410057 -0.075927354 0.054824542 -0.08525067
-0.12903684 -0.137355 -0.025126508 0.08729437 -0.14887473 0.07618898 0.11975903 0.06778592
-0.0968213 -0.038602617 0.062169023 -0.10568269 0.05552213 -0.08338861 0.101391666 0.17036845
0.12279248 -0.039122943 0.16607991 0.077179 0.06616886 0.13826007 0.13100657 -0.11080579
-0.002468533 0.096511714 -0.01810244 0.18665898 0.054744042 0.18437539 0.12919594 0.14316353
-0.020571426 0.118238606 -0.050657567 -0.099279575 0.14631267 0.14534724 0.07614432 0.015787465
-0.039589606 -0.1302337 0.025449587 -0.023478145 -0.110739805 -0.0061301407 -0.029599264 0.022865614
-0.041217495 -0.17198227 -0.15890123 0.069460124 -0.09374118 0.042425144 -0.04948411 -0.091319434
0.17610864 0.066065624 -0.04023269 -0.020006675 -0.09036766 -0.07779437 -0.16193077 0.019179411
-0.11972466 -0.09657355 -0.05369998 0.086433254 -0.17857814 -0.066662855 0.082129024 0.08041428
-0.049877867 -0.01602053 0.038948797 -0.0383149 0.097773604 0.092298694 0.009418317 -0.109585166
0.032963257 0.04881639 0.07813427 -0.029038357 0.092289746 0.054182068 0.0068763285 0.13006796
-0.075833134 -0.08425645 -0.043660156 0.024993047 -0.028114729 0.07273946 -0.18182987 -0.08225901
-0.07760579 -0.09818612 0.057686068 -0.11312724 -0.0891394 0.033724535 0.019105297 0.07976623
0.0589535 -0.04574324 0.15001203 0.16852151 0.17797606 -0.07279715 0.18153216 -0.11517318
0.047207255 0.028966425 0.01048574 0.048300393 0.045432832 -0.0045619574 0.0020539872 0.13027343
0.091337085 0.059519686 -0.119528286 0.10802192 -0.06463754 -0.058304977 -0.17014086 -0.09006416
0.008281979 -0.063944206 0.031013442 -0.0325837 0.018357178 -0.0522006 -0.12228263 -0.017602133
0.00753831 -0.03490735 -0.08334336 0.030636657 -0.09845924 0.08419481 0.056904797 -0.0026440863
0.104775 0.15038304 0.011640184 0.03452464 0.031202123 0.18013562 -0.09403345 0.18416323
0.0256029 -0.0920249 -0.028523106 -0.04173527 0.0023675328 0.022152713 -0.12960055 0.116755486
0.13124779 -0.17424835 0.008059495 -0.0029739542 -0.10064529 -0.02934661 -0.119782396 -0.13358833
0.122903585 -0.08968693 -0.09588469 -0.1608389 0.022204831 0.040321443 -0.002175284 0.13784967
-0.09798483 -0.029392393 0.13601625 -0.08303372 -0.06052932 0.039753135 0.13291292 0.01674573
-0.0131654395 -0.055351462 -0.1088621 0.17263027 -0.013446081 0.081955 0.17652069 -0.09719229
0.062835954 0.08458259 -0.03539994 -0.053197324 0.118239075 -0.12339552 -0.009241373 -0.020546833
00000000: 0b07 1e3e ba5d c63d 1b12 62bd 4c55 61bd
00000010: 0df9 27bd c623 293e fe9c 0c3e c2d7 0f3e
00000020: 9c9a 6abd abf3 933c 381f 20be 8c9c 45bc
00000030: 60dc ff3d cde6 183e d2e3 b8bc f568 e9bd
00000040: 5daf ebbc 3c5c ea3c 4887 0cbe 2001 30be
00000050: 9901 54bb 47e3 1dbe c756 703b 82dc 04be
00000060: 12ac 173e 52e9 9ebd 842a 9cba 69e1 ce3a
00000070: 7702 37bc ceeb 2f3e 528b 0cbe 71da 0d3d
00000080: 5aea 6bbd 6b6b 0fbe 582b 313d 1d75 c73d
00000090: 9421 2a3e 32fc d4bc e0f3 14bc fddf 02be
000000a0: 3722 8a3b 5849 f3bc 977b b1bd 6cf6 8dbd
000000b0: 60fe 68bc 64a9 84bd 1c74 00bd fbb8 46bd
000000c0: 7862 3cbd dbc9 f6bd 3daf dd3d c6b1 643d
000000d0: eb3c ac3d cd7f 9bbd b38f 603d e797 aebd
000000e0: 3c22 04be caa6 0cbe 1bd6 cdbc 64c7 b23d
000000f0: 9e72 18be f808 9c3d 3944 f53d 58d3 8a3d
00000100: 3f4a c6bd c71d 1ebd f2a4 7e3d 2b70 d8bd
00000110: 2c6b 633d a6c7 aabd 6fa6 cf3d 1175 2e3e
00000120: a07a fb3d 613f 20bd da10 2a3e 0610 9e3d
00000130: 8a83 873d 0c94 0d3e 9626 063e 25ee e2bd
00000140: 1dc7 21bb efa7 c53d 914b 94bc 8823 3f3e
00000150: 4a3b 603d e7cc 3c3e f14b 043e 7699 123e
00000160: 6885 a8bc 1527 f23d 4f7e 4fbd 1753 cbbd
00000170: fdd2 153e e8d5 143e 8ef1 9b3d b754 813c
00000180: b628 22bd fc5b 05be a77b d03c 3d55 c0bc
00000190: 8dcb e2bd 59df c8bb 287a f2bc ab50 bb3c
000001a0: add3 28bd 1f1c 30be 01b7 22be 1c41 8e3d
000001b0: 60fb bfbd fdc5 2d3d daaf 4abd af05 bbbd
000001c0: d355 343e 6a4d 873d 08cb 24bd 0ae5 a3bc
000001d0: ae12 b9bd a852 9fbd 2ed1 25be 241e 9d3c
000001e0: 3432 f5bd 5ac8 c5bd 83f4 5bbd eb03 b13d
000001f0: 30dd 36be 8986 88bd 4333 a83d 3eb0 a43d
00000200: bc4c 4cbd 7d3d 83bc c688 1f3d 16f0 1cbd
00000210: 873d c83d 1907 bd3d 494f 1a3c 306e e0bd
00000220: 7b04 073d b2f3 473d dc04 a03d d9e1 edbc
00000230: 6802 bd3d 04ee 5d3d d352 e13b 8930 053e
00000240: 674e 9bbd a58e acbd fed4 32bd 38be cc3c
00000250: dc50 e6bc 6df8 943d 9c31 3abe 6977 a8bd
00000260: c9ef 9ebd ce15 c9bd 3a48 6c3d 41af e7bd
00000270: b88e b6bd bd22 0a3d b682 9c3c 7a5c a33d
00000280: 3a79 713d 435d 3bbd c19c 193e e790 2c3e
00000290: 5b3f 363e ac16 95bd 91e3 393e ebdf ebbd
000002a0: 655c 413d ff4a ed3c 62cc 2b3c a2d6 453d
000002b0: c717 3a3d 797c 95bb 309c 063b 6666 053e
000002c0: f00e bb3d eaca 733d 3fcb f4bd 993a dd3d
000002d0: b060 84bd 33d1 6ebd 6839 2ebe 8f73 b8bd
000002e0: 23b1 073c 2ef5 82bd e70f fe3c 7c76 05bd
000002f0: cb61 963c 4cd0 55bd 516f fabd 5932 90bc
00000300: ed03 f73b 02fb 0ebd ecaf aabd baf9 fa3c
00000310: ffa4 c9bd 546e ac3d 0115 693d 6848 2dbb
00000320: 4694 d63d 03fe 193e 78b6 3e3c b569 0d3d
00000330: 989b ff3c 7975 383e 9c94 c0bd 4995 3c3e
00000340: 2cbd d13c 8d77 bcbd 4aa9 e9bc 9af2 2abd
00000350: 9c28 1b3b 9b79 b53c 02b6 04be 801d ef3d
00000360: d265 063e 296e 32be f90b 043c ace6 42bb
00000370: 1e1f cebd 4d68 f0bc 7950 f5bd 61cb 08be
00000380: e0b4 fb3d c8ad b7bd 315f c4bd f4b2 24be
00000390: e8e6 b53c 1928 253d 368f 0ebb 7728 0d3e
000003a0: 45ac c8bd 51c8 f0bc d847 0b3e 950d aabd
000003b0: 98ed 77bd 2fd4 223d 531a 083e 572e 893c
000003c0: dbb3 57bc 37b8 62bd 18f3 debd fdc5 303e
000003d0: f44c 5cbc 06d8 a73d d7c1 343e c00c c7bd
000003e0: 23b0 803d a339 ad3d 87ff 10bd 70e5 59bd
000003f0: 5427 f23d cab6 fcbd 2169 17bc d551 a8bc

dense.bias f4 [20]
-0.10510904 0.03215361 0.022452902 0.12517774 -0.09581106 -0.17568313 -0.07321266 0.1604974
-0.10386805 0.044042114 0.14021842 0.0995204 0.1622199 -0.06436333 -0.034610484 -0.07128684
0.07371481 0.10824718 -0.1303727 -0.13901784
00000000: 6943 d7bd 81b3 033d 26ef b73c 982e 003e
00000010: 9738 c4bd 47e6 33be 85f0 95bd 6e59 243e
00000020: c6b8 d4bd 8165 343d 6b95 0f3e 5ad1 cb3d
00000030: f91c 263e ecd0 83bd b9c3 0dbd d6fe 91bd
00000040: caf7 963d b3b0 dd3d 6c80 05be b15a 0ebe
