TadGAN/models/encoder.pt (torch, 84039 bytes, 10 tensors)

lstm.weight_ih_l0 f4 [80, 100]
0	0xbca4cf00	-0.020118237
1	0xbdf32948	-0.11873108
2	0x3dd5a54d	0.10431919
3	0x3d9a08c0	0.075212
4	0xbdff2286	-0.12457757
5	0xbe12f45c	-0.14351028
6	0x3d16b776	0.036796056
7	0x3dced861	0.10099865
8	0x3c5b15e5	0.013371919
9	0xbbd74810	-0.00656987
10	0xbe35fde1	-0.17772628
11	0x3e2342ad	0.15943404
12	0x3bbd28fe	0.005772709
13	0xbcb8f702	-0.02257872
14	0x3e50c15d	0.20386262
15	0xbb1b3ff7	-0.002368925
16	0x3d0f298e	0.03495174
17	0xbe4aeaad	-0.19816084
18	0xbd5b80ef	-0.053589758
19	0x3dacc83b	0.084366284
20	0x3d675028	0.056472927
21	0xbdfa401b	-0.122192584
22	0xbe1826e4	-0.14858586
23	0x3df0dcf0	0.117608905
24	0x3e2f27fa	0.17105094
25	0xbc0fc606	-0.00877524
26	0xbdc58925	-0.09645299
27	0xbe2aaa23	-0.16666465
28	0xbce8ee54	-0.028433956
29	0xbe43434b	-0.19068639
30	0xbdf1d5f0	-0.118083835
31	0x3e40b7f2	0.1882017
32	0xbdcbcf98	-0.09951705
33	0x3c0f8d34	0.008761693
34	0xbca01773	-0.019542431
35	0x3d8f6e92	0.070035115
36	0x3dafa288	0.08575922
37	0x3e1e380b	0.15451066
38	0x3e6016dc	0.2188372
39	0xbe618891	-0.22024752
40	0xbe0f6eaa	-0.14007059
41	0xbdd68f70	-0.10476577
42	0xbe4c9bdb	-0.19981329
43	0x3daf1b9e	0.085501894
44	0xbe58803c	-0.21142668
45	0x3dec6bcd	0.11543999
46	0xbe2ffb40	-0.17185688
47	0x3e619adf	0.22031735
48	0xba94795e	-0.0011327674
49	0x3e5478f9	0.20749272
50	0xbe3bcc06	-0.18339548
51	0xbe19662a	-0.14980379
52	0xbd7614b3	-0.060078334
53	0xbd87571d	-0.066084124
54	0x3e45e35f	0.19325016
55	0xbe40e005	-0.18835457
56	0xbe2a2693	-0.16616277
57	0x3e28efc3	0.16497712
58	0xbde7098f	-0.1128112
59	0x3da320b3	0.07965221
60	0x3e14c8cf	0.14529727
61	0xbe320272	-0.17383745
62	0x3e066129	0.13123001
63	0x3e25daf3	0.16196804
64	0xbe3e49e7	-0.18582879
65	0x3dbbca2a	0.09169419
66	0xbc0cc526	-0.008591926
67	0xbe3b1d7c	-0.18272966
68	0x3dc66134	0.09686509
69	0xbe1aada5	-0.15105303
70	0xb985aa0b	-0.0002549443
71	0xbc8905ed	-0.016726458
72	0xbe110f29	-0.1416594
73	0xbb135433	-0.0022480607
74	0xbe1d7655	-0.15377171
75	0xbe0a2683	-0.13491254
76	0xbcce9b55	-0.025220552
77	0xbe645b5a	-0.22300473
78	0x3dc141e6	0.09436397
79	0xbe27af7d	-0.16375537
80	0x3e3424a4	0.17592102
81	0x3d856b5a	0.06514616
82	0xbe423416	-0.18965182
83	0xbd9a7c65	-0.075432576
84	0x3d6a9e81	0.057280067
85	0xbe366562	-0.17812112
86	0xbc6e9465	-0.014561747
87	0x3ce9c6f4	0.028537251
88	0x3ca33a53	0.019925272
89	0x3c83b08f	0.0160754
90	0x3c40d0c0	0.01176852
91	0x3e3d6d34	0.18498689
92	0x3d9c136c	0.07620892
93	0xbe191b97	-0.14951931
94	0x3c160116	0.009155532
95	0xbd3ddaa8	-0.046351105
96	0xbe5f88b5	-0.21829493
97	0xbb1b2397	-0.0023672336
98	0xbe23d25a	-0.15998212
99	0x3d384bdb	0.044994216
100	0x3e0d61c9	0.13806833
101	0x3c91a84b	0.017780444
102	0xbd0a1696	-0.033712946
103	0x3dc941be	0.098269925
104	0x3d3dec9e	0.046368234
105	0x3d51d5db	0.05122934
106	0x3d81df38	0.06341404
107	0x3e169345	0.14704616
108	0xbd96ffd1	-0.07373012
109	0x3df9ce60	0.12197566
110	0x3e200c2f	0.15629648
111	0xbdde9814	-0.1086885
112	0xbdeabec0	-0.11462164
113	0xbd878616	-0.06617372
114	0x3e258862	0.16165307
115	0xbcdff2a0	-0.027337372
116	0xbe49fd46	-0.19725522
117	0xbe4b2bd9	-0.19840945
118	0x3e00bd40	0.12572193
119	0x3e062911	0.13101603
120	0xbde61925	-0.11235265
121	0x3d60bfee	0.05487054
122	0x3dad91f0	0.08475101
123	0x3e34752b	0.17622821
124	0x3d891dd5	0.06695143
125	0xbe38f3a5	-0.18061693
126	0x3d6cb171	0.05778641
127	0x3daaa57e	0.083323464
128	0xbe2d26df	-0.1690936
129	0x3e1e8d0e	0.15483496
130	0x3e22c3b9	0.15894975
131	0xbc71ba14	-0.014753837
132	0xbd95a544	-0.073069125
133	0x3b9980a9	0.004684527
134	0x3e44fff9	0.19238271
135	0xbe395726	-0.1809965
136	0xbd341fde	-0.043975703
137	0x3d9e5632	0.07731284
138	0xbd13c288	-0.03607419
139	0xbe30d044	-0.17266947
140	0x3e534308	0.20631039
141	0x3c61e6c5	0.01378793
142	0xbc8d9ccf	-0.017286686
143	0x3d39b5ff	0.04533958
144	0x3e40f53e	0.18843552
145	0x3dd2e46e	0.10297476
146	0xbe2b73d8	-0.1674341
147	0xbe2749e5	-0.16336782
148	0x3d6fe2f4	0.05856605
149	0x3dbb1217	0.0913431
150	0x3db7216a	0.0894192
151	0xbdae00a6	-0.084962174
152	0x3dc84c11	0.097801335
153	0x3d8f9e2b	0.0701259
154	0x3dbb3e24	0.09142712
155	0xbe11691a	-0.1420025
156	0x3d89b659	0.06724233
157	0x3e5d0820	0.2158513
158	0xbe1cfc52	-0.15330628
159	0x3e099180	0.1343441
160	0x3dbd2dd2	0.09237255
161	0xbc4a1ea2	-0.012336405
162	0xbe0def0d	-0.13860722
163	0xbe118e80	-0.14214516
164	0xbde3cd8c	-0.11123189
165	0x3e331b1c	0.1749081
166	0x3d386f00	0.045027733
167	0xbe4a0a56	-0.19730505
168	0x3c6c13d8	0.014409028
169	0xbd34c1f7	-0.04413029
170	0xbdeffed8	-0.117185295
171	0x3c9a1982	0.018810991
172	0xbe249eae	-0.16076156
173	0xbdc83335	-0.09775392
174	0x3dcbb4bb	0.09946581
175	0x3e625771	0.22103669
176	0xbc58cf2c	-0.013232987
177	0xbe0c9d69	-0.13731922
178	0xbd5f3383	-0.054492485
179	0xbd82206d	-0.06353841
180	0x3e4385ea	0.19094053
181	0xbe22a8f4	-0.15884763
182	0x3d9e1123	0.07718112
183	0x3e0ba50e	0.13637182
184	0xbdfb5ac6	-0.12273173
185	0xbb08dbda	-0.0020882995
186	0x3e289659	0.16463603
187	0xbe5747f0	-0.21023536
188	0x3dffd762	0.12492253
189	0x3dfaf748	0.122541964
190	0xbe3d88f3	-0.18509273
191	0xbd3be51f	-0.045872804
192	0xbdd3867a	-0.10328384
193	0xbe5bc915	-0.21463425
194	0x3e01b30d	0.12665959
195	0xbe52dee3	-0.20592837
196	0xbc7f5a54	-0.015585501
197	0x3d772f28	0.060347706
198	0x3cb1aa22	0.021687571
199	0x3e27e0d9	0.16394366
200	0x3de3c12c	0.11120829
201	0xbd6572d3	-0.056017708
202	0xbc71504c	-0.014728617
203	0xbddd6504	-0.10810283
204	0x3dd4198b	0.103564344
205	0xbd92c6c8	-0.07166821
206	0x3d8d219b	0.06891175
207	0xbe287380	-0.1645031
208	0x3e585b09	0.21128477
209	0x3c1bf827	0.009519613
210	0xbe107247	-0.14106093
211	0xbe1f2499	-0.15541305
212	0xbdec0c1e	-0.11525749
213	0xbe16342d	-0.14668341
214	0x3e408509	0.18800749
215	0x3d50f3f6	0.05101391
216	0xbd1083fe	-0.035282128
217	0xbda48fd4	-0.080352455
218	0xbcf91ecc	-0.030410193
219	0xbe228cec	-0.1587407
220	0xbd121ba8	-0.035670906
221	0x3d0d3e75	0.03448339
222	0xbd61626c	-0.055025503
223	0x3d3bac27	0.045818474
224	0xbe06ea9e	-0.13175437
225	0xbe2a2350	-0.16615033
226	0xbca5add3	-0.020224487
227	0x3d37d813	0.0448838
228	0x3e3581ed	0.17725344
229	0x3d1ef569	0.03880826
230	0xbc6c55fe	-0.014424799
231	0x3d394181	0.045228485
232	0x3e060ab0	0.13090014
233	0x3e556719	0.2084011
234	0xbe074adb	-0.13212149
235	0xbe520eb7	-0.20513426
236	0x3e28ec7a	0.16496459
237	0xbe3536aa	-0.17696634
238	0x3e5019cb	0.20322339
239	0x3d6c8369	0.05774251
240	0xbca4d1de	-0.020119604
241	0xbdb995fc	-0.090618104
242	0x3da269ef	0.079303615
243	0x3e438963	0.19095378
244	0xbe2547af	-0.16140626
245	0x3e44d2eb	0.19221084
246	0xbd6704f5	-0.05640121
247	0xbda94506	-0.08265118
248	0xbd8c7dfa	-0.068599656
249	0x3daa0162	0.08301045
250	0x3c59e02e	0.0132980775
251	0xbe15454c	-0.14577216
252	0xbdfc6c3d	-0.12325332
253	0x3daee3f3	0.085395716
254	0xbc6361ea	-0.013878325
255	0xbdfc3f60	-0.12316775

lstm.weight_hh_l0 f4 [80, 20]
0	0x3e2ef800	0.17086792
1	0xbe4faad1	-0.20280005
2	0xbe196717	-0.14980732
3	0xbd8acd30	-0.06777418
4	0xbe3f79ba	-0.18698779
5	0xbe342c44	-0.17595011
6	0xbd82d5fa	-0.06388469
7	0xbe0e0506	-0.13869104
8	0x3d216e38	0.039411753
9	0x3da81d94	0.082087666
10	0x3d39a5f8	0.045324296
11	0x3e423b10	0.18967843
12	0xbe4b3cf6	-0.19847474
13	0xbd80d54a	-0.06290682
14	0x3cfb4780	0.030673742
15	0x3e20925c	0.15680832
16	0xbdb7da56	-0.08977191
17	0x3dd60f24	0.104521066
18	0xbdef31a5	-0.11679391
19	0xbd71a120	-0.05899155
20	0xbba33fa0	-0.00498195
21	0xbd014234	-0.031557277
22	0x3e48f79a	0.19625703
23	0x3e3ebc74	0.18626577
24	0x3e27ac7a	0.16374388
25	0xbe3dd597	-0.1853851
26	0x3d491820	0.049095273
27	0x3db9cab4	0.09071866
28	0xbd55f180	-0.052232265
29	0xbc91bc58	-0.017790005
30	0x3e63d258	0.22248209
31	0x3d983700	0.074323654
32	0x3e33a9a2	0.17545179
33	0xbd948986	-0.07252793
34	0x3e36c056	0.17846808
35	0xbd97a3c6	-0.07404284
36	0x3e397640	0.18111515
37	0xbde7efe4	-0.113250524
38	0x3dacc718	0.084364116
39	0x3e609abe	0.2193403
40	0x3d9b6014	0.07586685
41	0xbd28fd50	-0.041257203
42	0x3e525972	0.20541933
43	0x3e298e56	0.16558203
44	0x3e3b6582	0.18300441
45	0x3df76a20	0.120807886
46	0xbe2f578c	-0.1712324
47	0xbe5ecf4e	-0.21758768
48	0xbc4876e0	-0.012235373
49	0xbe42ef62	-0.1903663
50	0xbe0556ca	-0.13021389
51	0x3e44bcbc	0.19212621
52	0x3e381e0e	0.17980215
53	0xbd999a8a	-0.07500179
54	0xbdd84903	-0.10560801
55	0xbd160838	-0.03662893
56	0x3e0a7882	0.13522533
57	0x3df42ee4	0.11923006
58	0xbe3c32a2	-0.1837869
59	0x3e28d334	0.16486818
60	0xbd989f56	-0.07452266
61	0x3e57d820	0.21078539
62	0x3dfddc14	0.12395492
63	0xbe1490cc	-0.1450836
64	0x3d3e2520	0.046422124
65	0xbd82007a	-0.06347747
66	0xbdf34df0	-0.118801
67	0x3e3f2d24	0.18669564
68	0xbe0255d6	-0.12728056
69	0x3e0a99fc	0.13535303
70	0x3e1b4952	0.15164688
71	0x3d620390	0.05517918
72	0xbe22265c	-0.15834945
73	0x3ca93958	0.020657226
74	0xbd6fa948	-0.05851105
75	0x3e145eb4	0.14489251
76	0xbe0c53e1	-0.13703872
77	0xbe5a5c5b	-0.21324293
78	0x3d939f48	0.07208115
79	0xbe52672c	-0.2054717
80	0x3e2784b6	0.16359219
81	0x3e0340a0	0.12817621
82	0xbe456b56	-0.19279227
83	0x3dd75c5c	0.10515663
84	0xbe42ebf2	-0.19035318
85	0x3a4b7a00	0.0007762015
86	0xbe1a19d8	-0.15048921
87	0xbdd36de9	-0.10323698
88	0xbe24807a	-0.16064635
89	0xbd42185c	-0.047386512
90	0x3e1d1f82	0.1534405
91	0xbd7f1890	-0.062279284
92	0xbdefff15	-0.11718575
93	0xbe4f3778	-0.20236003
94	0xbe2311ca	-0.15924755
95	0x3e04eb88	0.12980473
96	0x3d07da80	0.033167362
97	0xbdf85770	-0.121260524
98	0xbe5f90d6	-0.21832594
99	0x3d73a388	0.059482127
100	0x3e2d1f4c	0.1690647
101	0x3a946300	0.0011321008
102	0x3e0d2c94	0.13786536
103	0xbdec9782	-0.11552335
104	0xbe61017f	-0.21973227
105	0x3e1acd9c	0.15117496
106	0x3cc17048	0.02361311
107	0xbe60b0b9	-0.21942414
108	0x3dcb43ec	0.099250644
109	0xbde53f04	-0.1119366
110	0x3dea5a5c	0.11443016
111	0xbd870486	-0.0659266
112	0xbe494ae6	-0.19657478
113	0x3e385b70	0.1800363
114	0xbc980898	-0.018558785
115	0x3c3280c0	0.010894954
116	0x3cd629a8	0.02614291
117	0x3e33ce90	0.17559266
118	0x3e382ed4	0.17986614
119	0xbe483e05	-0.19554909
120	0xbe1aec76	-0.15129265
121	0xbda28392	-0.07935251
122	0x3e5cf6b0	0.21578479
123	0x3df6cf7c	0.12051293
124	0x3c836050	0.016037136
125	0x3e1d96e2	0.15389588
126	0x3e4c4092	0.19946507
127	0xbdd122a6	-0.10211687
128	0xbd202af4	-0.039103463
129	0x3dcdd898	0.100510776
130	0xbe2684fb	-0.16261666
131	0xbe0c4752	-0.13699082
132	0xbde1c961	-0.11024738
133	0xbdba58fc	-0.09099004
134	0x3d18af40	0.037276506
135	0xbd87c1b6	-0.06628744
136	0x3e4138d8	0.1886934
137	0x3e35d386	0.17756471
138	0xbd1dae88	-0.038496524
139	0xbddb8beb	-0.107200466
140	0x3d8c2d60	0.06844592
141	0x3df2b454	0.11850801
142	0xbe387406	-0.1801301
143	0x3de1af7c	0.11019799
144	0xbe3566b2	-0.17714956
145	0xbe3084ca	-0.17238155
146	0xbdf0a0c7	-0.11749416
147	0x3e19abc0	0.15006924
148	0x3e3d0e7e	0.1846256
149	0xbd759604	-0.05995752
150	0x3cf2bd90	0.029631406
151	0x3e63d8f8	0.22250736
152	0xbe5ff048	-0.21869004
153	0xbe36b4c5	-0.17842396
154	0x3dfa5234	0.1222271
155	0xbd826a6c	-0.063679546
156	0x3d62c620	0.055364728
157	0xbe282388	-0.16419804
158	0x3e60baca	0.21946254
159	0x3e066030	0.1312263
160	0xbdca7d16	-0.098871395
161	0x3e45ec5a	0.19328442
162	0xbe22f3c8	-0.15913308
163	0x3da19af4	0.07890883
164	0xbd002054	-0.03128083
165	0xbe430b00	-0.19047165
166	0xbc9868d0	-0.018604666
167	0xbe2b860a	-0.1675035
168	0x3e2c7856	0.1684278
169	0x3d8bbc68	0.06823045
170	0x3e146de0	0.14495039
171	0xbe3ecda7	-0.18633138
172	0x3d67c1c8	0.05658129
173	0xbe4d34c1	-0.20039655
174	0x3e36d186	0.17853364
175	0x3e110180	0.14160728
176	0x3a781200	0.00094631314
177	0x3e0cc6fa	0.13747779
178	0x3e0fec76	0.14055046
179	0xbddd81ce	-0.10815774
180	0x3cf32a20	0.029683173
181	0xbe1d61f8	-0.15369403
182	0x3d128b60	0.03577745
183	0x3e1858fc	0.14877695
184	0xbe51a72e	-0.2047393
185	0xbe43b470	-0.191118
186	0x3ca219f8	0.019787773
187	0xbe59c2f1	-0.2126577
188	0xbe1558d2	-0.14584664
189	0xbe08733f	-0.13325213
190	0xbd1df72c	-0.0385658
191	0x3da05664	0.07828978
192	0xbe4c1b26	-0.19932231
193	0xbdb554ba	-0.08854051
194	0xbd4633fc	-0.04838942
195	0x3bfda200	0.007740259
196	0xbddf230a	-0.10895355
197	0x3d980c3c	0.074242085
198	0x3d3b22e8	0.045687586
199	0x3dc4c250	0.09607375
200	0x3e2b6b3e	0.16740128
201	0x3e225178	0.1585139
202	0xbe2e7ca1	-0.1703973
203	0xbd195f64	-0.037444487
204	0x3d2b42c8	0.041811734
205	0xbe1ade78	-0.15123928
206	0xbd8e4bec	-0.06948075
207	0xbe1f4872	-0.1555498
208	0x3e280778	0.16409099
209	0xbe2c0616	-0.16799197
210	0x3d0b9b38	0.034083575
211	0x3e17e080	0.14831734
212	0xbc802898	-0.015644357
213	0xbb49fbc0	-0.003082022
214	0xbe617f02	-0.22021106
215	0x3d2a5db0	0.041593254
216	0xbe203bc2	-0.15647796
217	0x3e5b0086	0.21386918
218	0xbdb88c4a	-0.09011133
219	0xbe21b388	-0.15791142
220	0x3dc8b8a8	0.098008454
221	0xbe26b603	-0.1628037
222	0x3e309b5e	0.17246768
223	0xbe47ddae	-0.19518158
224	0x3d85350c	0.065042585
225	0xbe0b76f8	-0.13619602
226	0x3e61ce36	0.2205132
227	0xbc987ad0	-0.018613249
228	0xbd9d331e	-0.076757655
229	0xbdfbf519	-0.12302608
230	0x3e0b2326	0.13587627
231	0xbe15d552	-0.14632156
232	0xbe0b12f4	-0.13581449
233	0xbe4979e8	-0.1967541
234	0x3a00b700	0.00049100816
235	0xbe0ee08f	-0.1395285
236	0x3e30473e	0.17214677
237	0xbe1a28e3	-0.1505466
238	0xbb334080	-0.0027351677
239	0xbe03ca44	-0.12870127
240	0x3d68d8e8	0.056847483
241	0xbcda0c88	-0.026617303
242	0xbdc7d536	-0.09757464
243	0x3d00ce98	0.031447023
244	0x3e0e412e	0.13892052
245	0x3d4152b0	0.047197998
246	0xbe067320	-0.13129854
247	0x3d20ce08	0.039258987
248	0xbe41e05e	-0.18933246
249	0xbd45f4d8	-0.048329204
250	0xbe4e77ea	-0.20162931
251	0x3db6f854	0.089340836
252	0xbe19a604	-0.15004736
253	0xbe4782c8	-0.19483483
254	0xbe12ef58	-0.14349115
255	0xbd9e73c4	-0.07736924

lstm.bias_ih_l0 f4 [80]
0	0xbd57f584	-0.052724376
1	0xbe30bcc6	-0.17259511
2	0xbe150da0	-0.14555979
3	0x3e02b151	0.12762953
4	0x3e0a6857	0.13516365
5	0x3d8b5c05	0.06804661
6	0x3e49fe1d	0.19725843
7	0x3e588ed4	0.21148235
8	0xbe47c912	-0.19510296
9	0xbe4686b0	-0.19387317
10	0xbd859401	-0.0652237
11	0xbda35baa	-0.07976468
12	0xbd694997	-0.056954946
13	0x3e529b14	0.2056697
14	0xbd790c00	-0.06080246
15	0xbe566433	-0.2093666
16	0xbdc5cb02	-0.09657861
17	0xbdfbf668	-0.12302858
18	0xbd4b2388	-0.049594432
19	0xbd7f58cf	-0.062340554
20	0xbae1aa00	-0.0017216802
21	0x3e39b9aa	0.18137231
22	0xbe63035b	-0.22169249
23	0xbdc1f126	-0.094698235
24	0xbe12d444	-0.14338785
25	0x3e62fdbe	0.22167107
26	0xbd3cc86c	-0.046089575
27	0x3de6ae30	0.112636924
28	0xbe45fc5f	-0.19334553
29	0x3a194c00	0.00058478117
30	0xbdfe13dd	-0.12406132
31	0xbcac0718	-0.020999476
32	0x3de22f68	0.11044198
33	0x3da970b8	0.082734525
34	0x3d928144	0.07153562
35	0xbe19eddc	-0.15032142
36	0xbcda2160	-0.026627243
37	0x3e5679a2	0.20944837
38	0x3e116da8	0.14201987
39	0xbdfb836c	-0.12280926
40	0xbc6d3dad	-0.014480037
41	0xbd7ff74f	-0.06249171
42	0x3d20c4d3	0.039250206
43	0x3e52409d	0.2053246
44	0xbe2108bb	-0.15725987
45	0xbe534985	-0.20633514
46	0xbd80124c	-0.0625349
47	0x3dc300ca	0.09521635
48	0xbe4d8060	-0.20068502
49	0xbe0d0e62	-0.13775018
50	0x3cea0a9d	0.028569514
51	0xbdef3cc8	-0.11681515
52	0x3e00176c	0.12508935
53	0xbdf8b39d	-0.121436335
54	0x3dfc002b	0.123047195
55	0xbdb79647	-0.0896421
56	0xbdf8af2f	-0.121427886
57	0xbe6c2ca4	-0.23063904
58	0xbe605ec3	-0.21911149
59	0x3e57f21b	0.2108845
60	0xbb3b46b8	-0.0028576087
61	0xbdbe67ff	-0.092971794
62	0x3dd27cc6	0.10277705
63	0x3da88988	0.08229357
64	0x3e453191	0.1925719
65	0xbd02a755	-0.03189786
66	0xbe075c14	-0.13218719
67	0xbda670a1	-0.08126951
68	0xbca339c0	-0.019924998
69	0xbd41e292	-0.047335215
70	0x3e368d4a	0.17827335
71	0xbe122917	-0.14273487
72	0x3e591e4b	0.21202962
73	0x3e2cf477	0.16890131
74	0x3e0b67bf	0.13613795
75	0x3cdd9f55	0.027053514
76	0x3d8433d2	0.064551964
77	0xbd68cd51	-0.05683643
78	0xbde75098	-0.11294669
79	0x3dd12ecf	0.10214006

lstm.bias_hh_l0 f4 [80]
0	0x3def1a11	0.11674894
1	0xbde01b23	-0.10942676
2	0xbe15c389	-0.14625372
3	0xbd6d2ae3	-0.057902228
4	0x3dd6dd53	0.10491433
5	0xbe526029	-0.20544495
6	0xbde28662	-0.11060788
7	0xbe575db2	-0.21031836
8	0xbe03bae2	-0.12864259
9	0x3da57fb8	0.08081001
10	0x3e1dd712	0.15414074
11	0x3cc28c37	0.0237485
12	0x3d455a39	0.048181746
13	0x3de000a6	0.10937624
14	0x3dbe75a1	0.0929978
15	0x3d51d97e	0.051232807
16	0x3da273ca	0.07932241
17	0x3e1b38e3	0.1515842
18	0xbcbeb5e5	-0.023280093
19	0xbe178793	-0.14797811
20	0xbde726b4	-0.11286679
21	0x3e061c0a	0.13096634
22	0x3de401ac	0.111331314
23	0xbdf33e05	-0.11877064
24	0x3d66bcb8	0.05633232
25	0x3e040eda	0.1289629
26	0xbe2eff19	-0.170895
27	0xbb118880	-0.0022206604
28	0x3e33ab54	0.17545825
29	0xbc969c08	-0.018384948
30	0x3e02aff0	0.12762427
31	0xbd245d74	-0.040128186
32	0xbd3ed55c	-0.046590194
33	0xbb60bbc0	-0.0034291595
34	0xbe291f78	-0.1651591
35	0x3d37c7e8	0.04486838
36	0xbe63b8b2	-0.22238424
37	0x3e5fd18c	0.2185728
38	0xbd95d8da	-0.07316752
39	0x3c25f3d0	0.01012893
40	0x3e355f31	0.17712094
41	0x3b10e097	0.0022106522
42	0xbccc31f2	-0.02492616
43	0xbdf6a260	-0.12042689
44	0x3dbf311a	0.09335537
45	0x3e4f8bf1	0.20268227
46	0xbd342c56	-0.043987595
47	0xbe5c4022	-0.2150884
48	0x3e06cb6f	0.13163541
49	0x3e29b1ac	0.16571683
50	0xbdb8e9fa	-0.090290025
51	0xbe251194	-0.16119987
52	0x3d7e47ca	0.062080182
53	0xbdc13d97	-0.094355755
54	0x3e4710c8	0.19439995
55	0x3e424811	0.18972804
56	0x3dd9e501	0.10639382
57	0xbe1be3ac	-0.15223569
58	0x3e430a22	0.19046834
59	0xbd38b90b	-0.045098346
60	0x3e410726	0.18850383
61	0xbdc8f91f	-0.09813141
62	0x3e4ec75f	0.20193242
63	0x3d8d3714	0.06895271
64	0x3e264761	0.16238166
65	0x3e2782ca	0.16358486
66	0xbe4ea960	-0.20181799
67	0xbe292091	-0.1651633
68	0xbe49e885	-0.19717605
69	0x3e013e58	0.12621439
70	0xbe54e257	-0.20789467
71	0xbe536376	-0.2064341
72	0xbdf74717	-0.12074106
73	0x3d84bbb0	0.06481111
74	0x3d9aa841	0.07551623
75	0x3c159172	0.009128915
76	0xbe4e7f2c	-0.201657
77	0x3e1789d0	0.14798665
78	0x3e5d2a12	0.2159808
79	0x3d4fe565	0.050755877

lstm.weight_ih_l0_reverse f4 [80, 100]
0	0x3e0d429a	0.13794938
1	0xbe34461a	-0.17604867
2	0xbe5985d8	-0.21242464
3	0xbe26bfd9	-0.16284122
4	0x3cc80724	0.024417467
5	0xbd743e03	-0.05962945
6	0xbde3ce1a	-0.11123295
7	0xbe066aad	-0.13126631
8	0xbcb229b4	-0.021748401
9	0x3dfaebde	0.12252019
10	0x3e37b59f	0.17940377
11	0xbe01be67	-0.12670289
12	0xbdb076a2	-0.086163774
13	0xbe44f13b	-0.19232647
14	0x3d8c97d0	0.068648934
15	0xbe030e54	-0.12798434
16	0xbcb40187	-0.021973385
17	0x3c700ac5	0.014651005
18	0x3e3c3374	0.18379003
19	0xbdbcecfa	-0.09224887
20	0x3e4025cc	0.18764418
21	0x3e473b40	0.19456196
22	0xbe458443	-0.19288735
23	0x3e472e2e	0.1945121
24	0x3cc7c213	0.024384534
25	0x3d836b70	0.064169765
26	0xbd351469	-0.044208918
27	0xbe395ae3	-0.18101077
28	0x3c873d80	0.016508818
29	0x3e132412	0.14369228
30	0x3dc79813	0.09745803
31	0xbd4a6bf0	-0.049419343
32	0x3e152d8b	0.14568155
33	0x3c714b98	0.014727496
34	0x3d8c286b	0.068436466
35	0x3e0567fb	0.13027947
36	0xbe0dfba5	-0.13865526
37	0x3ddb4d7e	0.1070814
38	0x3ccbbb7e	0.024869677
39	0x3dd4093d	0.103533246
40	0xbd707e78	-0.05871436
41	0x3e48e2de	0.19617793
42	0x3c1dc7e3	0.009630176
43	0xbe01ea39	-0.12687005
44	0xbe34ba40	-0.17649174
45	0x3e1c1420	0.15242052
46	0x3e54cc3e	0.20781037
47	0xbdb2f20e	-0.087375745
48	0xbddda2e3	-0.10822084
49	0xbe276445	-0.16346844
50	0x3de3db27	0.11125784
51	0x3e087cad	0.1332881
52	0x3da6d1f8	0.08145517
53	0x3dce14cc	0.100625604
54	0xbe023e40	-0.12719059
55	0xbe1ca374	-0.15296727
56	0x3ddd2915	0.107988514
57	0xbd523524	-0.05132021
58	0xbd5d50c0	-0.054032087
59	0xbde0d6f4	-0.10978499
60	0xbe379393	-0.17927389
61	0xbbde1225	-0.0067770653
62	0xbe5216d1	-0.20516516
63	0x3d9422a5	0.072331704
64	0xbe158e4a	-0.1460506
65	0x3e31a207	0.17346965
66	0xbe40835a	-0.18800107
67	0xbdc4fedb	-0.09618922
68	0x3ddfb542	0.10923244
69	0xbe40dbd2	-0.18833855
70	0x3db3823d	0.08765075
71	0xbe0c87a8	-0.13723624
72	0x3db2dd48	0.08733612
73	0x3aa08d10	0.0012249071
74	0x3d1ed051	0.038772885
75	0xbda23897	-0.0792095
76	0x3e0fa4ee	0.1402776
77	0x3dd14086	0.10217385
78	0x3e016600	0.12636566
79	0x3dcded2c	0.100550026
80	0x3e528dc2	0.20561889
81	0xbe0132a1	-0.1261697
82	0x3e5a44b0	0.21315265
83	0x3dfaefd0	0.12252772
84	0x3d90beca	0.0706764
85	0xbd73925a	-0.059465744
86	0x3e1c36d4	0.1525529
87	0x3de83972	0.11339082
88	0x3e049ba7	0.12950002
89	0x3c32b7ea	0.010908106
90	0xbe0f1fbb	-0.13976948
91	0x3da82582	0.08210279
92	0xbe3514a2	-0.17683652
93	0x3d7dbd24	0.061947957
94	0xbdd55a8e	-0.104176626
95	0xbc1ab8f6	-0.009443512
96	0xbd9dbda8	-0.0770219
97	0x3c77b22a	0.015118161
98	0xbdb2d395	-0.08731762
99	0x3d88d7e2	0.066818014
100	0x3e36f506	0.17866907
101	0xbe022b96	-0.12711939
102	0xbdde5e9e	-0.108578905
103	0x3c0ea637	0.008706621
104	0xbe5e0ea1	-0.21685268
105	0x3d9b84a9	0.07593662
106	0x3df79b1d	0.120901324
107	0xbdebd9a1	-0.11516119
108	0xbdb2dced	-0.087335445
109	0x3d8d5d50	0.069025636
110	0xbe196a0d	-0.14981861
111	0x3caa4b30	0.020787805
112	0xbe6246f7	-0.22097383
113	0xbdb2e54f	-0.087351434
114	0xbc0e2b6b	-0.008677344
115	0xbd196431	-0.037449066
116	0x3e407142	0.18793204
117	0x3d47792d	0.048699547
118	0xbe639248	-0.2222377
119	0xbdb3bf69	-0.08776743
120	0x3e26c198	0.16284788
121	0x3e1e106f	0.15435956
122	0x3e25c539	0.16188516
123	0x3e1ded8d	0.1542265
124	0x3c9cede1	0.019156398
125	0x3d04015c	0.03222786
126	0xbc991077	-0.018684609
127	0xbdc006ea	-0.09376319
128	0xbdfcf0c7	-0.12350612
129	0x3d9f542f	0.077797286
130	0x3b8d354a	0.004309331
131	0x3e543068	0.2072159
132	0xbe4d8263	-0.2006927
133	0x3e26e6a1	0.16298915
134	0xbe39c8a4	-0.18142945
135	0x3d36ba45	0.044611234
136	0xbd80829c	-0.06274912
137	0x3d8ff7c0	0.070296764
138	0x3d867773	0.06565752
139	0xbdc07f46	-0.093992755
140	0xbe19038a	-0.14942756
141	0xbe264e2e	-0.1624076
142	0x3e1b4f95	0.15167077
143	0xbe317686	-0.1733037
144	0xbd9d3104	-0.076753646
145	0x3e47c837	0.1950997
146	0x3d01e6dd	0.03171431
147	0x3dd6dcd4	0.10491338
148	0xbbec624c	-0.0072138663
149	0xbe1c30ab	-0.1525294
150	0xbe362d35	-0.17790683
151	0x3d335e42	0.043791063
152	0x3b105a09	0.0022026321
153	0xbe267814	-0.16256744
154	0x3d23d410	0.03999716
155	0x3d15f822	0.03661359
156	0x3de4e32c	0.11176142
157	0xbdc483a2	-0.095954195
158	0x3dd3133e	0.103064045
159	0x3e0b2c45	0.13591106
160	0x3e2b2c1b	0.16716044
161	0xbcec0323	-0.02881009
162	0x3d6a0394	0.05713232
163	0x3e2a6f73	0.16644077
164	0x3e169a08	0.14707196
165	0xbdce99c0	-0.10087919
166	0x3d734e87	0.05940106
167	0xbe5eded3	-0.21764688
168	0x3d12ace5	0.035809416
169	0x3cfeeb40	0.031118035
170	0x3d00174c	0.031272218
171	0x3e03099d	0.12796636
172	0x3c9c5e8a	0.019088048
173	0xbd3b2469	-0.04568902
174	0x3e3fd903	0.18735127
175	0xbd8be67a	-0.06831069
176	0xbd55576c	-0.052085325
177	0xbdefb801	-0.11705018
178	0xbe59080e	-0.21194479
179	0xbe03c1fc	-0.12866968
180	0x3e11f5c4	0.14253908
181	0x3dbca297	0.09210699
182	0x3e09cf79	0.13458051
183	0x3e0f53ff	0.13996886
184	0xbb403654	-0.0029329257
185	0xbce1b401	-0.027551653
186	0x3e1e5733	0.15462951
187	0x3e142d04	0.14470297
188	0xbdbdd276	-0.09268658
189	0x3e239211	0.15973689
190	0xbe2dd997	-0.16977535
191	0x3dc3a8e8	0.09553701
192	0xbdfe48d5	-0.12416235
193	0xbe03f81d	-0.12887616
194	0x3d46a402	0.048496254
195	0x3e0a7a8d	0.13523312
196	0xbe3ce5b5	-0.18447001
197	0x3e545a36	0.20737538
198	0xbe3d7163	-0.18500285
199	0x3e0b03c0	0.1357565
200	0xbe3aaeb3	-0.18230705
201	0x3e193349	0.1496097
202	0x3e175cb5	0.14781459
203	0xbd07cb84	-0.033153072
204	0x3e2e3e9a	0.17016068
205	0x3de68f2a	0.11257775
206	0xbe2c5757	-0.16830193
207	0x3e2fe7dd	0.17178293
208	0xbd77e635	-0.060522277
209	0xbe076b42	-0.1322451
210	0xbc27ac80	-0.010233998
211	0xbca2a3fe	-0.019853588
212	0x3e4ea587	0.20180331
213	0x3e616d31	0.2201431
214	0xbda3aa1f	-0.079914324
215	0x3db05cc8	0.086114466
216	0xbbd43cdb	-0.006476981
217	0xbd46a9d0	-0.04850179
218	0x3e1c2de2	0.15251878
219	0x3bc257bb	0.0059308684
220	0xbdc6ff75	-0.09716693
221	0x3e5cc4ab	0.21559398
222	0x3dfd8ae7	0.12380009
223	0xbd919208	-0.071079314
224	0xbe2b529a	-0.16730729
225	0xbbd13404	-0.0063843746
226	0x3d3b2933	0.045693588
227	0x3bb268f5	0.0054446408
228	0x3e13975c	0.14413208
229	0xbdc0bf54	-0.09411493
230	0x3de93c83	0.11388495
231	0xbdbb14dc	-0.09134838
232	0x3e2bc490	0.16774201
233	0x3de8e030	0.11370885
234	0xbdb6a7cc	-0.089187235
235	0xbd6379d8	-0.05553612
236	0x3e0ab45f	0.13545369
237	0xbe2b47bf	-0.16726588
238	0xbd1fb847	-0.0389941
239	0x3d103154	0.035203293
240	0xbe053440	-0.13008213
241	0x3d3df5a7	0.04637685
242	0xbdb31e74	-0.08746043
243	0x3e421a39	0.18955316
244	0x3db206b1	0.086926825
245	0x3e37f100	0.17963028
246	0x3e669d18	0.22520864
247	0xbe1830dd	-0.1486239
248	0xba2301f5	-0.0006218248
249	0xbded36b6	-0.11582701
250	0x3d67664e	0.05649405
251	0x3da04599	0.07825775
252	0x3e39a729	0.18130173
253	0xbdc3377b	-0.095320664
254	0xbd0ac59d	-0.033879865
255	0xbd04d688	-0.032431155

lstm.weight_hh_l0_reverse f4 [80, 20]
0	0xbe0bfdd0	-0.1367104
1	0x3d66a590	0.056310236
2	0x3d937104	0.071992904
3	0x3e51142c	0.20417851
4	0x3e368d84	0.17827421
5	0xbe04b591	-0.12959887
6	0x3beb1060	0.007173583
7	0x3d598380	0.053103924
8	0xbd3dd26c	-0.046343252
9	0xbe1eb5ba	-0.1549901
10	0xbe3f6749	-0.18691744
11	0x3defb344	0.11704114
12	0x3da9dec8	0.08294445
13	0x3e5de336	0.21668705
14	0xbdf75157	-0.12076061
15	0x3e56a344	0.20960718
16	0xbe292ae4	-0.16520268
17	0xbdbb8cda	-0.09157725
18	0x3cbe7e10	0.02325347
19	0x3e016b00	0.12638474
20	0x3da6e230	0.081486106
21	0x3de2dbe4	0.11077097
22	0xbe0a4e80	-0.13506508
23	0xbe1e7f90	-0.15478349
24	0xbdeb6026	-0.11492948
25	0xbe570425	-0.20997675
26	0xbe062b58	-0.13102472
27	0xbe50cee3	-0.20391421
28	0x3e42eb40	0.19035053
29	0xbe09904a	-0.13433948
30	0xbdb1f90c	-0.0869008
31	0xbe0162e9	-0.12635387
32	0xbd5a58f8	-0.053307503
33	0x3bf1fe80	0.007385075
34	0x3e156654	0.14589816
35	0xbddee55e	-0.10883592
36	0xbdd282f5	-0.10278884
37	0xbe5a0369	-0.21290363
38	0xbcfaa330	-0.030595392
39	0xbcfda620	-0.030963004
40	0xbd3195b8	-0.043355674
41	0xbe4c6bf3	-0.19963054
42	0x3e43a56c	0.19106072
43	0xbe40611c	-0.18787044
44	0x3d673538	0.056447238
45	0x3c8b1248	0.01697649
46	0xbce0c7f8	-0.027439103
47	0xbcfb8828	-0.030704573
48	0xbba12280	-0.004917443
49	0x3c858978	0.016300902
50	0x3cfd0fb0	0.03089127
51	0x3c6fa840	0.014627516
52	0x3e00759e	0.12544867
53	0x3e21acba	0.15788546
54	0x3d440710	0.047858298
55	0x3dd021c4	0.1016269
56	0x3e1d6bec	0.153732
57	0xbd0987d8	-0.033576816
58	0xbe108465	-0.14113005
59	0x3e1f0a30	0.1553123
60	0xbd89690a	-0.06709488
61	0x3e2b8fee	0.16754124
62	0xbe032f56	-0.12811026
63	0xbe0736f4	-0.13204557
64	0xbd63774c	-0.055533692
65	0x3e33132e	0.17487785
66	0x3e507c04	0.20359808
67	0xbc5f1bc0	-0.013617456
68	0x3c9d2890	0.01918438
69	0xbe40bd54	-0.18822223
70	0x3e2eceaa	0.17071024
71	0x3dda6d18	0.10665339
72	0x3dc4d0d0	0.0961014
73	0xbdc53024	-0.09628323
74	0x3d3b7600	0.04576683
75	0x3d8f81e0	0.070071936
76	0xbd15a0b4	-0.03653021
77	0x3b474b00	0.0030409694
78	0xbcdae670	-0.02672121
79	0xbe4d0af2	-0.20023707
80	0x3c6d6fd0	0.01449199
81	0x3e3ae9cc	0.18253249
82	0xbda34362	-0.079718366
83	0xbde7ec6d	-0.113243915
84	0x3d9305ac	0.07178816
85	0x3d010ff8	0.03150937
86	0x3d859210	0.06522
87	0xbe2dddbe	-0.16979119
88	0xbce1dcd0	-0.027571112
89	0xbe554844	-0.20828348
90	0xbd286fcc	-0.041122243
91	0x3d8d1e54	0.0689055
92	0x3d99f3b8	0.07517189
93	0x3c9d6250	0.019211918
94	0xbc7f5510	-0.015584245
95	0xbd73d518	-0.059529394
96	0xbdc76168	-0.09735376
97	0x3e3e7dee	0.18602726
98	0x3d1c8c58	0.03821978
99	0xbdce9342	-0.10086681
100	0x3e37693e	0.1791124
101	0xbcd49180	-0.025948286
102	0xbe614863	-0.2200027
103	0x3e1b5186	0.15167817
104	0xbe0e235e	-0.13880679
105	0xbe0ebadc	-0.13938469
106	0xb8a77000	-7.984042e-05
107	0x3c126ac0	0.008936584
108	0xbd1d8134	-0.038453296
109	0x3e48af7c	0.19598192
110	0xbcd240d8	-0.025665686
111	0xbe0731c3	-0.13202576
112	0xbe3b4014	-0.18286163
113	0x3c794df0	0.015216336
114	0x3e1c4292	0.1525977
115	0x3de67774	0.112532526
116	0x3e18dd7c	0.1492824
117	0xbe1b6775	-0.15176184
118	0xbe514eae	-0.2044017
119	0xbd7c961c	-0.061666593
120	0xbdd2d969	-0.10295374
121	0xbd882de4	-0.06649378
122	0x3e00224c	0.12513083
123	0xbdf42cc0	-0.11922598
124	0x3e4b975c	0.19881958
125	0xbd07f958	-0.033196777
126	0xbdea0599	-0.11426849
127	0xbdce7e65	-0.100827016
128	0xbe090802	-0.13381961
129	0xbe5691cc	-0.20954055
130	0xbe4a83d8	-0.19776857
131	0xbde485f4	-0.11158362
132	0x3e1b50aa	0.1516749
133	0x3d0f3ee8	0.0349721
134	0xbe64088f	-0.2226889
135	0x3bbae440	0.005703479
136	0x3e3c184c	0.18368644
137	0xbd64c9d4	-0.05585654
138	0xbe13c358	-0.14429986
139	0x3e0f1d9e	0.13976142
140	0x3e22a3be	0.15882775
141	0x3cb456a8	0.022013977
142	0x3e5b38f2	0.21408442
143	0xbe32d2ac	-0.17463177
144	0x3daf293c	0.08552787
145	0x3e12b7c0	0.14327908
146	0xbe12a4d0	-0.14320683
147	0x3cee3390	0.029077321
148	0x3c2f8010	0.010711685
149	0x3e5541fc	0.20825952
150	0x3d936840	0.071976185
151	0x3dfa58b4	0.1222395
152	0xbd2a88b8	-0.04163429
153	0x3deb3ca8	0.11486179
154	0xbdeca6d6	-0.11555259
155	0xbdb78c9e	-0.089623675
156	0x3bb9ab40	0.0056661665
157	0xbe3252b4	-0.17414361
158	0xbce74598	-0.028231427
159	0xbdc42b7a	-0.09578605
160	0x3e5586be	0.20852181
161	0x3e1fae00	0.1559372
162	0xbdfc5cf0	-0.12322414
163	0x3e3e7570	0.18599486
164	0x3e0faebc	0.140315
165	0xbe178ca7	-0.14799748
166	0xbe36aaa3	-0.1783853
167	0x3cd313b0	0.025766224
168	0x3d43cdf8	0.04780385
169	0xbc3a6490	-0.011376515
170	0x3c569f20	0.013099462
171	0x3e601c7e	0.21885869
172	0x3cd0b808	0.025478378
173	0xbe3f96df	-0.18709897
174	0x3e0d7602	0.13814548
175	0xbe12a4c0	-0.1432066
176	0xbe5a59e4	-0.21323353
177	0xbd695be0	-0.056972384
178	0xbe60f07d	-0.21966739
179	0xbe084bea	-0.13310209
180	0x3df13984	0.11778548
181	0x3da6e634	0.081493765
182	0xbd903a46	-0.07042365
183	0x3e5194c8	0.20466912
184	0xbdbff6a0	-0.09373212
185	0xbdffd05a	-0.12490912
186	0xbd8248c6	-0.06361537
187	0x3e50b408	0.20381176
188	0xbd4d8684	-0.050177112
189	0xbe24eafc	-0.16105264
190	0xbe5b843d	-0.21437164
191	0x3e5cf9e4	0.215797
192	0xbc00eb00	-0.007868528
193	0xbe5e397b	-0.21701615
194	0xbe576a76	-0.21036705
195	0xbe10b64a	-0.14132038
196	0x3d2c10e0	0.04200828
197	0xbe155f47	-0.14587127
198	0xbd057100	-0.03257847
199	0x3e47cc3c	0.19511503
200	0x3d8be620	0.06831002
201	0xbdfa7519	-0.12229366
202	0xbe02cc19	-0.1277317
203	0x3e05ef32	0.13079527
204	0xbe45ab4b	-0.19303624
205	0x3e2fe4ce	0.17177126
206	0x3e1c505c	0.1526503
207	0xbd5f5e04	-0.05453302
208	0x3db9e6e4	0.09077242
209	0xbe58c6a7	-0.2116953
210	0x3e54ae2a	0.20769563
211	0xbe0ff66e	-0.14058849
212	0xbda477dc	-0.08030674
213	0xbbef8080	-0.0073090196
214	0x3d3921c0	0.045198202
215	0xbe27e0d0	-0.16394353
216	0xbe234aee	-0.15946552
217	0xbde0b735	-0.10972444
218	0xbe53bd52	-0.20677689
219	0xbe11473f	-0.14187334
220	0xbdbd9ea6	-0.092587754
221	0xbdbd3000	-0.09237671
222	0xbd8f51ae	-0.06998001
223	0xbe6023f7	-0.2188872
224	0x3e440764	0.19143444
225	0x3db6db64	0.08928564
226	0x3daac618	0.08338565
227	0xbe53308d	-0.2062399
228	0x3cfe3800	0.031032562
229	0xbe1a883c	-0.15091032
230	0xbd42f694	-0.047598436
231	0xbd8f2f84	-0.06991485
232	0x3dcc55cc	0.09977302
233	0x3e3d60b4	0.1849392
234	0x3e40a0c2	0.18811324
235	0xbdda58b6	-0.106614515
236	0x3e430ae2	0.1904712
237	0xbe2a63b1	-0.16639592
238	0x3e365af8	0.1780814
239	0xbe01939a	-0.12653962
240	0xbd8f16dc	-0.06986782
241	0xbc8e8900	-0.017399311
242	0xbdafd9b6	-0.08586447
243	0xbe240a10	-0.16019464
244	0x3e45c1f0	0.19312263
245	0x3e463340	0.19355488
246	0xbe5c5675	-0.21517356
247	0xbc6b5ec0	-0.014365852
248	0x3e32e7cc	0.17471236
249	0x3b404d40	0.002934292
250	0x3e4609a2	0.19339612
251	0xbde7e2ac	-0.11322531
252	0x3d88d030	0.066803336
253	0xbcee5a50	-0.029095799
254	0x3e0629d8	0.131019
255	0xbe25d1f4	-0.16193372

lstm.bias_ih_l0_reverse f4 [80]
0	0xbd56b5aa	-0.052419342
1	0x3e1069d6	0.14102873
2	0xbc3215ce	-0.010869456
3	0xbe2624f7	-0.16225038
4	0x3ca84745	0.020541796
5	0xbd8c7053	-0.06857362
6	0x3e471072	0.19439867
7	0x3cfec269	0.031098561
8	0xbd1ddf7c	-0.03854321
9	0xbe30a956	-0.17252097
10	0x3e135642	0.14388373
11	0x3e283cd7	0.16429459
12	0x3e604801	0.21902467
13	0xbe5b2507	-0.21400844
14	0xbe583664	-0.21114498
15	0xbe5a9e51	-0.21349455
16	0xbd5bebd8	-0.053691715
17	0x3dd39110	0.10330403
18	0xbd1a7c49	-0.037716184
19	0x3e3c6fc3	0.18402009
20	0x3dc2e324	0.0951598
21	0xbb2ca280	-0.0026341975
22	0xbc071810	-0.008245483
23	0x3e1fee96	0.15618357
24	0x3d8ada00	0.067798615
25	0xbe464220	-0.19361162
26	0x3e54b9b8	0.20773971
27	0xbe36200d	-0.17785664
28	0xbdf3c502	-0.11902811
29	0xbe4866b4	-0.19570428
30	0xbe2d758d	-0.16939373
31	0x3e46d522	0.19417241
32	0x3db6f960	0.08934283
33	0xbdb5f42a	-0.08884461
34	0x3e3c8d0c	0.1841318
35	0x3e186d08	0.14885342
36	0x3d63ae58	0.05558619
37	0x3e486808	0.19570935
38	0xbddabfbd	-0.106811024
39	0x3c9a8550	0.018862396
40	0xbd557c41	-0.05212045
41	0xbe0f3ddc	-0.13988441
42	0x3e021e8e	0.12706968
43	0x3d8f8848	0.070084155
44	0x3e27ce72	0.16387346
45	0xbe20e962	-0.15714028
46	0x3debea1b	0.115192614
47	0x3da0537f	0.078284256
48	0xbe06cc18	-0.13163793
49	0x3cf63e3e	0.030058976
50	0x3dfe2b00	0.12410545
51	0xbcf0d998	-0.029400632
52	0x3d33720a	0.043809928
53	0x3e51a841	0.2047434
54	0x3c3ec17c	0.01164281
55	0x3cbbe40f	0.022935895
56	0xbe19169b	-0.1495003
57	0x3d553683	0.05205394
58	0xbe0e3131	-0.13885953
59	0x3bd21de5	0.006412255
60	0xbe532bd9	-0.20622195
61	0x3d362633	0.044470023
62	0xbd9584e7	-0.0730074
63	0xbe0ef04f	-0.13958858
64	0xbe426982	-0.1898556
65	0x3de96192	0.11395563
66	0x3dee19f0	0.11626041
67	0x3e16fb26	0.14744243
68	0xbd30b1fe	-0.043138497
69	0xbd29a45c	-0.04141651
70	0x3cd7f3eb	0.026361426
71	0x3db36f7f	0.087615006
72	0x3e17245f	0.14759968
73	0x3e31d388	0.17365849
74	0x3cf3832d	0.029725635
75	0xbbd35dda	-0.006450397
76	0xbe33e535	-0.17567904
77	0xbdff4744	-0.12464765
78	0xbd5ca2d0	-0.053866208
79	0x3e0f3598	0.13985288

lstm.bias_hh_l0_reverse f4 [80]
0	0xbe4bd59e	-0.19905707
1	0xbe3c54c3	-0.18391709
2	0x3e1f52d3	0.15558939
3	0x3e105755	0.14095815
4	0xbd9a147b	-0.075234376
5	0x3dc5ef71	0.096648104
6	0x3dc6d7c4	0.09709123
7	0x3c53f21d	0.012936142
8	0xbe0dd850	-0.13852048
9	0x3d8a3f0c	0.067503065
10	0xbe0bec76	-0.13664421
11	0x3e260759	0.1621374
12	0xbe472568	-0.19447863
13	0x3cc258ab	0.02372392
14	0xbe6adb05	-0.22935112
15	0x3e545d80	0.20738792
16	0x3e144dc1	0.14482786
17	0x3b25a66d	0.00252762
18	0xbe09746e	-0.1342332
19	0x3df9d02a	0.12197907
20	0xbdbe2ae8	-0.092855275
21	0x3e08df7a	0.133665
22	0x3e36e174	0.17859441
23	0x3c261060	0.01013574
24	0x3db566a0	0.08857465
25	0xbc53fd40	-0.0129387975
26	0xbdd264ac	-0.10273108
27	0x3e3995b8	0.1812352
28	0xbe571043	-0.21002297
29	0x3d199550	0.03749591
30	0x3e637040	0.22210789
31	0xbe21cee4	-0.15801579
32	0xbdc7cfb0	-0.0975641
33	0xbd986a0c	-0.07442102
34	0x3bb087e0	0.0053872913
35	0x3e592314	0.21204787
36	0xbd9edc38	-0.07756847
37	0xbdf3174b	-0.11869677
38	0x3e0638d0	0.1310761
39	0x3e355196	0.17706904
40	0x3e5ad28e	0.21369383
41	0x3d267f20	0.04064858
42	0xbc2d2837	-0.01056867
43	0x3cdde853	0.02708832
44	0x3e0ca072	0.1373308
45	0xbc4fdedd	-0.012687412
46	0x3e60f997	0.21970211
47	0x3e09d00a	0.13458267
48	0x3e6718c4	0.22568041
49	0xbdc3bc2a	-0.09557374
50	0x3de2c4e4	0.1107271
51	0x3d99735c	0.07492706
52	0xbda8cbd5	-0.08242003
53	0xbd6337d5	-0.055473167
54	0xbc523052	-0.012828903
55	0x3caf0819	0.021366166
56	0xbe4184d7	-0.1889833
57	0x3d67ca1b	0.056589227
58	0xbe684d83	-0.22685818
59	0xbd3e5e8c	-0.046476886
60	0x3c67f3b5	0.014157225
61	0xbdd9df4e	-0.10638295
62	0xbdee0d95	-0.11623684
63	0x3e1f8175	0.15576728
64	0x3e426844	0.18985087
65	0xbd942e96	-0.07235448
66	0xbe31f50a	-0.17378631
67	0xbd90a1a0	-0.070620775
68	0x3e2e0d10	0.1699717
69	0x3e21c524	0.1579786
70	0x3c1705d0	0.009217694
71	0xbd3890c2	-0.045059927
72	0xbdcfca70	-0.10146034
73	0xbd8965f8	-0.06708902
74	0x3c07fca3	0.008299979
75	0xbd4f641e	-0.05063259
76	0xbdfdd554	-0.12394205
77	0x3e33a113	0.17541914
78	0x3e6a7cbd	0.22899146
79	0x3e2fee86	0.17180833

dense.weight f4 [20, 40]
0	0xbe0b5382	-0.13606074
1	0x3c967e99	0.018370913
2	0xbd97f8de	-0.074205145
3	0xbd5e957c	-0.05434178
4	0xbbf319f5	-0.007418866
5	0x3e0ccb7b	0.13749497
6	0xbc5ae760	-0.013360828
7	0xbe1434eb	-0.14473312
8	0xbd978b22	-0.07399584
9	0x3d34ec9e	0.04417097
10	0xbe04582f	-0.12924264
11	0x3e001e31	0.12511517
12	0x3d367d99	0.044553373
13	0xbdd56837	-0.10420268
14	0x3e23af5a	0.1598486
15	0xbb755536	-0.0037434823
16	0x3e03c8a4	0.12869507
17	0xbde431d2	-0.11142315
18	0xbd5727ef	-0.052528318
19	0xbbefa418	-0.0073132627
20	0xbdea18c8	-0.11430508
21	0xbe0a5b4d	-0.13511391
22	0xbdc86fb4	-0.09786931
23	0xbd680476	-0.05664488
24	0x3e113e47	0.14183913
25	0x3df0f7e3	0.11766031
26	0x3db6b37e	0.08920954
27	0x3e115c53	0.14195375
28	0x3df5d683	0.120038055
29	0x3c9fe7f6	0.019519787
30	0x3cd05b5f	0.025434194
31	0x3df08e60	0.11745906
32	0x3d21e664	0.03952636
33	0xbdc2b38a	-0.095069006
34	0x3dde103f	0.108429424
35	0xbce63d9a	-0.028105546
36	0xbe0a3a3a	-0.13498774
37	0x3da7012e	0.08154522
38	0x3e118e62	0.14214471
39	0xbd759b0b	-0.059962314
40	0xbd5b1914	-0.053490713
41	0xbdaf27fa	-0.08552547
42	0xbdbaa512	-0.09113516
43	0x3cb6ec15	0.02232937
44	0x3c171115	0.009220381
45	0xbe0febbb	-0.14054768
46	0xbe187cfd	-0.14891429
47	0x3c041754	0.0080622025
48	0xbe27a546	-0.1637164
49	0x3e0b89c1	0.13626768
50	0xbdbaa206	-0.09112935
51	0xbd85c3e4	-0.06531504
52	0x3e297daa	0.16551843
53	0x3e10b51b	0.14131586
54	0x3e102b5c	0.1407904
55	0x3d80dea7	0.062924676
56	0xbdd86dde	-0.105678305
57	0x3d7cfc66	0.061764143
58	0xbe131194	-0.14362174
59	0xbe173853	-0.1476758
60	0x3da03d97	0.07824247
61	0x3e10f721	0.14156772
62	0x3db75c5e	0.089531645
63	0x3c7d989b	0.0154782785
64	0x3dca107a	0.09866424
65	0xbe232539	-0.15932168
66	0x3dfe86cb	0.124280535
67	0xbe0d0a2e	-0.13773414
68	0xbdbeb608	-0.093120635
69	0xbce8e9de	-0.028431829
70	0x3b557973	0.003257361
71	0x3d733960	0.05938089
72	0x3d36f590	0.04466778
73	0x3c7c3acf	0.01539488
74	0xbe0f6642	-0.14003852
75	0xbdf4754d	-0.11936436
76	0x3dff2c17	0.12459581
77	0xbd9764bf	-0.07392263
78	0xbd22f2a4	-0.03978218
79	0x3dbc1622	0.09183909
80	0x3d5817c4	0.05275704
81	0xbc8c98f3	-0.017162776
82	0x3e0893ea	0.13337675
83	0x39b47b77	0.00034424264
84	0xbddc84c3	-0.1076751
85	0x3de13ee6	0.10998325
86	0xbdfd203a	-0.12359662
87	0x3c2ecd9a	0.010669136
88	0x3c969cda	0.01838534
89	0x3cfded1d	0.030996853
90	0xbda8ee3e	-0.08248566
91	0xbe28334f	-0.16425823
92	0xbc808fd1	-0.015693577
93	0x3df4233b	0.11920782
94	0x3df2fecf	0.11865007
95	0xbde1685a	-0.110062316
96	0x3d923ef2	0.07140912
97	0xbdb93c26	-0.090446755
98	0xbdb821b0	-0.089908004
99	0xbe18ee65	-0.1493469
100	0xbdaf8547	-0.085703425
101	0xbe046aaf	-0.12931322
102	0xbd17ac9d	-0.03702985
103	0xbdaf6d18	-0.0856573
104	0xbe099fff	-0.1343994
105	0xbb654add	-0.003498725
106	0xbcf51af8	-0.029920086
107	0xbcd59394	-0.026071347
108	0x3d8bedac	0.06832442
109	0x3d9d2648	0.07673317
110	0x3e1fd0d8	0.15607011
111	0x3d5c044e	0.053715043
112	0xbd43bfd6	-0.04779037
113	0x3adca415	0.0016833568
114	0xbc7bff68	-0.015380718
115	0x3b8e598d	0.0043441714
116	0xbd5716fe	-0.05251216
117	0xbddec3fd	-0.108772255
118	0x3e168578	0.14699352
119	0x3d49f708	0.049307853
120	0x3d1d1f00	0.038359642
121	0x3d655952	0.055993386
122	0xbd53e36d	-0.051730562
123	0xbe045ba6	-0.12925586
124	0x3cfd21b7	0.030899866
125	0xbdbb7e4f	-0.09154951
126	0x3d403082	0.04692126
127	0xbd105c8c	-0.03524451
128	0x3def2549	0.116770335
129	0xbd8f9dc3	-0.070125125
130	0x3d05eba2	0.03269542
131	0x3d136710	0.03598696
132	0x3d85840c	0.065193266
133	0x3daef4a2	0.08542754
134	0xbdc70f33	-0.09719696
135	0x3e17c13d	0.14819808
136	0xbdd8c6ab	-0.10584768
137	0x3e2b152d	0.16707297
138	0x3e26cff5	0.16290267
139	0xba86fb4b	-0.001029828
140	0x3dd524a5	0.1040738
141	0xbdce0049	-0.10058648
142	0x3d14f4b7	0.03636619
143	0x3c4c1f98	0.012458704
144	0x3daa9878	0.08329862
145	0x3d86a96c	0.065752834
146	0x3e04ff96	0.12988123
147	0x3d6dc463	0.058048617
148	0xbdfc096f	-0.12306487
149	0xbd8a269f	-0.06745648
150	0xbd9fa7b9	-0.077956624
151	0xbdfa741c	-0.12229177
152	0x3dbb9122	0.09158541
153	0x3d99e3fe	0.07514189
154	0xbd9e9b99	-0.07744522
155	0xbc735293	-0.01485123
156	0x3e1383e4	0.14405781
157	0x3e179108	0.14801419
158	0x3e07264d	0.13198204
159	0xbb54eb1c	-0.003248877
160	0xbd5b154a	-0.0534871
161	0xbc703bdf	-0.014662712
162	0xbe0b6f26	-0.13616619
163	0x3d894a30	0.06703603
164	0xbdbc4435	-0.09192697
165	0xbbbbb991	-0.0057289083
166	0xbab54633	-0.0013830125
167	0xbe293848	-0.16525376
168	0xbd763538	-0.060109347
169	0x3db68f2f	0.08914029
170	0xbccece5b	-0.025244882
171	0xbdce51c9	-0.10074193
172	0xbc0dd19a	-0.00865593
173	0xbda8e6e2	-0.082471624
174	0xbc5b14b9	-0.01337164
175	0xbd95ca0d	-0.07313929
176	0x3da7b28d	0.08188353
177	0x3da7a7f3	0.08186331
178	0xbd4f5daa	-0.050626434
179	0xbdbaee0a	-0.091274336
180	0x3dc32fd8	0.0953061
181	0xbdb41fe8	-0.08795148
182	0xbdb266a4	-0.087109834
183	0x3e137603	0.14400487
184	0xbd388df1	-0.04505724
185	0x3d8b3b2f	0.06798398
186	0x3e27a8ca	0.16372982
187	0x3d1e4b80	0.03864622
188	0xbda29f84	-0.079405814
189	0xbda9719a	-0.08273621
190	0xbd8c7b0f	-0.06859409
191	0x3e064287	0.13111316
192	0xbd440d90	-0.047864497
193	0x3dacd9a3	0.084399484
194	0x3e22b196	0.15888056
195	0xbdbb86fb	-0.09156605
196	0x3d02e57c	0.031957135
197	0x3e0ceff3	0.13763408
198	0x3d922fa7	0.07137995
199	0xbe1cd4b6	-0.15315518
200	0xbe18aa0f	-0.14908622
201	0x3da4f971	0.0805539
202	0x3d630bb4	0.055431083
203	0x3d89eddf	0.067348234
204	0xbd9e29a4	-0.07722786
205	0xbdbb8511	-0.0915624
206	0xbccb6a01	-0.02483082
207	0xb9b9d54a	-0.00035444862
208	0xbe076dbe	-0.13225457
209	0x3cb023a5	0.021501372
210	0x3d71f840	0.05907464
211	0x3de4a621	0.11164499
212	0xbd2b4756	-0.041816078
213	0x3de2e2f1	0.11078442
214	0xbd7ae8b7	-0.06125709
215	0xbc0a4e2b	-0.008441488
216	0x3de56914	0.11201683
217	0xbd0faef2	-0.03507895
218	0x3c514b2e	0.012774272
219	0xbd06e308	-0.032931358
220	0x3b38b4c4	0.0028183917
221	0xbd961d01	-0.07329751
222	0xbe18c07a	-0.14917174
223	0xbda618d1	-0.08110202
224	0xbdbbfd96	-0.09179227
225	0x3e00c13d	0.12573715
226	0xbde779eb	-0.11302551
227	0x3cea2f43	0.02858699
228	0xbdb03072	-0.0860299
229	0xbe0b9b98	-0.13633573
230	0x3dd10648	0.10206276
231	0x3cb9cbe9	0.02268024
232	0xbbe9944c	-0.007128274
233	0xbd3352e4	-0.043780223
234	0x3cd08146	0.025452267
235	0xbc55a764	-0.013040397
236	0xbd04db50	-0.032435715
237	0x3da1adde	0.07894491
238	0xbdcf7e5e	-0.101315245
239	0x3dfe6bdb	0.124229155
240	0xbd010e5d	-0.03150784
241	0x3932f4cc	0.00017066597
242	0x3e0856c2	0.13314345
243	0x3dbed5df	0.093181364
244	0x3e14142f	0.14460824
245	0xbe07cdf2	-0.13262156
246	0xbe1dbde6	-0.15404472
247	0xbd929028	-0.07156402
248	0xbdbd24da	-0.092355445
249	0x3d8ec984	0.0697203
250	0xbd3d45d1	-0.04620916
251	0xbdbb43c0	-0.09143782
252	0xbd1f036f	-0.038821634
253	0x3d2f786f	0.042839464
254	0x3dccfde2	0.10009362
255	0xbd152028	-0.03640762

dense.bias f4 [20]
0	0xbc06a184	-0.008217219
1	0x3e09165f	0.1338744
2	0x3d9afc60	0.07567668
3	0xbe0a4e1b	-0.13506357
4	0x3ca85e77	0.020552857
5	0xbd96cf12	-0.07363714
6	0x3e0a0976	0.13480172
7	0xbc956f75	-0.018241623
8	0x3e1a81f5	0.15088637
9	0xbdf8f759	-0.12156553
10	0x3d317d02	0.043332107
11	0x3e09498f	0.13406967
12	0x3e0432e7	0.12910043
13	0xbd2ba413	-0.04190452
14	0x3d186db8	0.03721401
15	0x3e2382e2	0.15967897
16	0xbe1f9c2c	-0.15586919
17	0x3e0cc1e8	0.13745844
18	0xbcf48af6	-0.029851418
19	0x3e21aa55	0.15787633
